saved-networks/FourLayerNet_V3.pth (torch_old, 44709 bytes, 7 tensors)

regressor.0.weight f4 [50, 11]
6.64793 -0.82035726 0.79306513 -0.18884723 0.021637619 0.017438954 0.7272472 -0.8637558
2.7169437 0.7909869 1.8282436 -6.498297 1.05311 -0.25333658 -0.2576297 0.21756284
-0.049733624 1.4872707 -1.0160791 1.2918283 -0.088185005 0.9882218 0.019121096 -0.0013245493
-0.034721415 0.033300105 0.020260544 0.0017299079 -0.029887969 0.0049812533 -0.026332555 -0.009321455
-0.03971359 0.015790606 -0.044999745 0.0014952826 0.03420612 0.02973952 0.002021798 -0.018735783
0.02195407 -0.0089356825 -0.008155099 -0.026320113 0.009846697 -0.019800188 0.0036940365 0.027781216
-0.0014216121 0.0060021575 -0.008419421 -0.0012689246 -0.0077741146 -0.0018241376 -0.014519497 -0.013909698
0.065367155 0.021673461 -0.006439955 -0.029527579 0.008744258 0.048783243 -0.009067503 0.026203174
0.026836922 0.06695234 0.012220214 0.02777303 0.07144205 -0.01939537 0.009052272 -0.008175425
0.03842542 0.012912074 0.05868724 0.005709798 0.051926784 0.009562238 -0.021464279 0.016401779
0.022375256 -0.0023620373 0.0029969895 -0.009982482 -0.00041217063 -0.010184236 -0.0023055463 -0.013689161
-7.427492 -0.5927438 -0.1764043 0.030322524 0.0017840847 0.31868395 0.75496083 -0.19438453
1.0169052 0.29887778 0.29012126 0.51333785 -1.8717971 -0.58560133 -0.10330316 -0.02835806
-1.1066194 -2.8984385 1.5823541 0.6442752 -0.28879607 -2.1166248 0.009422584 0.001432998
-0.02566761 0.04161652 0.0040396755 0.02547957 -0.019286927 0.01062716 -0.020311315 0.016117968
-0.028307557 0.010788553 -0.026964933 0.009322156 0.023369642 0.0023340085 0.003801722 -0.0132082375
0.0013324517 -0.0069313995 -0.0015206182 -0.016858805 0.019693475 0.020983675 -0.017363703 0.054107506
0.01933695 0.022154717 -0.016002642 0.005915348 -0.031182554 0.012044715 -0.026210615 2.1525955
-1.9037733 -0.9597151 0.18457605 0.79051596 -0.47295615 -0.7692743 0.7106778 -0.98608106
-0.46837294 -0.3455855 -4.517054 1.8541583 0.13580617 -0.8666235 0.14792073 -0.6075494
-1.5074714 0.63564205 2.7843392 0.040549073 -0.8807324 0.010955411 -0.02489904 0.014912125
0.021626793 -0.0003796579 0.0019532812 -0.012217752 0.0010926103 -0.009522514 -0.0020785884 -0.01472409
0.025785118 0.05680905 0.028409969 0.03127925 0.008394813 0.023455814 0.010910988 0.009285846
0.0017335548 0.022335082 0.011395076 0.011636445 -0.029374676 -0.03511566 0.037614465 0.029121313
0.0039336006 -0.036181808 0.00401498 -0.016400997 -0.0022016598 -0.039311063 0.041607186 -0.063020825
-0.07898882 0.00041029954 -0.00048983673 -0.024140663 -0.025622845 0.03538567 0.007855699 -0.021230476
-0.02149197 -4.0939155 -0.8062808 -0.39850256 -0.11824603 -0.040388722 -0.49474105 -0.45421848
1.5879259 5.611742 0.2840617 -0.06736536 0.32153672 1.4168382 -0.75424194 -0.3305733
0.23257914 -0.38149923 0.14521305 1.0786371 1.0116987 -0.5472272 -0.011970288 0.013408954
0.0012878859 -0.031105213 0.053283453 0.0043152613 0.027625855 -0.020600785 0.0045860526 -0.021694358
0.01753307 -0.029934393 0.017905911 0.01730963 -0.002509897 0.034776643 0.010409178 0.022555586
-0.0067790844 0.0045729806 -0.0043287566 0.01464496 -0.012140776 -5.2114263 0.014626779 -0.46548802
00000000: d8bb d440 ef02 52bf 5106 4b3f 2b61 41be
00000010: 6041 b13c 23dc 8e3c df2c 3a3f 1a1f 5dbf
00000020: 68e2 2d40 1e7e 4a3f e303 ea3f 0df2 cfc0
00000030: 4fcc 863f 55b5 81be 0ae8 83be cbc8 5e3e
00000040: 7cb5 4bbd e35e be3f e10e 82bf a15a a53f
00000050: 579a b4bd 1bfc 7c3f d8a3 9c3c 809c adba
00000060: 0b38 0ebd b165 083d 71f9 a53c 14be e23a
00000070: 9dd7 f4bc c839 a33b 5fb7 d7bc 04b9 18bc
00000080: b8aa 22bd 4d5b 813c a751 38bd 5cfd c33a
00000090: b71b 0c3d 4ba0 f33c 2480 043b c97b 99bc
000000a0: 06d9 b33c f866 12bc f79c 05bc 479d d7bc
000000b0: 0a54 213c 0134 a2bc a617 723b 6f95 e33c
000000c0: 6355 baba bfad c43b 9cf1 09bc 0b52 a6ba
000000d0: 00be febb e717 efba 2fe3 6dbc 81e5 63bc
000000e0: 37df 853d 8b8c b13c 4206 d3bb d2e3 f1bc
000000f0: 1444 0f3c f0d0 473d dd8f 14bc 0aa8 d63c
00000100: 1bd9 db3c 4f1e 893d 4b37 483c 4484 e33c
00000110: 3650 923d 0ae3 9ebc fb4f 143c 38f2 05bc
00000120: f963 1d3d 2a8d 533c 0862 703d 4219 bb3b
00000130: 2eb1 543d efaa 1c3c dbd5 afbc 065d 863c
00000140: 504c b73c 69cc 1abb 2469 443b 908d 23bc
00000150: 9b18 d8b9 c8db 26bc a618 17bb 8148 60bc
00000160: 04ae edc0 0fbe 17bf 54a3 34be f166 f83c
00000170: f3d7 e93a 8b2a a33e 1d45 413f bd0c 47be
00000180: f329 823f 8206 993e c68a 943e 1c6a 033f
00000190: 0c97 efbf f8e9 15bf 9b90 d3bd 2a4f e8bc
000001a0: b4a5 8dbf 0480 39c0 948a ca3f 38ef 243f
000001b0: 14dd 93be c876 07c0 2f61 1a3c 6fd3 bb3a
000001c0: e144 d2bc 1676 2a3d 415f 843b 88ba d03c
000001d0: 9eff 9dbc 8a1d 2e3c ea63 a6bc d409 843c
000001e0: 40e5 e7bc 79c2 303c 90e5 dcbc f5bb 183c
000001f0: b171 bf3c 2af6 183b 5026 793b 5d67 58bc
00000200: a9a5 ae3a cb20 e3bb 7b4f c7ba 7a1b 8abc
00000210: 3654 a13c f5e5 ab3c 533e 8ebc d59f 5d3d
00000220: 8668 9e3c cf7d b53c f917 83bc 89d5 c13b
00000230: 8e72 ffbc 3257 453c a5b7 d6bc 20c4 0940
00000240: d8ae f3bf e4af 75bf 8101 3d3e 415f 4a3f
00000250: 4f27 f2be 29ef 44bf fbee 353f cf6f 7cbf
00000260: 94ce efbe 95f0 b0be b58b 90c0 0f55 ed3f
00000270: c610 0b3e 0adb 5dbf 8878 173e 5c88 1bbf
00000280: d3f4 c0bf 70b9 223f 9d32 3240 c916 263d
00000290: ae77 61bf 537e 333c 12f9 cbbc fc51 743c
000002a0: ac2a b13c d20c c7b9 9f02 003b f72c 48bc
000002b0: eb35 8f3a 5204 1cbc ed38 08bb 4f3d 71bc
000002c0: 503b d33c 9bb0 683d 06bc e83c ac1e 003d
000002d0: 668a 093c 6826 c03c 00c4 323c a923 183c
000002e0: 7238 e33a 10f8 b63c 6ab2 3a3c caa6 3e3c
000002f0: 29a3 f0bc 70d5 0fbd a011 1a3d d28f ee3c
00000300: 6fe5 803b 6033 14bd 1890 833b 625b 86bc
00000310: b949 10bb a304 21bd 4c6c 2a3d 1011 81bd
00000320: e4c4 a1bd 791d d739 6368 00ba a4c2 c5bc
00000330: 00e7 d1bc 90f0 103d 31b5 003c 89eb adbc
00000340: ee0f b0bc 5b01 83c0 6b68 4ebf 8708 ccbe
00000350: f92a f2bd a56e 25bd b34e fdbe 538f e8be
00000360: 2841 cb3f 6493 b340 8970 913e daf6 89bd
00000370: 76a0 a43e f45a b53f 0016 41bf e740 a9be
00000380: 3a29 6e3e de53 c3be bbb2 143e c810 8a3f
00000390: 587f 813f 1517 0cbf 071f 44bc 3bb1 5b3c
000003a0: 48ce a83a 5cd0 febc c03f 5a3d 0967 8d3b
000003b0: 9e4f e23c fac2 a8bc 9946 963b 5eb8 b1bc
000003c0: 83a1 8f3c f938 f5bc 6baf 923c edcc 8d3c
000003d0: 167d 24bb f471 0e3d 428b 2a3c 7ec6 b83c
000003e0: 1523 debb f1d8 953b 3ed8 8dbb 6af1 6f3c
000003f0: 1bea 46bc 01c4 a6c0 28a5 6f3c 7254 eebe

regressor.0.bias f4 [50]
-2.3014278 -0.7464212 -0.023065647 -0.010668711 -0.003617094 -0.0050871423 0.0010043861 0.0058531086
-1.0652384 0.1836439 -0.041023254 0.0026670087 -0.05247593 2.3153527 -0.41324693 0.0069433604
-0.076211475 -0.023868306 0.034567196 -1.2189671 -0.8778429 -0.046549525 -0.057026736 -1.9356604
-5.0262165 -0.024520421 -0.023595233 6.3849573 0.0067479974 -0.5590268 -0.04352438 0.007025403
-0.06744101 -0.043957204 5.015892 -0.022610907 0.025916785 -0.031531826 -0.0246986 0.12916388
-0.01948305 0.05470859 4.660753 -1.6200987 -0.30368522 -0.049983986 0.0013820005 -0.013198807
0.05308078 -0.033192795
00000000: 984a 13c0 7615 3fbf 2bf4 bcbc d1cb 2ebc
00000010: c40c 6dbb 0bb2 a6bb 9ba5 833a 6fcb bf3b
00000020: bb59 88bf 260d 3c3e 0008 28bd fbc8 2e3b
00000030: 00f1 56bd bd2e 1440 1a95 d3be 2185 e33b
00000040: c314 9cbd 7787 c3bc 5596 0d3d 1d07 9cbf
00000050: 50ba 60bf b7aa 3ebd de94 69bd b8c3 f7bf
00000060: c4d6 a0c0 0ddf c8bc ca4a c1bc 9251 cc40
00000070: 4e1e dd3b 611c 0fbf 9f46 32bd 5a35 e63b
00000080: 831e 8abd 780c 34bd 3082 a040 823a b9bc
00000090: 704f d43c 8427 01bd b854 cabc 8943 043e
000000a0: eb9a 9fbc 1d16 603d e324 9540 655f cfbf
000000b0: a17c 9bbe 02bc 4cbd 3e24 b53a cf3f 58bc
000000c0: 3b6b 593d 2bf5 07bd

regressor.2.weight f4 [100, 50]
-1.3935263 1.0119958 0.0045459624 0.0030608706 0.008238894 0.0016870769 -0.016040718 0.007067203
1.1023324 -0.30149242 0.0056487895 0.006173587 0.0057019624 -0.53163517 1.0277559 0.006272471
-0.0047282157 0.0052058697 0.0050786305 0.87152165 0.26118022 0.010059019 0.0024479693 1.088051
-1.5997381 0.0060596303 0.0060743685 -1.6253138 0.006308414 0.7595678 0.0068491534 0.0063005835
-0.0007275736 -1.424141 -1.2599605 -0.0007545568 -0.009899194 0.004497779 -0.0026353658 0.008989529
-0.00042309047 0.025081523 -1.2714783 0.74755126 -0.4095106 0.0063333954 0.08259694 0.008322005
0.006873995 0.005130991 -0.012506497 -0.070140645 0.025330132 0.0001835241 0.00064301677 -0.03531588
-0.03435085 -0.00073192705 -0.007039192 0.02535993 0.010150213 0.0008551277 0.025097655 -0.04997443
0.037924662 -0.0004080771 -0.03536941 0.026655382 -0.0053884923 0.0060900715 0.037311476 0.014427792
-0.002635903 0.02980472 -0.013704352 0.014252427 0.015401733 -0.08626352 -0.00033869507 -0.023990659
-0.023421388 -0.00046067557 -0.039192643 -0.0866601 -0.029394383 0.03192011 0.022157602 0.025772046
0.010834182 -0.02882602 0.02859586 -0.013333 -0.050601624 0.02037757 -0.03793098 0.0029186802
-0.01591852 -0.000981745 -0.014105131 -0.0041951174 -1.7907923 0.89610785 -0.018076852 -0.0038902564
-0.0026760635 0.018980788 0.016652096 -0.005084562 2.1598678 -1.9301423 -0.0028805742 -0.002740753
-0.02808032 -0.6818275 0.6486586 -0.004393831 0.04931278 -0.013622648 -0.0055467514 2.9978907
0.20189191 -0.0048795654 0.024988683 0.5145299 -2.7092235 -0.012018174 -0.0126580335 0.29902062
-0.004441645 1.4315491 0.02563784 -0.004470113 0.036793634 0.23284753 0.29806024 -0.010840995
-0.0035615019 -0.019189598 0.0063831448 -0.053731948 -0.0108768 0.46074727 -1.5910867 0.1275232
-2.215973 0.0066081057 1.3321934 -0.0028594474 -0.014427825 -0.01742641 -0.060595315 0.0070164297
-0.028016042 -0.00923067 -0.008473094 0.024523811 0.038777575 -0.006187309 -0.20115913 0.20499973
-0.00014168199 -0.007285458 -0.005614412 0.14979699 -0.114185356 -0.0064725997 0.017675392 -0.023967694
-0.0015965536 0.0097734975 0.034263555 -0.0031373047 0.0019896477 0.030180408 0.0020694367 -0.018443774
-0.019920228 -0.034279987 -0.0064779744 -0.14606512 0.020614615 -0.006452929 0.023727385 -0.11339636
0.023497788 -0.01325947 -0.003301395 -0.021256926 -0.012770496 0.05036231 -0.026684914 0.046414204
0.1669793 -0.020029059 -0.040155683 -0.0007373668 -0.031605214 -0.0128105115 -0.005080413 0.015379268
-1.2439961 0.91607535 0.001259733 0.0036326605 0.0064169085 0.0057012904 -0.0042236587 0.0050409837
0.9857834 -0.28240803 0.0022986906 0.004716944 0.0018589601 -0.4416225 0.9197717 0.004491596
-0.0027859788 0.0028315329 0.007258607 0.7676722 0.23064885 0.0063285884 0.0020356132 0.97256756
-1.4204407 0.004471387 0.004235011 -1.4228702 0.0045185955 0.68511575 0.010546607 0.004504224
0.0012168793 -1.283532 -1.1128439 -0.0013915856 -0.0069413777 0.0010503127 -0.0019660955 0.007788461
-0.0038388637 0.010945393 -1.125666 0.6476911 -0.38057494 0.0030044843 0.0603356 0.0063048154
0.009160389 0.002954323 -0.6317925 0.42779323 0.0038611055 0.0016486514 0.003993138 -0.008741569
00000000: 125f b2bf 1489 813f 4cf6 943b e398 483b
00000010: 6dfc 063c e820 dd3a d367 83bc ff93 e73b
00000020: 3a19 8d3f 375d 9abe 7b19 b93b cd4b ca3b
00000030: 87d7 ba3b 3e19 08bf 818d 833f 4d89 cd3b
00000040: 26ef 9abb 0096 aa3b a46a a63b 0b1c 5f3f
00000050: 6ab9 853e 95ce 243c 1c6e 203b 4145 8b3f
00000060: 38c4 ccbf dd8f c63b 7f0b c73b 480a d0bf
00000070: d0b6 ce3b 0973 423f dd6e e03b 2075 ce3b
00000080: a3ba 3eba 414a b6bf 6346 a1bf 73cd 45ba
00000090: 3b30 22bc 1b62 933b 1ab6 2cbb d148 133c
000000a0: 3ed2 ddb9 c477 cd3c cdbf a2bf 855f 3f3f
000000b0: 60ab d1be 5f88 cf3b 9628 a93d 0559 083c
000000c0: 403f e13b df21 a83b 0de8 4cbc e6a5 8fbd
000000d0: 2381 cf3c 6070 4039 2090 283a 62a7 10bd
000000e0: 7ab3 0cbd cbde 3fba 06a9 e6bb a1bf cf3c
000000f0: 144d 263c a62a 603a 9999 cd3c fdb1 4cbd
00000100: e456 1b3d 2ef3 d5b9 84df 10bd 635c da3c
00000110: f391 b0bb 398f c73b ebd3 183d 8c62 6c3c
00000120: 1dbf 2cbb 0729 f43c 3888 60bc 0383 693c
00000130: 8d57 7c3c eeaa b0bd e292 b1b9 0f88 c4bc
00000140: 36de bfbc d486 f1b9 7788 20bd da7a b1bd
00000150: 7dcc f0bc a9be 023d dc83 b53c e61f d33c
00000160: da81 313c 8c24 ecbc dd41 ea3c a872 5abc
00000170: a643 4fbd ddee a63c 845d 1bbd 5447 3f3b
00000180: 8e67 82bc e5ad 80ba 3519 67bc 3277 89bb
00000190: af38 e5bf 5367 653f e815 94bc acf3 7ebb
000001a0: e560 2fbb 997d 9b3c fa69 883c 669c a6bb
000001b0: 463b 0a40 e70e f7bf 04c8 3cbb 359e 33bb
000001c0: b308 e6bc 3f8c 2ebf 7d0e 263f 20fa 8fbb
000001d0: 33fc 493d 8731 5fbc 86c1 b5bb 71dd 3f40
000001e0: c1bc 4e3e c3e4 9fbb 11b5 cc3c 3bb8 033f
000001f0: eb63 2dc0 e0e7 44bc a463 4fbc 3b19 993e
00000200: 388b 91bb 003d b73f 7306 d23c 077a 92bb
00000210: ecb4 163d 956f 6e3e 5a9b 983e 6e9e 31bc
00000220: 1668 69bb 8133 9dbc b329 d13b 0816 5cbd
00000230: 9b34 32bc 11e7 eb3e bba8 cbbf 7195 023e
00000240: 80d2 0dc0 cf88 d83b 5085 aa3f 9165 3bbb
00000250: af62 6cbc d5c1 8ebc cb32 78bd 14ea e53b
00000260: e681 e5bc 3c3c 17bc bbd2 0abc 29e6 c83c
00000270: 3cd5 1e3d e9be cabb a9fc 4dbe 73eb 513e
00000280: 7890 14b9 daba eebb 1af9 b7bb 6264 193e
00000290: 03da e9bd 1a18 d4bb fccb 903c e657 c4bc
000002a0: 7343 d1ba 0521 203c f157 0c3d 3d9b 4dbb
000002b0: c064 023b e73c f73c 639f 073b 6617 97bc
000002c0: bf2f a3bc 2c69 0cbd 3045 d4bb 1892 15be
000002d0: fbdf a83c 1873 d3bb ef5f c23c 5a3c e8bd
000002e0: 6f7e c03c 403e 59bc 385c 58bb 0123 aebc
000002f0: 583b 51bc b648 4e3d 529a dabc d21c 3e3d
00000300: 9ffc 2a3e fb13 a4bc 497a 24bd d94b 41ba
00000310: 7874 01bd 2ee3 51bc 9879 a6bb 53f9 7b3c
00000320: 443b 9fbf ea83 6a3f a01d a53a ee11 6e3b
00000330: ee44 d23b e4d1 ba3b 9e66 8abb d62e a53b
00000340: 4d5c 7c3f c997 90be a1a5 163b 9890 9a3b
00000350: 5aa8 f33a 581c e2be 2876 6b3f 3d2e 933b
00000360: f894 36bb 3d91 393b 9cd9 ed3b 2a86 443f
00000370: 362f 6c3e 0c60 cf3b ec67 053b 30fa 783f
00000380: 00d1 b5bf b684 923b d9c5 8a3b 9c20 b6bf
00000390: ba10 943b bf63 2f3f adcb 2c3c 2b98 933b
000003a0: b27f 9f3a c74a a4bf ab71 8ebf dd65 b6ba
000003b0: 7f74 e3bb a5aa 893a 9cd9 00bb 5936 ff3b
000003c0: 7295 7bbb 4e54 333c d315 90bf 15cf 253f
000003d0: b8da c2be e2e6 443b 7622 773d a098 ce3b
000003e0: 7515 163c 519d 413b 27bd 21bf b707 db3e
000003f0: 9a0a 7d3b 9017 d83a dfd8 823b cc38 0fbc

regressor.2.bias f4 [100]
-0.13714279 -0.06019473 0.08126308 -0.04774966 -0.11297109 -0.015555504 -0.01383674 -0.061684832
-0.013796749 -0.041544434 -0.13167109 -0.017690876 -0.053541444 -0.0076781297 -0.0142528275 -0.005246274
-0.17938848 -0.013865355 -0.004797696 -0.05845014 -0.05849275 -0.004162634 0.094619155 0.04022955
-0.09392669 -0.10420555 0.02674641 -0.03441296 0.03558254 -0.017612519 -0.13167669 0.015537487
-0.013840066 0.017828604 0.044863787 -0.13340095 0.017752785 -0.015522899 -0.008689627 -0.013476075
-0.013597886 -0.013445872 -0.008027343 -0.30829787 -0.18821505 -0.013165765 -0.0019188868 -0.013754653
-0.047076993 -0.0029313886 0.0303071 -0.048377905 -0.013520131 -0.021527495 -0.014016394 -0.014396641
-0.0407598 -0.0047553717 -0.027395569 -0.013725582 -0.112425536 -0.013802144 -0.038896337 -0.15246725
0.0030793967 -0.12903903 -0.037861552 -0.109040864 0.0059566684 0.00580735 -0.019230247 0.030136626
-0.16306855 -0.10264598 -0.013635654 0.059830047 -0.0138657605 0.050995473 -0.03558761 -0.013855986
-0.05637487 -0.013961873 0.34912 0.007416875 -0.017352678 0.030437443 -0.019083224 0.39960942
-0.0042602113 0.028965529 0.017602514 -0.017828766 -0.013532298 -0.013884371 0.028151345 -0.055959497
-0.13347761 -0.009195738 0.0003494399 -0.133411
00000000: 296f 0cbe c08e 76bd 426d a63d 2695 43bd
00000010: 635d e7bd 83dc 7ebc 7eb3 62bc 3ca9 7cbd
00000020: c20b 62bc 7f2a 2abd c9d4 06be 75ec 90bc
00000030: 464e 5bbd d298 fbbb b184 69bc f0e8 abbb
00000040: 9db1 37be 842b 63bc fe35 9dbb 6a69 6fbd
00000050: 1896 6fbd b466 88bb b0c7 c13d bec7 243d
00000060: a35c c0bd b869 d5bd 4a1b db3c 9bf4 0cbd
00000070: ffbe 113d 2148 90bc 41d6 06be f290 7e3c
00000080: 72c1 62bc 4b0d 923c 17c3 373d 429a 08be
00000090: 4a6e 913c c253 7ebc f05e 0ebc c1ca 5cbc
000000a0: abc9 5ebc 134c 5cbc 1e85 03bc 38d9 9dbe
000000b0: 72bb 40be 39b5 57bc 2883 fbba 325b 61bc
000000c0: ced3 40bd 8a1c 40bb 9846 f83c e927 46bd
000000d0: 8a83 5dbc 6e5a b0bc 04a5 65bc e4df 6bbc
000000e0: bff3 26bd f3d2 9bbb ac6c e0bc 43e1 60bc
000000f0: 5c3f e6bd 6322 62bc c451 1fbd 6020 1cbe
00000100: b4cf 493b cf22 04be b714 1bbd d150 dfbd
00000110: 2830 c33b 954b be3b c088 9dbc 16e1 f63c
00000120: 71fb 26be 0e38 d2bd 1468 5fbc 5a10 753d
00000130: 372d 63bc a1e0 503d 50c4 11bd 3804 63bc
00000140: 56e9 66bd 57c0 64bc dbbf b23e 4209 f33b
00000150: 3427 8ebc f257 f93c 6c54 9cbc 9b99 cc3e
00000160: 3e99 8bbb 1e49 ed3c 2633 903c a20d 92bc
00000170: 92b6 5dbc 467b 63bc a69d e63c c935 65bd
00000180: 5bae 08be b8a9 16bc 0835 b739 e59c 08be

regressor.4.weight f4 [50, 100]
-0.0009778619 0.014164333 -0.009852639 -0.009756175 -0.00086601404 -0.0026826395 -0.0028571712 -0.0025396834
-0.002861205 0.013042895 -0.0009806924 -0.0024674865 -0.0014050077 -0.0071691056 -0.0028133777 0.0037566093
-0.0013288817 -0.0028541805 -0.003456141 -0.0081146825 -0.0075522787 0.00030244893 -0.002586205 0.0026226873
-0.001327759 -0.00050056283 0.005706861 -0.0020810172 -0.00013285084 -0.0024752032 -0.0009807067 0.00936993
-0.0028567761 0.0028052437 -0.004424915 -0.0009827951 0.002974805 -0.0026860102 0.015091631 -0.0028941883
-0.002881532 -0.0028973497 -0.016891308 -0.0018060575 -4.3009582e-05 -0.0029266449 0.013742551 -0.002865582
-0.014716337 0.01305192 0.0075056236 0.009563791 -0.0028895766 0.0134456735 -0.0028387068 -0.0027990174
0.014007519 -0.0034563707 0.0072525446 -0.00286853 -0.00017071122 -0.002860634 0.004131793 -0.0008021023
0.0059825466 -0.0009734309 -0.0005529315 -0.0008070596 0.013805063 0.0122585315 0.011794943 0.00176889
-0.0005778817 -0.00058952195 -0.0028777248 0.0021517593 -0.002854166 -0.006250421 0.011540666 -0.002855215
-0.028256528 -0.0028443858 -0.20569244 -0.0017594121 -0.002500941 0.0008617096 -0.002336865 -0.003119741
-0.0034579071 0.0015890937 0.002284614 -0.0024507523 -0.0028883559 -0.0028521633 0.002276156 -0.0071979556
-0.0009827267 0.011381825 0.013305642 -0.0009832191 1.1637198 0.043621767 0.7286086 0.07544004
1.0247332 0.50911874 0.5033533 0.060879797 0.5032183 0.088342056 1.1201 0.5161798
0.62224466 -0.03618174 0.5048317 0.006815153 2.1714878 0.5034526 0.4701305 0.088189304
0.09571521 0.013039482 1.3315206 -0.060825884 0.7611805 0.9134174 -0.011881048 0.6876417
0.017183341 0.51592857 1.1201422 -0.0012266724 0.5033678 0.034008637 -0.071773544 1.1458552
0.031203207 0.5090088 0.06738335 0.5021099 0.5025373 0.50200504 -0.07050473 0.07350104
1.5714054 0.50100976 0.052893907 0.5030708 0.07722984 -0.11366633 1.5082122 0.007161997
0.50226706 -0.035547886 0.50397086 0.5053053 -0.07502337 0.46995252 0.02756221 0.50297296
0.8379282 0.503239 0.024730202 1.2859961 0.14146775 1.1047761 -0.017093806 0.9982438
-0.024098558 -0.0750101 0.031513546 -0.063907966 1.3698837 0.93251026 0.5026651 1.5441109
0.50345325 -0.08288787 0.05041366 0.50341827 0.09566406 0.5037788 -0.8022761 -0.0043129036
0.51509005 -0.0037071542 0.5204706 2.9581153 0.4679306 -0.00039963963 0.041157108 0.51672244
0.5023074 0.5035225 -0.21783035 0.10094634 1.1464031 -0.10058626 -0.039710276 1.1399602
0.25897694 0.013531401 0.29203245 0.007097203 0.23102316 0.122039676 0.120947674 0.008089217
0.12092178 0.011720359 0.25037387 0.123362355 0.14528814 -0.0028700347 0.12123173 0.0014100381
0.46863753 0.12096671 0.114332795 0.0073621767 0.00749128 -0.0019338499 0.39868778 0.0082275905
0.17550036 0.20811522 0.005314291 0.16001813 -8.0440775e-05 0.12331578 0.2503819 0.01166729
0.120950416 0.006364357 0.0025767614 0.2554281 0.008391458 0.122018926 0.012042428 0.12070907
0.12079144 0.12068862 -0.008280355 -0.0051124436 0.33949554 0.12049609 0.01238764 0.12089361
0.0024270683 0.0026082913 0.35561156 0.0009333611 0.1207394 0.0059727402 0.121065535 0.121321104
00000000: 9a2b 80ba 8511 683c f76c 21bc 5dd8 1fbc
00000010: 3805 63ba 39cf 2fbb 613f 3bbb d170 26bb
00000020: 0e83 3bbb deb1 553c 948a 80ba 8eb5 21bb
00000030: 3c28 b8ba d1ea eabb a560 38bb 7231 763b
00000040: df2d aeba 340d 3bbb 6d80 62bb 72f3 04bc
00000050: 1b79 f7bb 0292 9e39 527d 29bb 64e1 2b3b
00000060: 3308 aeba 3438 03ba 9f00 bb3b ad61 08bb
00000070: e04d 0bb9 0537 22bb 0e8b 80ba 5684 193c
00000080: c038 3bbb 2ed8 373b e1fe 90bb 22d1 80ba
00000090: f2f4 423b c607 30bb e342 773c 6cac 3dbb
000000a0: 16d8 3cbb 76e1 3dbb a45f 8abc 3cb9 ecba
000000b0: 3065 34b8 f4cc 3fbb 7028 613c 7dcc 3bbb
000000c0: cb1c 71bc b8d7 553c bcf1 f53b 72b1 1c3c
000000d0: 0d5f 3dbb 3e4b 5c3c 9909 3abb b86f 37bb
000000e0: cb7f 653c 4784 62bb c1a6 ed3b f3fd 3bbb
000000f0: f200 33b9 7979 3bbb fe63 873b 2d44 52ba
00000100: 3d09 c43b d82d 7fba 9bf2 10ba da90 53ba
00000110: a22e 623c 02d8 483c 943f 413c 19da e73a
00000120: fc7c 17ba 268a 1aba 3698 3cbb 8804 0d3b
00000130: f60c 3bbb 55d0 ccbb 1015 3d3c 8f1e 3bbb
00000140: 3c7a e7bc e068 3abb 0aa1 52be 139c e6ba
00000150: d4e6 23bb 5ae4 613a 1726 19bb 9274 4cbb
00000160: 0e9e 62bb 2349 d03a 76b9 153b cd9c 20bb
00000170: 924a 3dbb 5ceb 3abb 902b 153b d4dc ebbb
00000180: d6ce 80ba d67a 3a3c e8ff 593c 5cdf 80ba
00000190: c5f4 943f bdac 323d 1886 3a3f 4f80 9a3d
000001a0: 752a 833f 9b55 023f c3db 003f 185d 793d
000001b0: ead2 003f aeec b43d 705f 8f3f 5c24 043f
000001c0: 6d4b 1f3f 4e33 14bd a63c 013f a651 df3b
000001d0: a8f9 0a40 45e2 003f f2b4 f03e 989c b43d
000001e0: 5606 c43d 8da3 553c 446f aa3f 9024 79bd
000001f0: badc 423f b9d5 693f baa8 42bc 4909 303f
00000200: 14c4 8c3c e513 043f d260 8f3f 4cc8 a0ba
00000210: b6dc 003f a44c 0b3d 02fe 92bd 62ab 923f
00000220: de9d ff3c 674e 023f 4800 8a3d 468a 003f
00000230: 49a6 003f 6783 003f c964 90bd b787 963d
00000240: d023 c93f 2d42 003f 48a7 583d 3fc9 003f
00000250: ae2a 9e3d e5c9 e8bd 190d c13f 2faf ea3b
00000260: 9394 003f a99a 11bd 3c04 013f b05b 013f
00000270: daa5 99bd 9e9d f03e 25ca e13c d6c2 003f
00000280: 7682 563f 45d4 003f fe96 ca3c 859b a43f
00000290: ecdc 103e 4e69 8d3f 4f08 8cbc e88c 7f3f
000002a0: 576a c5bc e59e 99bd 5914 013d 2ee2 82bd
000002b0: 5958 af3f feb8 6e3f a9ae 003f 6da5 c53f
000002c0: 50e2 003f 1ec1 a9bd 8e7e 4e3d 05e0 003f
000002d0: 85eb c33d a6f7 003f f761 4dbf 4253 8dbb
000002e0: f1dc 033f baf3 72bb 903d 053f c351 3d40
000002f0: 9994 ef3e b986 d1b9 5b94 283d ec47 043f
00000300: 3897 003f dae6 003f eb0e 5fbe f4bc ce3d
00000310: 56bd 923f 2b00 cebd 3ea7 22bd 37ea 913f
00000320: a098 843e cfb2 5d3c 4785 953e a78f e83b
00000330: 5691 6c3e f0ef f93d 6ab3 f73d a388 043c
00000340: d7a5 f73d c006 403c 0131 803e 67a5 fc3d
00000350: 6ac6 143e 3117 3cbb 5748 f83d 07d1 b83a
00000360: 42f1 ef3e 65bd f73d 5027 ea3d 6a3e f13b
00000370: 6979 f53b 3c79 fdba ce20 cc3e 04cd 063c
00000380: 5eb6 333e 281c 553e 8123 ae3b cbdb 233e
00000390: 50b2 a8b8 fc8c fc3d 0e32 803e 2928 3f3c
000003a0: dab4 f73d 198c d03b e2de 283b 79c7 823e
000003b0: 537c 093c 0fe5 f93d 9b4d 453c 5136 f73d
000003c0: 8161 f73d 982b f73d 53aa 07bc 4986 a7bb
000003d0: 5cd2 ad3e a7c6 f63d 87f5 4a3c 1297 f73d
000003e0: 730f 1f3b deef 2a3b b812 b63e ceac 743a
000003f0: 3846 f73d fab6 c33b 35f1 f73d 3377 f83d

regressor.4.bias f4 [50]
-0.023906533 -0.081145324 -0.026528051 -0.026529435 -0.04327621 0.01081259 0.031224923 -0.023906527
0.013318183 -0.023906518 -0.023906527 -0.026530376 -0.026528636 -0.02390653 -0.02390652 0.03150916
-0.02653044 -0.023906521 -0.023906501 -0.026530331 -0.023906533 0.021866867 0.030684547 0.028926725
-0.023906516 -0.026530445 -0.023906523 0.014772715 -0.02390652 -0.023906516 -0.14059643 -0.023906535
-0.023906508 -0.023906529 -0.2634826 0.012719044 0.012499175 -0.026530383 -0.023906535 0.012344823
-0.07640655 0.07967563 -0.02390652 -0.023906523 0.028705565 -0.023906535 0.014225149 -0.023906527
0.03149841 -0.026530342
00000000: a2d7 c3bc 852f a6bd 5b51 d9bc 4254 d9bc
00000010: 6542 31bd 4a27 313c 69cb ff3c 9fd7 c3bc
00000020: 8234 5a3c 9ad7 c3bc 9fd7 c3bc 3b56 d9bc
00000030: 9552 d9bc a1d7 c3bc 9bd7 c3bc c00f 013d
00000040: 5e56 d9bc 9cd7 c3bc 91d7 c3bc 2356 d9bc
00000050: a2d7 c3bc 2522 b33c 295e fb3c bdf7 ec3c
00000060: 99d7 c3bc 6056 d9bc 9dd7 c3bc 4209 723c
00000070: 9bd7 c3bc 99d7 c3bc 83f8 0fbe a3d7 c3bc
00000080: 95d7 c3bc a0d7 c3bc 31e7 86be 8a63 503c
00000090: 57c9 4c3c 3f56 d9bc a3d7 c3bc f141 4a3c
000000a0: 0a7b 9cbd fa2c a33d 9bd7 c3bc 9dd7 c3bc
000000b0: ef27 eb3c a3d7 c3bc 9910 693c 9fd7 c3bc
000000c0: 7a04 013d 2956 d9bc

regressor.6.weight f4 [1, 50]
-0.020334153 6.8794303 1.453225 1.4531009 9.326357 2.9652069 6.083802 -0.020334153
4.2668495 -0.02033416 -0.02033416 1.4530172 1.4531647 -0.020334153 -0.02033415 6.2373557
1.4530245 -0.020334154 -0.020334145 1.4530296 -0.020334167 4.932036 6.4487143 5.3350105
-0.020334162 1.4530246 -0.020334149 4.483077 -0.020334156 -0.020334175 3.4226475 -0.020334138
-0.020334149 -0.020334156 -0.29355887 3.5369718 3.1841016 1.4530226 -0.020334175 3.1506
9.79448 0.8625609 -0.020334156 -0.020334145 5.31808 -0.020334167 4.410303 -0.020334149
8.2926035 1.4530191
00000000: cf93 a6bc 4b24 dc40 4703 ba3f 36ff b93f
00000010: c238 1541 f3c5 3d40 82ae c240 cf93 a6bc
00000020: 088a 8840 d393 a6bc d393 a6bc 78fc b93f
00000030: 4d01 ba3f cf93 a6bc ce93 a6bc 6b98 c740
00000040: b5fc b93f d093 a6bc cb93 a6bc e0fc b93f
00000050: d793 a6bc 3dd3 9d40 de5b ce40 68b8 aa40
00000060: d493 a6bc b6fc b93f cd93 a6bc 5e75 8f40
00000070: d193 a6bc db93 a6bc a80c 5b40 c793 a6bc
00000080: cd93 a6bc d193 a6bc 594d 96be bf5d 6240
00000090: 52c8 4b40 a5fc b93f db93 a6bc 6ea3 4940
000000a0: 31b6 1c41 cbd0 5c3f d193 a6bc cb93 a6bc
000000b0: b62d aa40 d793 a6bc 3421 8d40 cd93 a6bc
000000c0: 81ae 0441 88fc b93f
