saved-networks/FourLayerNet_V2-SGD.pth (torch_old, 87509 bytes, 7 tensors)

regressor.0.weight f4 [100, 11]
0	0x3f3a2217	0.72708267
1	0x3eaff189	0.34363964
2	0x3ed21f0e	0.41039318
3	0xbe803318	-0.2503898
4	0x3e18b955	0.14914449
5	0xbd5c9fb4	-0.053863242
6	0x3ed40d7d	0.4141654
7	0x3f36d35d	0.71416265
8	0x40112bfb	2.2683094
9	0xbd68c9f5	-0.056833226
10	0x3f8fa412	1.1221945
11	0xc055c40e	-3.3400912
12	0xbfe735c4	-1.8063283
13	0x3f1ef70c	0.62095714
14	0xbea63d68	-0.32468724
15	0xbe07ca7a	-0.13260832
16	0x3e90c024	0.28271592
17	0x3d7d3350	0.061816514
18	0xbf5b1dd5	-0.85592395
19	0xc091ac60	-4.552292
20	0xbe3f8636	-0.18703541
21	0x3e93c7e2	0.28863436
22	0xc05b3552	-3.4251294
23	0xbfdbb123	-1.7163433
24	0xbf39ab40	-0.7252693
25	0xbf628579	-0.88484913
26	0x3e362b78	0.1779002
27	0x3ea52ff5	0.3226315
28	0xbff87481	-1.9410554
29	0xbbfe7fb1	-0.007766687
30	0x3feb6048	1.8388758
31	0x3ed7c3da	0.4214161
32	0xbfcbb215	-1.5913721
33	0x3fb62d1f	1.423252
34	0x3ffd011d	1.9765965
35	0x3f8abf2a	1.0839589
36	0xbdfdbafc	-0.1238918
37	0xbe25af1e	-0.16180083
38	0xbe8dbbe1	-0.27682403
39	0xc005b785	-2.0893261
40	0xbfa5a3a4	-1.2940564
41	0xc0b17b93	-5.5463347
42	0x3e8d68d6	0.27619046
43	0xbff1c0b0	-1.8886929
44	0x3f5dc529	0.8662897
45	0xbfc075e8	-1.5035982
46	0xbbb9cb72	-0.0056700045
47	0x3e4746e7	0.19460641
48	0x3db25ade	0.08708738
49	0xbed5a99a	-0.41730958
50	0xbec67aa0	-0.3876543
51	0x3dd8b028	0.10580474
52	0x3fcfbb6c	1.6229072
53	0xbdcde544	-0.100534946
54	0x3ed35656	0.41276807
55	0xbfe603f0	-1.7969952
56	0xbf80d7e1	-1.0065881
57	0xbed12621	-0.40849403
58	0x3eafe821	0.34356788
59	0xbe838081	-0.25683978
60	0xbec35060	-0.3814726
61	0xbb87750e	-0.004133827
62	0x3dcafead	0.09911857
63	0x3f8c42d6	1.0957897
64	0xbe187cc8	-0.1489135
65	0xbf37dc3c	-0.71820426
66	0xbea5f59d	-0.3241395
67	0x3e0e84ab	0.13917796
68	0x3f17ab97	0.592462
69	0xbec1fc5a	-0.3788784
70	0xbf539100	-0.8264313
71	0x3d36f8ae	0.044670753
72	0xbe0376c9	-0.12838282
73	0xbc093470	-0.0083743185
74	0x3e7a8510	0.24464822
75	0xbe883ce3	-0.26608953
76	0x3dbfd320	0.09366441
77	0xc0506d36	-3.2566657
78	0xbf08f6e8	-0.5350175
79	0x3f73da12	0.95254624
80	0x3dbb513d	0.09146354
81	0x3ec796f3	0.38982353
82	0xbdc056c1	-0.09391547
83	0xbf02e0c1	-0.511242
84	0x3f54c514	0.8311322
85	0xc08e61b0	-4.4494247
86	0xbf3ce2e7	-0.73783726
87	0xbf79e967	-0.9762177
88	0xbe0a2c16	-0.1349338
89	0xbebf624a	-0.37379676
90	0x3f868088	1.0507975
91	0x3ecc3341	0.39882854
92	0x3e447b76	0.19187722
93	0xbeb6c7bb	-0.35699257
94	0xbeea5d0c	-0.45774114
95	0x3e5e464f	0.21706508
96	0xbf87b223	-1.0601238
97	0xbebabe05	-0.36473098
98	0xbe6127ac	-0.2198779
99	0xbef7fa06	-0.4843294
100	0xbc48772d	-0.012235445
101	0xbea0dc0b	-0.3141788
102	0xbdb70ecf	-0.089383714
103	0xbdb65e9e	-0.089047655
104	0xbf03bd56	-0.5146078
105	0xbf09ee42	-0.5387918
106	0x3eb8e1a7	0.3610966
107	0x3f08de62	0.5346433
108	0xbef4927f	-0.47768018
109	0xbf1d644a	-0.61481154
110	0xc06b418e	-3.6758761
111	0x3f0c8e87	0.5490498
112	0x3fddfb81	1.7342378
113	0x3eb06683	0.3445321
114	0x3f139072	0.5764228
115	0x3f92dd7c	1.1473842
116	0xbed15da0	-0.40891743
117	0xbda2f255	-0.079563774
118	0xc08ea496	-4.457591
119	0x3ed41947	0.41425535
120	0xbece3513	-0.40274867
121	0x40349ef8	2.8222027
122	0xbfa2290c	-1.2668777
123	0x3f8b3f8d	1.0878769
124	0x3f0a5f9a	0.54052126
125	0x3de4d2d4	0.11173025
126	0xbfb2607c	-1.3935695
127	0xbf1a445d	-0.60260564
128	0x3f9a18b0	1.2038784
129	0x4042cd7d	3.043792
130	0xbe57288b	-0.2101156
131	0x3f586b0a	0.8453833
132	0xbef6b536	-0.48185128
133	0x3ea9458d	0.33060876
134	0xbd1b80f0	-0.03796476
135	0x3f1ef322	0.6208974
136	0xbd4c536f	-0.049884256
137	0xbec4cae2	-0.38436037
138	0xbf22caf3	-0.63590926
139	0x3f2704ad	0.6524151
140	0x3f546ce1	0.82978636
141	0xbdc7ff29	-0.09765465
142	0xbf5c9e35	-0.86178905
143	0xc0bf78e7	-5.9835086
144	0x3f150f78	0.5822673
145	0xbdb5d6d4	-0.08878866
146	0x3f2a0720	0.6641712
147	0xbe0e4dae	-0.1389682
148	0x3e35e962	0.1776481
149	0x400737d9	2.1127837
150	0x3f9b3d9a	1.2128174
151	0x3fc49086	1.5356605
152	0x3e92249b	0.28543553
153	0x3feb8dcc	1.8402648
154	0x402393e8	2.5559025
155	0x4005f992	2.0933576
156	0x3ebebf42	0.37255293
157	0xbf62860a	-0.8848578
158	0x3e9764bb	0.2956904
159	0x3f49d101	0.7883454
160	0xbf20eb46	-0.62859
161	0x3e8d4e78	0.2759893
162	0xc05668f1	-3.350155
163	0x3e9d6a39	0.30745104
164	0xbf26a0cc	-0.65089107
165	0x3facb174	1.3491654
166	0x3f89f107	1.0776681
167	0x3d8f2c18	0.06990832
168	0x3f7509dc	0.9571817
169	0xbeb10e2b	-0.34581122
170	0xbeb5af1d	-0.35485163
171	0xbeb7cefc	-0.35900104
172	0x3ef1c3aa	0.47219592
173	0x3f9456c6	1.1588981
174	0xbe4895e2	-0.19588426
175	0xbf1c3c31	-0.61029345
176	0x3f82c6fe	1.0216978
177	0x3f57a2cb	0.8423278
178	0x3f23181f	0.6370868
179	0xbf08368c	-0.5320823
180	0x3f0c4168	0.547873
181	0x3f11e345	0.5698741
182	0xbfd58e31	-1.6684018
183	0x3f127eb6	0.57224596
184	0xc06dc1a2	-3.7149434
185	0x3ebcaf69	0.36852577
186	0xbfbba6e6	-1.4660308
187	0x402b0ed4	2.67278
188	0x400c5f77	2.1933267
189	0xbed1698d	-0.4090084
190	0x3e9a9994	0.30195296
191	0x3eef8968	0.4678452
192	0x3ea2e5a3	0.31815824
193	0xbeae022b	-0.3398603
194	0x3eccd0e0	0.4000311
195	0xc095e57c	-4.684263
196	0x3e630d24	0.22172982
197	0xbf55b97f	-0.8348617
198	0xc0c300c3	-6.093843
199	0x4037d9c6	2.8726668
200	0x3cbe2476	0.023210745
201	0xbf0c80d7	-0.54884094
202	0x3e088167	0.13330613
203	0xbe243897	-0.16037212
204	0xc08bedcd	-4.3727784
205	0x4000c41d	2.0119698
206	0x4090d985	4.5265527
207	0x3ed334bf	0.4125118
208	0xc04fd060	-3.2470932
209	0x3f884133	1.0644897
210	0x40159163	2.3369987
211	0x3f03f035	0.515384
212	0x3e30c60a	0.17263046
213	0xbc408bfa	-0.011752123
214	0xbf8d69c6	-1.1047904
215	0xbf0130f5	-0.5046533
216	0x3fa89672	1.3170912
217	0x403f17f0	2.985836
218	0xbf64e3e7	-0.8941025
219	0xbd3b9943	-0.04580046
220	0xbf93d2de	-1.1548727
221	0x3edb7bc5	0.42867866
222	0x3ec47f85	0.3837854
223	0x3f9cfd1f	1.2264746
224	0xbf6e7415	-0.9314588
225	0x3ed62bd3	0.4183031
226	0xbf37f4e6	-0.7185806
227	0xbf871596	-1.0553463
228	0xc02d0798	-2.7035885
229	0xbec28b39	-0.37996843
230	0xbf9e94af	-1.2389125
231	0xbe642799	-0.2228073
232	0x3e3de23c	0.18543333
233	0x3e447fb2	0.19189337
234	0x3ec35de4	0.3815757
235	0xbe1efc19	-0.15525855
236	0xbe222b6e	-0.1583688
237	0xbf1836ba	-0.59458506
238	0xbb17dec3	-0.0023173548
239	0x3f67cf70	0.905509
240	0x3ea37fd5	0.31933466
241	0xbdaeb785	-0.08531097
242	0x40b94b90	5.790474
243	0xbfd66c35	-1.6751772
244	0xbfd9450a	-1.6974194
245	0x3eba0871	0.36334565
246	0xbd3c6d64	-0.04600276
247	0xbe9be3cf	-0.30447242
248	0xc04c9686	-3.1966872
249	0x3e69fa7c	0.22849458
250	0xbf72ed77	-0.9489359
251	0x3dea7a43	0.11449101
252	0xc04493d3	-3.0715225
253	0xbedc67a3	-0.4304782
254	0x406dea45	3.7174237
255	0xbdc4b345	-0.096045054

regressor.0.bias f4 [100]
0	0xbfc05184	-1.5024877
1	0x3f2fcc4b	0.686711
2	0x3f550d2b	0.8322322
3	0x40b2b9f6	5.5852003
4	0xbe9b92d5	-0.3038546
5	0x3f663b18	0.8993392
6	0x3f5bb5d2	0.8582431
7	0xbf706f91	-0.93920237
8	0x3ea88d3a	0.32920247
9	0xbf0f8bca	-0.56072676
10	0xbea7a7a8	-0.327451
11	0x3fb1d8a0	1.3894234
12	0x3b650af0	0.0034949146
13	0x3ff99f3e	1.9501722
14	0x4092ce7d	4.587706
15	0x402c2995	2.690038
16	0x40906106	4.5118437
17	0x407ea4e6	3.9788146
18	0xc093578f	-4.6044383
19	0xbfa0e1d6	-1.256892
20	0x3e863325	0.26210895
21	0x3faa0339	1.3282233
22	0x40873c81	4.2261357
23	0xbf93b2b1	-1.1538907
24	0xbbb37ee3	-0.0054777726
25	0x4018b40a	2.3859887
26	0x3fec0801	1.8439943
27	0xbecf5d0a	-0.4050067
28	0xbee75788	-0.4518397
29	0x3f46aefe	0.77610767
30	0x3fb7c185	1.4355932
31	0xbe784982	-0.24246791
32	0xbf7be838	-0.9840121
33	0x3e9137b4	0.2836281
34	0x3cf9ab5c	0.030477218
35	0x3f8739f0	1.0564556
36	0xbf2c5f6a	-0.6733309
37	0x3fb53a5e	1.4158437
38	0xbfa1f77f	-1.2653655
39	0x3ff8ae6f	1.9428233
40	0x3f049e9d	0.51804525
41	0x4070213b	3.7520282
42	0x3c116be0	0.008875817
43	0xbe57c30c	-0.21070498
44	0x3f69db7e	0.91350543
45	0xbf8d339b	-1.1031374
46	0xbecbfb3f	-0.39840123
47	0x3f64c07c	0.8935621
48	0xbfcbbc2c	-1.59168
49	0x3f1d23e6	0.613829
50	0xbf7308ce	-0.9493531
51	0xbe7a8f76	-0.24468789
52	0x3efbf965	0.4921371
53	0xbfca133a	-1.5787117
54	0x3fa640e1	1.298855
55	0xbfa30bcc	-1.2737975
56	0xbd3c641d	-0.045993913
57	0xbe96419a	-0.29346925
58	0x3f64759b	0.8924195
59	0x3f4e78b9	0.8065296
60	0xbe6c31ce	-0.23065874
61	0x403b12dc	2.923026
62	0xbfe495a6	-1.7858169
63	0xc00106bf	-2.0160367
64	0x3e63bedd	0.22240777
65	0xbe1d1eef	-0.15343831
66	0x3e557de0	0.20848799
67	0x3f196240	0.5991554
68	0xbe1ad23a	-0.15119258
69	0x3f16ea56	0.5895132
70	0xbe54cbea	-0.20780912
71	0x3f3fca6a	0.74918234
72	0xbf0de06a	-0.55420554
73	0x401c292e	2.4400134
74	0xbe8d2ec5	-0.27574745
75	0x3ed3d993	0.41376933
76	0xbee3a187	-0.44459173
77	0xbfb2811a	-1.3945649
78	0x3f88a472	1.0675185
79	0xbf266c68	-0.65009165
80	0x3f9a3c97	1.204974
81	0x3d63d770	0.05562538
82	0x3f0a7dec	0.5409839
83	0xbd8fbeaf	-0.07018792
84	0xbf6a9338	-0.9163089
85	0xbdf37717	-0.11887949
86	0x3ed1c433	0.4097
87	0xbfae9c2d	-1.3641411
88	0xc053a0b6	-3.306684
89	0xbe1a9806	-0.15097055
90	0x3f17ac24	0.5924704
91	0x402a5ca4	2.6619043
92	0x3f975aab	1.1824545
93	0x3f253e78	0.64548445
94	0x3d8e5b6f	0.06951033
95	0x3fa91ba7	1.3211564
96	0x3e27fd72	0.16405275
97	0x3f1dbac1	0.6161309
98	0x3e7049bd	0.23465629
99	0xbea80a96	-0.32820576

regressor.2.weight f4 [100, 100]
0	0x3e00ca4a	0.12577167
1	0xbf1fa005	-0.62353545
2	0x3f2a5b56	0.6654562
3	0xbf515c7e	-0.81781757
4	0xbe4279cf	-0.18991779
5	0x3cd42c47	0.02590002
6	0xbdf08a40	-0.11745119
7	0x3e9088e7	0.28229448
8	0x3dd71f39	0.10504002
9	0x3e6da11c	0.2320599
10	0xbe6b461b	-0.22975962
11	0x3e3ee62b	0.1864249
12	0x3e4353a7	0.1907488
13	0xbf6f0328	-0.9336419
14	0xbed53d37	-0.41648266
15	0xbddf3d06	-0.10900311
16	0xbea7c9a2	-0.3277102
17	0xbedbc94e	-0.4292702
18	0x3e67f8c3	0.22653489
19	0x3e672786	0.2257367
20	0xbd4909cc	-0.04908161
21	0xbd8eef79	-0.069792695
22	0xbe765cfb	-0.24058907
23	0xbe1cc92b	-0.15311114
24	0x3e035a6f	0.12827466
25	0xbea665cb	-0.32499537
26	0x3eb3a36b	0.35085616
27	0xbd85fe13	-0.065426014
28	0x3de32f94	0.11093059
29	0x3dd2a7be	0.102859005
30	0xbdd3b993	-0.1033813
31	0x3e894ded	0.26817265
32	0xbdce7628	-0.1008113
33	0xbea84f21	-0.3287287
34	0xbd85ad0d	-0.065271474
35	0xbe53c175	-0.20679267
36	0x3e324cf3	0.17412166
37	0xbe71b723	-0.23605017
38	0x3d726625	0.059179444
39	0xbf8f3602	-1.1188357
40	0xbe79feac	-0.24413556
41	0x3f481986	0.78163946
42	0x3e12002d	0.1425788
43	0xbe571db3	-0.21007423
44	0x3da2cd09	0.079492636
45	0x3efbd932	0.49189144
46	0xbe2caa4b	-0.16861837
47	0x3f46fce8	0.77729654
48	0x3d7062aa	0.058687843
49	0xbe7112ec	-0.23542374
50	0xbe3b60a1	-0.1829858
51	0x3e93fc53	0.28903446
52	0xbe23c375	-0.1599253
53	0x3f757735	0.9588502
54	0x3d8782da	0.06616755
55	0x3e8f4b63	0.27987203
56	0x3e362dcc	0.17790908
57	0x3e3c82cd	0.18409272
58	0x3ca03e28	0.019560888
59	0xbe3c89a6	-0.18411884
60	0x3e72c895	0.23709328
61	0x3e8b5010	0.2720952
62	0x3ef5cf1c	0.48009574
63	0x3cef1304	0.029183872
64	0x3e7ca2b7	0.24671446
65	0x3eadbda3	0.33933744
66	0xbe18e4dd	-0.14931054
67	0xbd964200	-0.07336807
68	0x3e024bb3	0.1272419
69	0xbc828ea4	-0.015937157
70	0x3cf939a5	0.030422995
71	0xbea6aee9	-0.3255532
72	0xbd2588e8	-0.040413767
73	0xbe238553	-0.15968828
74	0x3eb4376c	0.35198534
75	0xbc2664b0	-0.010155842
76	0xbe3e7143	-0.18597893
77	0x3f280d4c	0.6564529
78	0xbe039fab	-0.12853877
79	0xbd8aa200	-0.0676918
80	0xbcdbdd90	-0.026839048
81	0xbe0a837e	-0.13526723
82	0x3dbc8ed3	0.09206929
83	0xbe7d815b	-0.24756376
84	0x3f47a280	0.7798233
85	0xbf0a7061	-0.54077727
86	0xbe7de608	-0.24794781
87	0x3f733d59	0.95015484
88	0x3f587c3a	0.84564555
89	0x3e6c3d4b	0.23070256
90	0xbef7d3ed	-0.48403874
91	0x3f04c7fd	0.5186766
92	0x3d59f58d	0.05321269
93	0xbda63f2d	-0.081175186
94	0xbe37f9dc	-0.17966408
95	0x3d6b7397	0.057483282
96	0x3eb60a0c	0.3555454
97	0x3cdcb093	0.026939666
98	0xbc3408b2	-0.010988401
99	0xbe232459	-0.15931834
100	0xbd6fc3f5	-0.05853649
101	0xbf8dfb77	-1.1092366
102	0x3d33aaa7	0.04386392
103	0x3eb28b45	0.3487188
104	0xbeb9314f	-0.36170432
105	0x3c504912	0.012712734
106	0x3e20659d	0.15663762
107	0xbf473061	-0.77808195
108	0xbd173e0a	-0.0369244
109	0xbe67a1dc	-0.22620338
110	0xbe0ac9be	-0.13553521
111	0xbbd9df4d	-0.006648934
112	0x3db6d574	0.08927432
113	0x3e979bfd	0.29611197
114	0x3bfc0091	0.007690497
115	0x3f11a195	0.5688718
116	0xbe3815fd	-0.17977138
117	0xbe45e06b	-0.1932389
118	0xbed91abb	-0.42403206
119	0xbed296eb	-0.41130766
120	0x3e6420e2	0.22278169
121	0x3e8aa455	0.270785
122	0xbf922819	-1.1418487
123	0x3f59f431	0.8513823
124	0xbe1dc4bb	-0.15407078
125	0xbf398626	-0.7247032
126	0x3f156c3e	0.5836829
127	0xbd97c2f1	-0.07410229
128	0x3eb555b3	0.35416946
129	0x3d91475c	0.07093689
130	0x3e6212e6	0.22077522
131	0xbd9f2eda	-0.07772608
132	0xbd07adfd	-0.033124913
133	0xbeb3f23e	-0.35145754
134	0xbe1b9efc	-0.15197366
135	0x3d16625b	0.036714893
136	0x3e818b33	0.25301513
137	0x3e0ccafc	0.13749307
138	0xbe91ee3d	-0.28502074
139	0xbe92bcb2	-0.28659588
140	0xbde5f940	-0.11229181
141	0xbf5a325b	-0.85233086
142	0xbe1550bd	-0.1458158
143	0xbe8367a4	-0.2566501
144	0xbee498d8	-0.4464786
145	0xbd63df20	-0.05563271
146	0xbf42764a	-0.75961745
147	0x3dec90a0	0.115510225
148	0xbe26775b	-0.16256468
149	0xbc1b60ca	-0.0094835255
150	0x3e4f592f	0.20248865
151	0xbe1efdb5	-0.15526469
152	0x3e95e0ba	0.29273015
153	0xbf167613	-0.58773917
154	0x3ec0aa44	0.37629902
155	0x3d9cfbf4	0.07665244
156	0xbdb886af	-0.09010064
157	0xbd9cacd4	-0.07650152
158	0x3e19f175	0.15033515
159	0x3ce5ed17	0.028067155
160	0xbe43adca	-0.19109264
161	0x3ef671d1	0.4813371
162	0xbe48a992	-0.19595936
163	0xbe7f66d5	-0.24941571
164	0x3e1e3d6b	0.15453117
165	0xbdd23202	-0.102634445
166	0x3ddabd86	0.1068068
167	0xbe7f1806	-0.24911508
168	0x3b9cef1e	0.004789247
169	0xbb1d2b2b	-0.002398203
170	0xbe7f1a3c	-0.24912351
171	0xbe5a83bf	-0.2133932
172	0xbe1d7e6c	-0.15380257
173	0x3eacfc9e	0.33786482
174	0xbee832e6	-0.45351332
175	0xbe1b50ad	-0.15167494
176	0x3e86748e	0.262608
177	0xbf69e736	-0.91368425
178	0x3ec82e72	0.39097935
179	0xbec8b10f	-0.39197585
180	0xbd15334d	-0.036425877
181	0xbddc95f3	-0.10770788
182	0xbeb41d88	-0.3517878
183	0xbde3b36c	-0.111182064
184	0x3ed44403	0.4145814
185	0x3ec1b84b	0.37835917
186	0xbe94d284	-0.2906686
187	0xbf2d2e6e	-0.6764897
188	0xbe80f8cf	-0.25189826
189	0xbdfd748f	-0.123757474
190	0x3e562f0b	0.20916383
191	0x3ea5115c	0.32239807
192	0xbdd1a6a9	-0.10236866
193	0x3e118dc5	0.14214237
194	0xbd7acaef	-0.06122869
195	0xbe97f6ee	-0.2968058
196	0xbd1b5315	-0.03792103
197	0xbb877484	-0.004133763
198	0xbee47947	-0.44623777
199	0xbebd22c0	-0.36940575
200	0x3db6337f	0.08896541
201	0xbeff04c2	-0.49808317
202	0x3de139b7	0.10997336
203	0xbe8f83a6	-0.28030127
204	0x3eb2693a	0.34845906
205	0xbeac2931	-0.33625177
206	0x3d8340e8	0.06408864
207	0xbecdb4a3	-0.40176877
208	0xbccb6468	-0.02482815
209	0x3e052647	0.13002883
210	0xbe62a215	-0.22132142
211	0x3ecaf093	0.3963667
212	0x3e2ce12e	0.16882774
213	0xbf3960b9	-0.7241321
214	0x3e82d497	0.25552818
215	0x3dba6fa7	0.09103327
216	0x3e1ec71b	0.1550564
217	0x3d071817	0.03298196
218	0xbe3be744	-0.1834994
219	0x3eb9670d	0.36211434
220	0xbf033da9	-0.5126596
221	0xbda8fa7e	-0.082509026
222	0x3f682367	0.9067902
223	0x3eeee9cc	0.46662748
224	0xbe6bb2b2	-0.23017386
225	0x3eb83a2e	0.35981888
226	0xbd0f2791	-0.034949843
227	0xbdd26553	-0.10273232
228	0x3e0d85de	0.13820598
229	0xbe35aaf4	-0.17740995
230	0xbe128be3	-0.14311175
231	0xbc6a6ac2	-0.01430768
232	0xbccd69ca	-0.025074858
233	0x3e8ff6a4	0.2811786
234	0x3ca33be8	0.019926026
235	0xbe351058	-0.17682016
236	0xbe7ea17c	-0.24866289
237	0x3ed3eab4	0.41390002
238	0x3df52049	0.119690485
239	0x3e9741bb	0.29542336
240	0xbc86c210	-0.016449958
241	0xbf66d4c6	-0.90168417
242	0xbdd7bae4	-0.105336934
243	0x3e1a32e3	0.15058474
244	0xbce8a534	-0.028399087
245	0xbbf0106d	-0.007326177
246	0xbec62c26	-0.38705558
247	0xbd4598e1	-0.0482415
248	0x3e8988c8	0.26862168
249	0xbe60708f	-0.21917938
250	0xbeac8f23	-0.33702955
251	0x3e1b3ba8	0.15159476
252	0x3c841646	0.016123902
253	0x3deb137a	0.11478324
254	0xbda9fb01	-0.08299828
255	0xbd8f690f	-0.0700246

regressor.2.bias f4 [100]
0	0xbeddf90d	-0.43354073
1	0x3ea30817	0.3184211
2	0xbe92df0d	-0.286858
3	0xbe6b360a	-0.22969833
4	0x3e949055	0.29016367
5	0x3f25897a	0.646629
6	0xbedbe56d	-0.42948475
7	0xbe0a6b87	-0.13517581
8	0xbd9f7a3d	-0.07786987
9	0xbdd7c9a2	-0.10536505
10	0xbdfc8ec9	-0.123319216
11	0x3e8a1744	0.26970875
12	0xbdfb3fbb	-0.12268015
13	0xbe0d34c8	-0.13789666
14	0x3e0f3f17	0.1398891
15	0xbd317506	-0.043324493
16	0x3d60e217	0.054903116
17	0xbde57ce8	-0.112054646
18	0x3f3abdbf	0.7294578
19	0x3e964142	0.29346663
20	0xbe318fa9	-0.17339958
21	0xbd97e767	-0.07417183
22	0xbd0461e2	-0.03231991
23	0xbeb83d12	-0.35984093
24	0x3f8d6d5e	1.1049001
25	0xbdadbedf	-0.084836714
26	0x3ef8048e	0.48440975
27	0x3f60e783	0.8785326
28	0x3f95fc32	1.1717589
29	0x3ed25e38	0.41087508
30	0xbddbbf23	-0.10729816
31	0xbdb1faa6	-0.086903855
32	0x3f089443	0.5335123
33	0xbe03891f	-0.12845276
34	0xbe62d5dd	-0.22151895
35	0x3dec413e	0.115358815
36	0x3a86a50a	0.0010272574
37	0x3bf2fdfb	0.0074155307
38	0xbcd59c73	-0.026075577
39	0xbdbbfc65	-0.09179
40	0xbe6cfdda	-0.23143712
41	0xbe6abe0e	-0.22924063
42	0x3ea8c644	0.32963765
43	0xbac9003a	-0.001533515
44	0xbe235ce0	-0.15953398
45	0xbd94be3a	-0.07262845
46	0xbee8c06b	-0.45459303
47	0xbd6b88bf	-0.057503458
48	0x3e02955c	0.12752289
49	0x3ebf03f8	0.37307715
50	0x3f263f8a	0.649407
51	0x3dafeb45	0.08589796
52	0x3f0e6cf8	0.55635023
53	0x3d4fb0d1	0.050705735
54	0x3ec3bb01	0.3822861
55	0xbd1e0632	-0.038580127
56	0x3f3356de	0.70054424
57	0x3e0fa072	0.14026049
58	0xbda6f5c0	-0.08152342
59	0xbd6b9bc4	-0.057521597
60	0xbe62592f	-0.22104333
61	0x3e4bf9f4	0.19919568
62	0x3f261e5f	0.6489009
63	0xbde0128d	-0.10941038
64	0x3ed9a5d5	0.42509332
65	0xbe16b358	-0.14716852
66	0x3f1888a7	0.59583515
67	0x3f2b6f9b	0.6696717
68	0x3ee03ff3	0.4379879
69	0xbe8b9643	-0.27263078
70	0x3d655017	0.055984583
71	0xbe8fad7a	-0.2806204
72	0x3d31bebf	0.0433948
73	0x3cd11780	0.025523901
74	0x3f5cb397	0.8621153
75	0xbf00d5b2	-0.50326073
76	0x3c124dda	0.008929694
77	0x3f11173c	0.5667608
78	0x3d9f4880	0.077775
79	0xbf247a7c	-0.64249396
80	0xbcbe7b14	-0.023252048
81	0xbeb41e3b	-0.35179314
82	0xbd9d94b6	-0.0769438
83	0x3f34817c	0.7051008
84	0xbde19eb3	-0.110165976
85	0x3f063c97	0.524362
86	0x3db4f80a	0.08836372
87	0x3ed74ff9	0.42053202
88	0xbe0a1930	-0.13486171
89	0xbd30ebd3	-0.04319365
90	0x3ec526dd	0.38506213
91	0xbe083518	-0.13301504
92	0x3cd87fb3	0.02642808
93	0xbf019bbf	-0.50628275
94	0xbdf5d2a2	-0.12003066
95	0x3d0fa9dd	0.035074104
96	0x3ecc7edc	0.39940536
97	0x3d481726	0.0488502
98	0xbe15b329	-0.14619125
99	0x3fb371be	1.4019086

regressor.4.weight f4 [100, 100]
0	0xbe92d318	-0.28676677
1	0xbd589349	-0.052874837
2	0xbd4ea70b	-0.050452273
3	0xbd6546a3	-0.055975568
4	0x3e9e359b	0.30900273
5	0xbeb198d1	-0.34686902
6	0xbf399bf7	-0.7250361
7	0xbf86f78c	-1.0544295
8	0xbe7b0ed8	-0.24517381
9	0x3c5f7a1f	0.013639956
10	0xbebbd948	-0.3668921
11	0x3dbb0370	0.09131515
12	0xbe85b054	-0.2611109
13	0xbb909f48	-0.004413519
14	0xbe4e721b	-0.20160715
15	0xbe074b38	-0.13212287
16	0x3f058ddd	0.5216959
17	0xbc6edcc3	-0.014579001
18	0x3e1a4e0a	0.15068832
19	0x3c5c2fdd	0.013439146
20	0x3c10ffa2	0.00885001
21	0x3e01fcec	0.12694138
22	0xbd949e65	-0.07256774
23	0xbf5fa1c6	-0.8735622
24	0x3e92368b	0.28557238
25	0xbd854f81	-0.06509305
26	0x3e608869	0.21927036
27	0x3e4f2edb	0.20232718
28	0xbe157ffa	-0.145996
29	0x3d892571	0.066965945
30	0xbdc069ba	-0.09395166
31	0xbecee49c	-0.4040879
32	0x3e050847	0.12991439
33	0xbf9a8b92	-1.2073843
34	0xbd10e55a	-0.035374977
35	0x3e19627a	0.14978972
36	0x3ede93df	0.43472192
37	0xbe9bde2d	-0.30442944
38	0xbd5e0bf1	-0.054210607
39	0xbda05ab1	-0.07829798
40	0xbe8d0f32	-0.27550656
41	0xbe3f47f3	-0.1867979
42	0x3e44d931	0.19223477
43	0x3ce72be1	0.028219165
44	0x3ccfc8fc	0.025364392
45	0xbdf6b801	-0.12046815
46	0x3f7641b0	0.9619398
47	0xbddca9a8	-0.10774547
48	0x3b9305d7	0.00448678
49	0x3deaf71b	0.11472913
50	0xbe570e7e	-0.21001622
51	0xbd9fc4c7	-0.07801204
52	0x3e294347	0.1652957
53	0x3d6dc7cd	0.058051873
54	0x3d9fa5b3	0.077952765
55	0xbdfba1a0	-0.12286687
56	0xb9c9103a	-0.00038349797
57	0x3e22e178	0.15906322
58	0x3ebc3065	0.36755672
59	0x3f3a4ed0	0.7277651
60	0xbf25ebe9	-0.64813095
61	0x3e56378d	0.20919628
62	0x3e00b1da	0.12567845
63	0x3eb04017	0.34423897
64	0x3f1178b3	0.568248
65	0x3dc222b1	0.09479273
66	0xbdaf1957	-0.08549755
67	0xbe4ff365	-0.20307691
68	0xbdf77c37	-0.12084239
69	0xbe122339	-0.14271249
70	0xbe403351	-0.18769576
71	0x3cf6d120	0.030129015
72	0xbde4297f	-0.11140727
73	0xbde51d14	-0.11187187
74	0x3e8b407a	0.2719763
75	0xbeb7b265	-0.35878292
76	0xbd6535a1	-0.055959348
77	0x3e6054b9	0.21907319
78	0xbc9c2ad8	-0.019063398
79	0xbdcb6938	-0.09932178
80	0x3e6ee95e	0.2333121
81	0x3eca2c14	0.39486754
82	0x3e7585e5	0.23976858
83	0x3e3efd92	0.18651417
84	0xbbb8da10	-0.0056412295
85	0x3e72a336	0.23695073
86	0x3e4c4315	0.19947465
87	0x3e7a449d	0.24440236
88	0xbe03d1be	-0.12872979
89	0xbf057237	-0.52127403
90	0x3f1abac2	0.6044122
91	0xbe0b4141	-0.13599111
92	0x3e86d3a0	0.26333332
93	0x3f5b3754	0.856313
94	0xbe1fdb08	-0.15610898
95	0x3d2b425f	0.041811343
96	0x3e64939d	0.22321935
97	0x3da88369	0.082281895
98	0xbdd9549e	-0.106118426
99	0x3f170787	0.5899586
100	0xbf30c15e	-0.69045055
101	0x3e96cb5d	0.2945203
102	0xbddf8ca5	-0.10915498
103	0xbdda876b	-0.1067036
104	0x3f1b6494	0.60700345
105	0x3ca0cb89	0.019628303
106	0x3eb30f14	0.3497244
107	0xbe9868e2	-0.2976752
108	0xbd8bcce1	-0.06826187
109	0xbd9fbfbf	-0.078002445
110	0xbdd45771	-0.103682406
111	0x3e9353f6	0.28774995
112	0x3d222a38	0.039591044
113	0xbe687fdb	-0.22705023
114	0xbf4f097c	-0.80873847
115	0x3d4a7813	0.049430918
116	0x3f5c88b4	0.8614609
117	0x3d4d11b4	0.05006571
118	0x3e9e6f59	0.30944327
119	0xbf0eb814	-0.5574963
120	0xbedfac40	-0.43686104
121	0x3d7ce83b	0.06174491
122	0xbe844326	-0.2583248
123	0xbf132dad	-0.5749157
124	0x3dcb68c8	0.09932095
125	0xbd7ae7cb	-0.06125621
126	0x3ec37495	0.38174883
127	0x3e827314	0.25478423
128	0x3ebb4fdc	0.36584365
129	0x3e0f294c	0.13980597
130	0xbea8b946	-0.32953852
131	0x3d6a69d0	0.057229817
132	0x3ea2b07f	0.3177528
133	0x3eae1bcd	0.34005585
134	0x3d10c228	0.03534141
135	0x3e2f0aa8	0.17093909
136	0xbf504ab0	-0.81363964
137	0xbe923cc1	-0.28561977
138	0xbf1f185c	-0.62146544
139	0x3dba2811	0.09089673
140	0x3e9a2cc1	0.3011227
141	0xbf18abc8	-0.5963712
142	0x3ea79d6e	0.32737297
143	0x3db87bb6	0.09007971
144	0xbf02c5b4	-0.5108292
145	0x3db0c42a	0.08631165
146	0x3fd5766a	1.6676762
147	0xbcd9753a	-0.026545156
148	0xbf4a9773	-0.79137343
149	0x3e909cf3	0.28244743
150	0x3e3a47ed	0.181915
151	0xbe803ef0	-0.25048018
152	0x3eb1af86	0.34704226
153	0x3e841b71	0.25802186
154	0x3e30698d	0.17227764
155	0xbc8ae6ca	-0.016955752
156	0x3e88b1fa	0.26698285
157	0x3e29c276	0.16578087
158	0xbf1ca5a9	-0.6119028
159	0x3f92d1bf	1.147026
160	0x3d88d30e	0.066808805
161	0xbdf9f7c0	-0.12205458
162	0x3ec1469c	0.37749183
163	0x3e25b10c	0.1618082
164	0x3f8843ff	1.0645751
165	0xbdcc82fb	-0.0998592
166	0xbf4b14c9	-0.7932859
167	0x3e9fab34	0.31185305
168	0x3e8b6766	0.27227324
169	0xbefd8a1b	-0.4951943
170	0x3db44659	0.0880248
171	0x3d87872e	0.0661758
172	0x3dcbf516	0.09958856
173	0xbca87ba2	-0.020566765
174	0x3e9f404b	0.3110374
175	0x3eb14b59	0.34627798
176	0xbb7680eb	-0.0037613462
177	0x3eee134b	0.46499094
178	0x3d9a280a	0.07527168
179	0x3f8afc5f	1.0858268
180	0x3d831495	0.0640041
181	0xbea0547e	-0.31314462
182	0xbd97113c	-0.07376334
183	0x3e8a50e8	0.27014852
184	0x3d1f9930	0.03896445
185	0x3eebdb61	0.4606581
186	0x3e5e1260	0.21686697
187	0x3eba1729	0.36345795
188	0xbcc6bbe8	-0.024259523
189	0xbf4a1188	-0.78933
190	0x3f03aba8	0.514338
191	0x3e5c5b6b	0.21519248
192	0xbd98d029	-0.074615784
193	0x3fc4a8db	1.5364031
194	0xbde2a140	-0.11065912
195	0x3da1a10d	0.07892046
196	0x3ebe084e	0.3711571
197	0x3d97e672	0.07417001
198	0x3d55a640	0.0521605
199	0xbf89ab08	-1.075532
200	0xbf9fd5fa	-1.2487175
201	0xbdf05854	-0.11735597
202	0xbd856e57	-0.06515186
203	0x3e886a97	0.26643822
204	0x3d6d6481	0.057957176
205	0x3e578cc8	0.21049798
206	0x3d636d2c	0.055524036
207	0x3ec346ec	0.38140047
208	0x3e07e7a8	0.13271964
209	0x3eec88bc	0.4619807
210	0xbf11ca59	-0.56949383
211	0x3cad4940	0.021153092
212	0xbe4075b7	-0.18794905
213	0xbe8a4a02	-0.27009588
214	0xbf57d1e3	-0.84304637
215	0xbd0db4fe	-0.034596436
216	0xbcd75af0	-0.02628848
217	0x3ba5b04c	0.0050564166
218	0xbb0c93f1	-0.0021450485
219	0xbd862970	-0.06550872
220	0xbe28ea4c	-0.16495627
221	0x3d74ae15	0.05973633
222	0x3e37c1d5	0.17945035
223	0x3da98c21	0.082786806
224	0xbdbb86dd	-0.091565825
225	0x3dc91571	0.09818543
226	0xbd8ab30a	-0.0677243
227	0xbe0f0b28	-0.139691
228	0xbea791fd	-0.32728568
229	0xbcaf98b1	-0.021435114
230	0x3ef867b2	0.48516613
231	0xbdc3c99d	-0.09559939
232	0x3d57b048	0.05265835
233	0x3e952531	0.29129937
234	0xbe94c5d3	-0.29057178
235	0x3e091039	0.13385095
236	0xbe09e4a6	-0.13466129
237	0xbe3f5958	-0.18686426
238	0xbf7e2ec5	-0.99290115
239	0xbc385af7	-0.011252156
240	0x3d452332	0.048129268
241	0xbe5f1c46	-0.21788129
242	0xbe097c7e	-0.13426396
243	0x3de7e8fc	0.11323735
244	0xbe61a74c	-0.22036475
245	0x3df76ed6	0.12081687
246	0xbc849b06	-0.016187202
247	0x3dc2d1a1	0.0951264
248	0xbe58ca36	-0.21170887
249	0xbd40f7d2	-0.04711134
250	0x3d33e513	0.043919634
251	0x3e7e8b34	0.2485779
252	0x3bb63fc9	0.005561803
253	0x3df05a81	0.11736012
254	0xbd48b035	-0.04899617
255	0x3e9f842f	0.31155536

regressor.4.bias f4 [100]
0	0x3e553c91	0.20823886
1	0x3cc43a1c	0.02395349
2	0xbe0c2013	-0.1368411
3	0xbe32d442	-0.17463782
4	0xbd5a70fb	-0.053330403
5	0xbe3e223b	-0.18567745
6	0x3e4970fb	0.19672005
7	0xbd149a53	-0.036279988
8	0xbdae446b	-0.085091434
9	0xbdc4c137	-0.09607165
10	0xbe5d762b	-0.21627109
11	0x3e6ee594	0.23329765
12	0x3e6e976d	0.23299952
13	0xbe022a42	-0.12711433
14	0x3df2101e	0.1181948
15	0x3e0d0133	0.13769989
16	0xbe12105d	-0.14264055
17	0x3c0a029e	0.008423476
18	0x3e19bd78	0.15013683
19	0xbd04a279	-0.03238151
20	0xbdab8727	-0.08375388
21	0x3e5ba103	0.2144814
22	0x3daac1d3	0.0833775
23	0x3e6839a8	0.22678244
24	0xbde002eb	-0.109380566
25	0xbd43d6de	-0.047812335
26	0xbe5b4db5	-0.21416362
27	0xbe27a02c	-0.16369694
28	0x3e94c03c	0.29052913
29	0xbd35f0ef	-0.044419225
30	0xbea192af	-0.31557223
31	0xbdcd6bd5	-0.10030333
32	0x3e39022b	0.18067233
33	0xbe18dfdc	-0.14929146
34	0x3df0558e	0.11735068
35	0xbd8cbd87	-0.06872087
36	0xbe4e8e16	-0.20171389
37	0xbdbffa18	-0.093738735
38	0xbdfaf969	-0.122546025
39	0x3b9e684c	0.0048342105
40	0x3eb42cf7	0.35190555
41	0xbe4e87f6	-0.20169052
42	0xbcbe22a2	-0.023209874
43	0xbe370ba5	-0.17875536
44	0x3d5f5710	0.05452639
45	0xbd8883d4	-0.06665769
46	0xbe17c99b	-0.14823
47	0x3daa1715	0.08305184
48	0xbd942104	-0.0723286
49	0x3e2e89a1	0.17044689
50	0xbe5db707	-0.2165185
51	0xbdeda4a1	-0.11603666
52	0x3e3d6e32	0.18499067
53	0xbdb183fe	-0.08667754
54	0xbd461afa	-0.04836557
55	0xbc237fde	-0.009979216
56	0x3e0839b5	0.13303263
57	0xbdcb921c	-0.099399775
58	0x3ea6c1e7	0.3256981
59	0xbad54644	-0.0016271551
60	0x3eaf83ae	0.3428015
61	0xbd5f8ba8	-0.054576546
62	0xbe6ec147	-0.23315917
63	0x3e806908	0.25080132
64	0xbe371c90	-0.1788199
65	0x3e2961c2	0.16541198
66	0x3fd2c741	1.6467057
67	0xbdcb70a5	-0.099335946
68	0xbdb4f2e8	-0.08835393
69	0xbe91eca8	-0.28500867
70	0x3eaa2b6f	0.33236262
71	0xbe087576	-0.13326058
72	0xbd537922	-0.051629193
73	0x3e495c7f	0.1966419
74	0x3d00c527	0.03143802
75	0xbe418309	-0.18897642
76	0xbda9b809	-0.08287055
77	0x3ed5f458	0.41787982
78	0xbdddf6e4	-0.10838106
79	0xbcd4f500	-0.025995731
80	0x3e846824	0.25860703
81	0x3eda6b3b	0.42659935
82	0xbc8b9dea	-0.017043073
83	0xbdc21755	-0.094771065
84	0xbd8478ed	-0.06468377
85	0xbd858b39	-0.06520695
86	0x3cf29c9f	0.029615698
87	0x3e0c94e2	0.1372867
88	0x3ea9ebcc	0.3318771
89	0x3e0d7af9	0.13816442
90	0xbe1c703c	-0.15277189
91	0xbe5d73be	-0.21626183
92	0xbd8ef7a2	-0.06980826
93	0x3e7f3d97	0.24925838
94	0x3eda29ee	0.42610115
95	0xbe9950a7	-0.29944345
96	0x3d888bb1	0.06667269
97	0xbe25bac7	-0.16184531
98	0xbe3ae356	-0.18250784
99	0x3e2c068d	0.16799374

regressor.6.weight f4 [1, 100]
0	0x3fa0a848	1.2551355
1	0x4088e513	4.277963
2	0xbf55246f	-0.8325872
3	0xbf3cf88b	-0.73816746
4	0xbf37ac51	-0.7174731
5	0x4015d567	2.34115
6	0x3e938690	0.288136
7	0x40925e88	4.5740395
8	0xbf24dcd5	-0.6439946
9	0xbf08bb4e	-0.53410804
10	0x3ed623c9	0.41824177
11	0x41861ceb	16.76412
12	0x40bbc64f	5.8679576
13	0xbf2f03c6	-0.6836513
14	0x40167133	2.3506591
15	0x408303bd	4.0942063
16	0xbf8bd262	-1.0923579
17	0xbe4e593d	-0.20151229
18	0x3f413668	0.7547364
19	0x3ec52872	0.3850742
20	0xbe3165ea	-0.17324033
21	0x4060ee75	3.5145543
22	0x4142aa11	12.16652
23	0x410c5b7f	8.772338
24	0xbf345992	-0.70449173
25	0x3fa04169	1.2519962
26	0xbf2d6b03	-0.6774141
27	0x40452e65	3.0809567
28	0x3f2c8e99	0.67405087
29	0x40252ead	2.5809739
30	0xbd8c2ac9	-0.06844098
31	0xbf3b0423	-0.7305319
32	0x3f719d17	0.94380325
33	0xbf604d53	-0.8761799
34	0x4169dbb2	14.616137
35	0xbf944ed9	-1.1586562
36	0xbf40c066	-0.75293577
37	0xbed995a8	-0.4249699
38	0x41009923	8.037387
39	0x409685e1	4.7038426
40	0x40a41bff	5.1284175
41	0xbf62e5a1	-0.88631636
42	0xbf1f1ff3	-0.62158126
43	0xbf2f9c37	-0.6859774
44	0x3e6cb4de	0.2311587
45	0xbf0f9248	-0.5608258
46	0x40751875	3.8296177
47	0x3e6ffc2a	0.23436037
48	0x3e88038a	0.265652
49	0x3e99f1b0	0.30067205
50	0xbefe09c5	-0.4961683
51	0xbf02842d	-0.50982934
52	0x3f43f3db	0.7654397
53	0xbe848ac5	-0.25887123
54	0xbde43b72	-0.11144151
55	0xbe8b1ffb	-0.27172837
56	0x400aad8e	2.166843
57	0xbf9cd08c	-1.2251143
58	0x4053591d	3.302314
59	0x3fbde85f	1.4836539
60	0x4003c8c7	2.0591295
61	0x3f983690	1.1891651
62	0xbeceb30b	-0.40370974
63	0x3ebd0e77	0.36925098
64	0xbf099b15	-0.5375226
65	0x3fa3cae6	1.2796295
66	0x3e629b93	0.2212966
67	0x40b4e02f	5.652366
68	0xbf828409	-1.0196544
69	0xbf363527	-0.71174854
70	0x3f8e3f53	1.1113075
71	0xbf5fe8ba	-0.8746449
72	0xbf0d0e83	-0.5510027
73	0x40fa7abe	7.827483
74	0x3e60614f	0.2191212
75	0xbe008fc2	-0.12554839
76	0xbf142e1d	-0.57882863
77	0x405f2378	3.4865398
78	0xbef7da21	-0.48408607
79	0xbe2b47c7	-0.167266
80	0x411d3f7b	9.827998
81	0x40c8ca0c	6.274664
82	0xbf0b1613	-0.5433056
83	0xbe9b15aa	-0.30289966
84	0xbf2a343c	-0.66485953
85	0xbeabdf01	-0.33568576
86	0x3f266245	0.649937
87	0x40bdb198	5.927929
88	0x401ef194	2.4834948
89	0x411a5454	9.645588
90	0x40fa7ff1	7.828118
91	0xbd742bdd	-0.059612144
92	0xbf05e641	-0.52304465
93	0x3fcc9870	1.598402
94	0x3fb5de0a	1.4208386
95	0xbf088b7d	-0.5333784
96	0x40670575	3.609708
97	0xbf3de5f2	-0.74178994
98	0xbf5ae10a	-0.8549963
99	0x3ea8e84b	0.32989725
