saved-networks/FourLayerNet_V2-Adam.pth (torch_old, 87509 bytes, 7 tensors)

regressor.0.weight f4 [100, 11]
00000000: 4ca5 b0bf e13f 85bf ac59 7bc0 aa17 7dbf
00000010: cf0f e23e c55e 2fbf 447b e53f fd82 093f
00000020: 863a 763e b8ff 163e d46a a83f e092 a83e
00000030: de32 17c0 12c6 9c41 53ac d43f 7232 90bf
00000040: 062f 9cc0 d4fb 27bf abe7 d13f a7b6 3640
00000050: 56c5 ccc0 9f85 f1bf 1f91 0fc0 1ee3 1440
00000060: c880 4fbe 1b63 44bf 1870 b8be 5a6b 3f40
00000070: 63ff 073e f2ee 413f d2b8 10c1 5a6c 4d3d
00000080: 8ead 1cc0 93f1 9a3f 1ad8 663e a3ed 33c0
00000090: 05f0 0140 cbe8 6ec0 d234 cb3f 3b4a 4640
000000a0: 0371 4dc0 22b4 10c0 f5af 92bf dd28 8c3e
000000b0: a735 6ec0 dd3e 213f 8a8c 843f 83a0 a0c0
000000c0: f318 0d3f 3741 a93f 981b 30c0 f397 dd3e
000000d0: 9a7d c8bf df7c aa40 3ea0 a93e efa5 3240
000000e0: 3a73 1740 b2bd c73e 0ff6 74bf a286 9ebd
000000f0: 5c61 ae3f a0a7 0e40 da0d a43f 54b9 0bc1
00000100: db06 05c0 f521 87bf 7861 af40 af5f 8dbf
00000110: b49a 1f3f 38ec 7a3e 2ab7 0d3f 6056 d83e
00000120: 4d30 34c0 cc14 863f 93ea cec0 610e a7be
00000130: 9c21 47c0 9e98 ba40 422c 2640 804c 093f
00000140: 9e80 c2bf 8137 e93e 65ca 5dbf 4f57 3440
00000150: b5ba dd40 14fe 0240 14ba 22bf 2727 5340
00000160: e093 8740 b7f6 6140 5dda 47bf a59b 86c0
00000170: 4ae7 2dc0 f240 1ebf a89b 863f 53dd 91bc
00000180: 505c e73f d16d 5cbf de0a d9bd 6cb8 b8bf
00000190: da19 a03e 515a 2abf 57e7 1b3f 1ede 65c0
000001a0: d177 eabe ccd1 c73f ce53 8cbf a15e 9740
000001b0: 98c9 fa3d b743 f03f ecc1 84bf 7c60 d93f
000001c0: 81dc 9a3f 9478 b7be 46f0 cc3e 1b3c 073e
000001d0: 029a 9f3f 3113 d53f 9b36 2dc1 470c b13e
000001e0: 6210 cf3f 2854 0a3f d191 89c0 49b6 bb40
000001f0: 91fc 8bc0 0250 26c0 204f a53f c435 27c0
00000200: dd1a 4240 29b7 8c40 c72a 8dbf bb0e 9dc0
00000210: f0d4 e3bf a0ff 00c1 6afb bfbf 89a6 a4c0
00000220: b329 64bf 6e7d 68bf 6bcb 94c0 2b68 653f
00000230: f1e4 bec0 ef4a 813f 5c08 06c0 3201 6fc0
00000240: 4ec9 aabf 3a66 54bf 0314 5e3f e978 f13e
00000250: d08c 563e cd9c 6f40 de9c ffbf 522d 9940
00000260: 213d 233d 57ec 0440 6b46 88bf ebda a240
00000270: 6729 9b3e 5f28 84c0 ed30 79be 122d 72bf
00000280: ad55 2d3f 1cc9 be3e a72a 5ac0 0dc2 37bf
00000290: e187 2c3e 6d23 1c41 0241 b240 0392 e33d
000002a0: 9bad 593f 5564 933e 22c9 2a3c 5434 e0bf
000002b0: 9343 113e 1607 c1bf d953 90bc 6045 adbf
000002c0: 6082 52c0 1106 a0bf 4d6b 04c0 14c3 8c3e
000002d0: bcbf 813e 7901 9c40 b8cc b1bf 2f35 1441
000002e0: 5d8c ad3f 6d49 9f40 cf82 69bf 1bb8 6540
000002f0: 22f7 3941 e028 313f d06c 3ebf e573 5b3d
00000300: e139 8bbe e142 803f 5883 943f 41b8 9e3e
00000310: c44a 0fbe 85c2 7b3f 034c d240 1467 9b40
00000320: 9377 56c0 48b4 b53f e64a af3f af0c c83f
00000330: 556c 54bf fde7 2340 dd26 893f 93d1 2a40
00000340: a455 c5be b3df 4941 581a 1dc0 8e99 d7be
00000350: 9d2a 47c0 0f2b 0d40 352b 2c40 c2fb 71c0
00000360: 5d9a 963f ad3c 36be ef06 f53f 0a51 85c0
00000370: 19e6 3f41 b4ea 90c0 cbde 873f f201 d93f
00000380: a4d8 10c0 332c a7bf b914 36c0 affc 7b3f
00000390: 478c b93f 9bea a03e 28a5 5dbf 5319 a3c0
000003a0: 3383 c9bf 163c 993f a743 533f 3964 103f
000003b0: d591 a93c 38a5 96bf 7127 18c0 2e66 9340
000003c0: 824a 6b40 42ab 53be 3302 1fc0 9879 97bf
000003d0: 0084 09be d9b5 fbc0 64db 6d3f b219 0740
000003e0: 1bc4 7c3f 67e1 2940 55e1 75c0 3e05 3e40
000003f0: 24f4 9b3f daa8 e7bf f2ee 63c0 567d 4341
-1.3800445 -1.0410119 -3.9273481 -0.98864233 0.44152686 -0.6850398 1.7928243 0.537155
0.24045762 0.14745986 1.3157601 0.32924557 -2.3624797 19.596714 1.6615089 -1.1265395
-4.88074 -0.65618634 1.6398824 2.8548982 -6.399089 -1.8868903 -2.2432325 2.3263621
-0.2026397 -0.7671372 -0.3602302 2.9909272 0.13281016 0.75755227 -9.045122 0.05015216
-2.448093 1.2104973 0.22543374 -2.8113792 2.0302746 -3.7329586 1.5875494 3.0982807
-3.2100227 -2.2609944 -1.1459948 0.27374926 -3.7220247 0.62986547 1.0355389 -5.0195937
0.55116194 1.3223027 -2.7516842 0.4327999 -1.566333 5.327743 0.33130068 2.7913778
2.3664079 0.39011914 -0.95687956 -0.07740523 1.3623462 2.228981 1.2816727 -8.732746
-2.0785434 -1.0557238 5.480648 -1.1044825 0.62345433 0.24504173 0.5535761 0.422534
-2.815448 1.0475097 -6.4661345 -0.32628158 -3.1114264 5.83113 2.5964513 0.53632355
-1.5195501 0.4555016 -0.86636955 2.817829 6.9290414 2.0467577 -0.6356518 3.2992647
4.236801 3.5306833 -0.7806757 -4.2064996 -2.7172418 -0.6181785 1.0516253 -0.01780573
1.8075047 -0.86105067 -0.10597776 -1.4431281 0.31269723 -0.6654406 0.6089987 -3.591682
-0.45794538 1.56109 -1.0963075 4.7303014 0.12245482 1.8770665 -1.037168 1.698257
1.2098542 -0.3583418 0.40027064 0.13206522 1.2468874 1.6646482 -10.825831 0.3457968
1.6176875 0.5403466 -4.29905 5.8660016 -4.374581 -2.5986333 1.2914772 -2.6126566
3.0328896 4.3973584 -1.102868 -4.908048 -1.7799358 -8.062408 -1.49986 -5.145329
-0.8912613 -0.9081639 -4.6498313 0.8961207 -5.965447 1.0100993 -2.0942602 -3.734448
-1.3342683 -0.82968485 0.86749285 0.4716256 0.20952153 3.7439454 -1.9969747 4.7867823
0.03985322 2.076925 -1.064649 5.0892234 0.30305025 -4.129928 -0.2433507 -0.9460002
0.67708856 0.3726281 -3.4088533 -0.71780473 0.16848709 9.758649 5.5704355 0.11111834
0.85030526 0.28787485 0.01042393 -1.7515969 0.14185934 -1.5080287 -0.017618107 -1.3536797
-3.2892075 -1.2501851 -2.0690491 0.27492583 0.25341594 4.87518 -1.38906 9.262984
1.355846 4.977713 -0.91215223 3.589362 11.622835 0.69202995 -0.74384785 0.053577323
-0.27192596 1.002041 1.1602583 0.3099995 -0.13993365 0.9834369 6.571779 4.856333
-3.3510482 1.4195642 1.3694732 1.5628871 -0.829778 2.5610344 1.0714985 2.6690414
-0.385419 12.617114 -2.454733 -0.4210934 -3.111976 2.205753 2.6901371 -3.780991
1.1765858 -0.17796583 1.9142741 -4.1661425 11.993676 -4.5286503 1.0614866 1.6953719
-2.2632227 -1.3060364 -2.8450148 0.9843244 1.4495934 0.3142899 -0.86580133 -5.0968413
-1.5743164 1.1971462 0.82525104 0.5640293 0.020699421 -1.1769171 -2.3774073 4.606223
3.6764226 -0.20670798 -2.4845092 -1.1833982 -0.1342926 -7.865948 0.9291289 2.1109433
0.98736733 2.6543825 -3.8418782 2.96907 1.2183881 -1.8098404 -3.561459 12.2181

regressor.0.bias f4 [100]
00000000: 6839 abc0 2f2c 013e 66b2 9ec0 f31c a0c0
00000010: 0fe1 44c0 4b8f fd3f e536 2f40 d692 57c0
00000020: 1944 0a3f ab3a 17c1 ea5d 04c0 ae77 f9bb
00000030: e9b8 82c0 b31b 9ebf d1d4 a0c0 75f4 5e40
00000040: 0c18 df3e b73d 15bd 1662 2dc1 f766 4440
00000050: 4746 5440 f2a8 7ec0 208f 20c0 4334 0d40
00000060: c13c 6b40 4ff9 24c0 7779 85c0 5d19 fcbf
00000070: 11e8 4dc0 3d66 09c0 eed8 653f 9edc a8c0
00000080: 88c0 0ec0 55a1 41be fe94 56bf 96d8 bbc0
00000090: c1e5 e5bf 019d d7c0 fe46 cec0 b8a4 e4c0
000000a0: 9a99 10c0 34fb d7bf fe66 d23e 92f0 953f
000000b0: 8fb4 61c0 488b a5bf fd0b 523f a0b3 06c0
000000c0: e54f 56bf 0cb3 abc0 1989 8c40 aa1a 0ec0
000000d0: 73f7 663f 6bd8 11c0 568d 9e40 d2b2 86c0
000000e0: 19d8 95bf 3dfa e5bd e546 86bd 62ef 5940
000000f0: 9e10 30c0 547f 0e40 1dfd 8ac0 a294 32bf
00000100: 964f a63f c194 e6c0 0ae2 6fc0 13b9 bcc0
00000110: 472d b240 635f 5fc0 ebdb 023f 31fd 07c0
00000120: 662d a1c0 ddf1 5fc0 eb44 f7bf ea97 f73d
00000130: cf6d 8bc0 2e81 e5bf 8977 c5be f410 d1bf
00000140: cc4e 4dc0 02b4 f4c0 5c9c 2640 05d0 8cc0
00000150: 399e b0c0 2316 81c0 ae23 b1bf e81d 7840
00000160: 6e08 a2c0 6ec9 f2bf 62d8 19c1 02ec 6ac0
00000170: 8514 7b3e f509 8c40 a1b3 f5bc a40c 733f
00000180: 21f3 2abf 6199 cbc0 0a9a ccbf e73c a4bf
-5.3507576 0.12614511 -4.959277 -5.003534 -3.0762365 1.9809355 2.7377255 -3.3683372
0.5401016 -9.451823 -2.068232 -0.007613144 -4.085072 -1.2352203 -5.0259786 3.4836705
0.43573034 -0.03643581 -10.836447 3.0687845 3.3167894 -3.9790616 -2.5087357 2.2063148
3.6755831 -2.5777166 -4.1710773 -1.969524 -3.2172892 -2.1468651 0.89784133 -5.276931
-2.2305012 -0.189092 -0.83821094 -5.8701887 -1.796074 -6.7379155 -6.446166 -7.1451073
-2.259375 -1.6873536 0.41094202 1.1714041 -3.5266454 -1.293313 0.8204954 -2.1047134
-0.8371566 -5.3656063 4.3917356 -2.2203774 0.9022133 -2.278834 4.954753 -4.2093287
-1.1706573 -0.1122937 -0.06556491 3.4052358 -2.7510142 2.2265215 -4.3433976 -0.69758046
1.2993038 -7.2056584 -3.7481713 -5.897592 5.568027 -3.490197 0.5111682 -2.1248286
-5.036792 -3.4991372 -1.9317907 0.12089522 -4.3571544 -1.7930048 -0.3856776 -1.6333299
-3.2079344 -7.6469736 2.6032934 -4.400393 -5.5193143 -4.033952 -1.3839014 3.8768253
-5.063529 -1.8967721 -9.615328 -3.6706548 0.24519546 4.3762155 -0.02999288 0.94941163
-0.66777235 -6.362473 -1.5984509 -1.2831086

regressor.2.weight f4 [100, 100]
00000000: d737 0ac0 ffaa 1140 4bd8 823f 8f39 9c40
00000010: ce75 72c0 5e4a 843e 8f7e ebc0 6228 1ac0
00000020: 5578 8fbf 5ab6 61c0 f608 6140 7575 e4bf
00000030: 59df 993f bbe7 603f efe5 b540 9c7f 893c
00000040: 212c a4bf 77cc 5f3f 8f64 7dbf c345 af40
00000050: cf0e 953f d88d 9abf 0662 dbbe 5044 4040
00000060: 699c fcbf 32f2 17c0 083e dcbf 998f adbe
00000070: a6c0 65c0 108f 82c0 aee3 f73f 684d b940
00000080: e6f4 9ec0 f82b eebe 2969 80be 7044 523f
00000090: c82e 403f 766c 75c0 2553 91bf 5080 e440
000000a0: 6cfa 54c1 977e ff3f 2168 3fc0 c274 b3be
000000b0: 0247 bb3f 6f6f c7be fa5a ddbf bb40 0ac0
000000c0: ab87 ffc0 89bb 2cc0 06b4 1141 a0f6 98bf
000000d0: beb2 1ebf d68f d7c0 69db 28c0 4d52 a2c0
000000e0: 3fa7 2a40 4443 d93e 7f24 6d40 b1b7 2940
000000f0: a0f2 f43e 8214 18c0 0a98 0940 1c35 12c0
00000100: a1f6 98bf 95d5 8f3f 84ba 8240 fe52 50c1
00000110: 6c3a f43f b059 293f e714 bdbf 8b7e 4cc1
00000120: 3615 68bf ca4b 02c0 0128 0fbe c206 e5bf
00000130: b6f4 15c0 7533 2341 1e90 c33f 5bcd 72c0
00000140: eaa4 45c0 9135 e540 4d78 3a40 060a c43f
00000150: 4df3 883f 8c32 c63d 754f 283f b36e 4540
00000160: 398f c63e 1445 c9c0 0c05 13c1 a14c 95c0
00000170: ed14 25c0 7a65 77be f499 f43d 3264 2940
00000180: f184 43c0 65e4 c1c0 9673 9f40 4c1a 8b3f
00000190: 6c15 1a40 84fd 53bf e8fd 13c0 83da 7740
000001a0: fd1b 5bc0 17d4 603f cb8b e9c0 96dd abbe
000001b0: 7a56 e43e b8c8 93c0 6533 323f dfeb fb3f
000001c0: 4352 653d 053b b43f d3d7 04c1 4cd3 dcc0
000001d0: cb4f 0b40 5ef2 dc3f 8c52 cac0 b1a0 f3c0
000001e0: c6ea ffbb e0bc f1bf 5c8e ac3f b78e a0bf
000001f0: 01ce 7fc1 fb16 5ec0 7b24 ebc0 40de 3440
00000200: 34a3 afbf e31c ed3f e5be 79bf 9b8e 8cbf
00000210: 3967 a03d 1891 babf a39a 8fc0 f1ec 3d40
00000220: 48b5 f93f e380 5a3f 6461 a5bf 94b9 e03f
00000230: 65a7 8cbf ce20 9e40 1a6d 58be b535 04c1
00000240: c6a1 86c0 0f35 0ac0 b991 80c0 6e56 fdc0
00000250: 98c3 c8bf 2d5f 00c1 938f c4c0 5bd0 78c0
00000260: 5045 9dc0 b1af c7bd 3a79 2cc1 fd73 a240
00000270: c953 6ac0 4a02 f03e 9af4 0740 10d6 38bf
00000280: bfae 1f40 c40c 9ac0 09cd 5a3f 5af4 953e
00000290: f1f5 3740 22e8 6140 5114 0f3e ae28 c33d
000002a0: 5b9a c5be c90a 0fbe 2769 1bc0 9655 c3c0
000002b0: 5802 da3f 8b11 163f a8d3 b440 cb71 2dc0
000002c0: ac7f 2b40 1ef2 4340 e54e 4840 3d32 bc3f
000002d0: e739 21c0 3f93 3d40 1265 c03c d174 eb3e
000002e0: 9a0d 2bc0 9232 c0c0 167f 14c0 3abf 1e40
000002f0: 1759 9b3e 372b ffc0 8435 e6c0 6669 2f3f
00000300: c138 4ec0 aac4 47c0 9da6 0b3f 4f3a bd40
00000310: 4b0e 7cc0 392a 3f40 f120 373f 73ec 563f
00000320: a7f4 2fc0 5480 eebf 5e9f 0cc0 38de b03e
00000330: e6fa 92c0 3cec e53f 0fc2 c0c0 942c 80be
00000340: f8f9 f440 41a1 41c0 6d96 a240 ceda 9bc0
00000350: 8230 2d40 f417 9140 5149 dcbf 5869 5dbf
00000360: 119b 5d40 b9a0 ec40 e3b8 03be c42b b640
00000370: 88a3 6ac0 9b32 28c0 e8b3 acbf 3f51 77c0
00000380: 88dd f140 a9c0 9940 e172 263f f7e7 9440
00000390: ee48 63c1 30c9 cf3f 9aec 373e 6aa5 61c1
000003a0: 95f3 0ac1 92d0 9fc0 d597 c6bf 4003 3940
000003b0: 448c d5c0 138d 523f 25eb 893f ff8c 513f
000003c0: 792b bb3f 2943 f9c0 fc9b 80c0 819f 25c1
000003d0: fc98 8640 7880 41c1 3685 c2c0 c029 98bf
000003e0: 9cd7 cb3e 8643 63c1 8b10 ad40 8b8f b43f
000003f0: 905d 8ec0 d2b8 333f 2bf6 12be 9c44 97c0
-2.1596582 2.2760618 1.0222257 4.882026 -3.7884402 0.25837988 -7.359199 -2.4087148
-1.1208597 -3.5267549 3.516172 -1.7848345 1.2021285 0.8785359 5.684318 0.016784482
-1.2825967 0.87421364 -0.98981565 5.477266 1.1645144 -1.2074537 -0.42848223 3.0041695
-1.9735233 -2.3741574 -1.720643 -0.3389862 -3.5898833 -4.0799637 1.9366357 5.790699
-4.967395 -0.4651792 -0.2508023 0.8213568 0.7507138 -3.834745 -1.1353499 7.140663
-13.311138 1.9960507 -2.9907305 -0.35050017 1.4631045 -0.38952205 -1.7293389 -2.1602008
-7.985311 -2.6989462 9.106451 -1.1950264 -0.6199149 -6.736308 -2.6383917 -5.0725465
2.666458 0.42434132 3.7053525 2.6518366 0.47841358 -2.3762517 2.1499047 -2.2844915
-1.1950265 1.1237055 4.085268 -13.020262 1.9080329 0.6615248 -1.4772004 -12.780894
-0.90657365 -2.0358758 -0.13980104 -1.7892687 -2.343061 10.200063 1.5278356 -3.793784
-3.0881906 7.162789 2.9135926 1.5315559 1.069925 0.0967761 0.6574624 3.0848815
0.38781145 -6.2896824 -9.188732 -4.665604 -2.5794022 -0.24159804 0.11943427 2.6467404
-3.054989 -6.05913 4.9828596 1.08674 2.4075575 -0.8280871 -2.3123722 3.872712
-3.4235833 0.87823623 -7.2983146 -0.33567494 0.44597226 -4.618252 0.6960967 1.9681357
0.055986654 1.4080511 -8.302691 -6.900793 2.1767452 1.7261465 -6.3225765 -7.6133657
-0.0078099696 -1.8885765 1.3480945 -1.2543553 -15.987794 -3.4701526 -7.348203 2.826065
-1.3721681 1.852444 -0.97556907 -1.098102 0.07832188 -1.4575529 -4.4876266 2.9675868
1.9508448 0.85352916 -1.2920346 1.7556634 -1.0988585 4.9415045 -0.21135369 -8.263112
-4.2072477 -2.1594884 -4.0177884 -7.9168005 -1.568469 -8.023236 -6.142526 -3.887717
-4.914711 -0.09750307 -10.779596 5.0766587 -3.6613638 0.46876746 2.1243043 -0.72201633
2.4950407 -4.8140583 0.8546911 0.29287988 2.874386 3.5297933 0.13972594 0.095292434
-0.38594326 -0.13968958 -2.428293 -6.1041975 1.7031965 0.5862052 5.650837 -2.7100704
2.6796675 3.0616527 3.1298153 1.4702832 -2.519159 2.9621122 0.023485694 0.4598756
-2.6727052 -6.006173 -2.3202567 2.4804215 0.30341408 -7.9740252 -7.1940327 0.685202
-3.222214 -3.1213784 0.54551107 5.9133677 -3.9383724 2.986952 0.7153464 0.8395454
-2.7493074 -1.8632913 -2.197227 0.3454454 -4.5931273 1.7962718 -6.023689 -0.2503401
7.655514 -3.0254672 5.0808625 -4.8704596 2.7060857 4.534174 -1.7209874 -0.86488867
3.4625895 7.3946195 -0.12863497 5.6928425 -3.6662312 -2.6280887 -1.3492403 -3.8643339
7.5582924 4.804768 0.6501904 4.653316 -14.205305 1.6233273 0.1796135 -14.102884
-8.684468 -4.9942102 -1.5515085 2.8908234 -6.6733723 0.8224651 1.0774885 0.8185577
1.4622642 -7.7894483 -4.019041 -10.351441 4.206175 -12.093864 -6.078761 -1.1887741
0.39812934 -14.203985 5.4082694 1.4106306 -4.448921 0.7020389 -0.14351718 -4.727125

regressor.2.bias f4 [100]
00000000: e060 9940 3268 1140 56bb 3d40 889e 2e40
00000010: 8e89 463f 6946 1240 2004 c43f ccb7 c640
00000020: 29c4 c240 bb84 5fbf 5ba9 c840 f771 8f3f
00000030: 357e 27bf 5d59 b03f 7d19 0940 fb5c 3740
00000040: 177e 5640 2e5a 10bf fea1 9540 48ac bc3f
00000050: bf50 3741 7214 3940 28bb 5040 c9cf bb40
00000060: 44d2 34be b198 6040 f9ae 343f 14c0 d840
00000070: 45f0 b33f 4b2a 6940 513f 6940 c5ce 0641
00000080: d830 d0bf 7a89 0dc0 a744 793f 5055 b540
00000090: 0506 1740 3c39 933e 1a22 0640 fa32 0e40
000000a0: 62ec c440 f1ff 8540 eab3 4d40 0c4e 0c41
000000b0: 5d82 1940 35ed 5c3f 771e 5f40 43a8 3640
000000c0: c820 abbf 7998 823f cfbf 4cc0 af44 8940
000000d0: e22c 3340 b7c9 47c0 8290 a1bf f77b af3f
000000e0: 3116 4d40 ad5d 7e40 041f c840 082d 2640
000000f0: f8b5 1c40 8480 6540 5621 b13c 65da 0540
00000100: d0a8 2e3e e181 ae3f f13f 3b40 da1a c83f
00000110: 54c9 67bf a59b 34bf 84b5 f23f 74b0 433f
00000120: e036 1140 0a67 d640 6223 c73f d844 2640
00000130: bb58 3840 dbca b6bf e0cd ff3f 7ff1 9440
00000140: 17dc d140 5c00 98bf 6a7e 2c40 f6f8 afc0
00000150: 8c84 5240 8d9a a540 dcef 81b9 fccf 4f40
00000160: 744d 8e3e 2375 a93d 2c0a 7a40 1634 f83e
00000170: ab1c a5c0 e049 c0be f25f 66be d62f 18c0
00000180: b304 5a3e 865e 7340 5f3d 1840 3dd1 0140
4.7930756 2.2719846 2.964559 2.728426 0.7755364 2.2855475 1.5313759 6.209936
6.0864453 -0.87311906 6.2706733 1.1206654 -0.6542695 1.3777272 2.1421807 2.86505
3.351446 -0.56387603 4.6760244 1.4740076 11.457213 2.891873 3.261423 5.8691144
-0.17658335 3.5093195 0.7057949 6.773447 1.40577 3.6432064 3.6444895 8.425481
-1.6264906 -2.211516 0.9737038 5.666664 2.3597424 0.28754604 2.0958314 2.2218614
6.1538553 4.187493 3.214106 8.769054 2.3985817 0.8629945 3.4862344 2.8540199
-1.3369379 1.0202781 -3.199207 4.289634 2.7996144 -3.1216867 -1.2622225 1.3709706
3.2044795 3.9744675 6.253786 2.5964985 2.4486065 3.585969 0.021622341 2.0914547
0.17056584 1.3633386 2.9257777 1.5633194 -0.9054158 -0.70549995 1.8961644 0.7644112
2.2689743 6.700078 1.5557673 2.597952 2.8804157 -1.4280657 1.9984703 4.6544795
6.5581164 -1.187511 2.6952157 -5.4991407 3.28934 5.175116 -0.00024783507 3.2470694
0.27793467 0.08274295 3.9068708 0.48477238 -5.1597495 -0.37556362 -0.22497538 -2.3779197
0.21290855 3.8026443 2.3787458 2.028396

regressor.4.weight f4 [100, 100]
00000000: fab7 a1be 326e 36be 67ac 51be 0686 85bd
00000010: 2325 a63d 46b4 ea3d 7b6f 45be a0bf 123d
00000020: c1e2 b7bd dd1e 3dbe 63a9 50bd 1173 0abe
00000030: 4d05 5bbd 12f2 a03c e919 6bbd 0ef9 47be
00000040: 05c5 9bbe 5e56 5cbd faa1 62be 205a 8fbe
00000050: 280f 8ebe 2116 51bc 4037 95bc 5a0e e7bc
00000060: 277f be3d 5f49 84be a73c c03d 3b80 7ebd
00000070: 95ac 5f3d 649f 58be d402 b0bd 97bd bbbb
00000080: eacb 03bc 4faf 64bd 2139 04be 1dfa adbe
00000090: bb70 82be d9ac da3b 99a7 6cbe c36a 7cbd
000000a0: 705e adbd ee8e cd3d 89b6 543c b752 9dbe
000000b0: 2510 08be 50ba dbbd 809d e4bd 2601 a2bd
000000c0: f984 debd f945 b4bd 989a c23c 7b28 ccbc
000000d0: c99f 5ebe 9a97 60be 42a7 2a3e 7252 75bd
000000e0: 8b6a aabd 54b5 333d e6f2 ff3a 3728 9dbe
000000f0: 6e48 88be 1356 90bd 5e11 eabd 7ffd 8dbd
00000100: ce00 86be 2fc3 eebd 2b6e f33b 4305 63be
00000110: 0fda 52be 2c05 45be 41d3 f2bd 75c9 203d
00000120: d074 4f3c 91a6 fcbd f8f7 1ebc fe07 6b3d
00000130: 4e4c 8bbe b7c2 34be d52a b0bd 5355 98be
00000140: 3fe2 273e 8784 f8bd c49e 113d 459d 213c
00000150: 3f7b 9abd 4b60 e1bd 1325 b03d bd53 83be
00000160: 5a71 8ebe 1453 303d 24ff 4c3e a89d e1bd
00000170: b381 aebe 8730 b3bd 0796 0abe ba3c 8d3d
00000180: b55d 73be f228 93be 23b7 1fbd f45b b2bd
00000190: 9b7f 91bf 8dd0 b6c1 115f d83e a715 6b3f
000001a0: 17cf 253f 2aff 6c40 acb4 ce3f 9369 e63f
000001b0: cb48 b140 6e1a 84c0 93bd 603e 6cbb 2040
000001c0: 2f26 1b3f 4cf8 d940 d8da ae3f acf6 7abc
000001d0: 0b07 4440 b875 1240 cdc7 ca40 16ee de3f
000001e0: 298f 18c0 083f 86c0 84b0 4d3f f84e 1440
000001f0: 9ee9 21c1 065e 0cc0 edb3 c53f 0cac 70c0
00000200: 7c24 98bf 239d dabc 816c 60c0 7860 a13e
00000210: b3e4 bbc0 7c6f 0040 4f03 3841 3f4d 2bc1
00000220: dad4 2ac0 c14f 8940 daf8 363f cc5a 573f
00000230: 9676 af40 f80f 9140 b201 4441 973b 1c40
00000240: 00a0 22c0 e3be 0541 3d10 8040 16dd 92c1
00000250: 9dcc 2940 3aa0 2b3f 1448 3fc1 09a2 4840
00000260: 7531 1b40 92e2 eb3f b431 9ac0 2954 173f
00000270: 50e3 db3e a7ed 9bbf c99c 1b40 3a07 173f
00000280: 520d 25bf f971 8e3f 0cf8 37bf 2619 8bc1
00000290: d67e dcc0 da45 8e40 1998 2940 00cf a0bd
000002a0: 52fc 11bf fc9d 76bf e44a bec0 3cc3 3bc1
000002b0: bbdf 53be a41c 2c40 ef8c 86c1 8321 7fc0
000002c0: e849 a1c1 9065 9bc0 9767 37bf 4243 ca3f
000002d0: ba28 19c0 6886 3340 3d63 51c1 720d 2040
000002e0: f1b4 da40 0f18 6b40 e26c 23c1 3309 0840
000002f0: be29 cc3e 3eec 8841 a26f da3f 2bc0 bbbf
00000300: 8d84 2abd 33fa 0ec0 8357 c53b d0b4 42c1
00000310: a9b0 abbf 7de1 a0c0 0e71 1fc1 c4ea 86c0
00000320: 1d9f 573f a40b 10bf dd26 d7bf 5ba2 893f
00000330: 96c4 8340 3639 193f 3c0f 023f f943 0c3f
00000340: 8d0e 4040 9a22 0ec1 a6a7 5940 85e5 b1c0
00000350: 3ad6 99bd a364 723f e4de d9c0 aa98 b7c0
00000360: 6831 9840 5d69 7ec0 0e7b 28c0 3dad 00c0
00000370: 4457 aabf 93d6 f340 967e 05bf 1b89 c840
00000380: 6a77 4641 a7b9 e7bf 01ce 8540 027e 27c0
00000390: e931 c0c0 147f 06c1 d3cc d9c0 0ad0 1fbe
000003a0: 5d3c e4c0 d6fe 12c1 655f 50c1 4cd9 603f
000003b0: aad0 c8bf fa57 c33e 4ef9 a1c0 81af 22c0
000003c0: 0bb2 b9c0 da95 9240 a1ad 0141 bf9f b43f
000003d0: 6311 35c0 f1ec f840 6b61 e7bf 62af d53f
000003e0: ae8c 7340 67c5 7ec0 ac35 0e41 2ce4 c840
000003f0: d9db 73c0 bbbd 36c0 8a9d 2dbf 57c1 db40
-0.31585675 -0.17815474 -0.20475923 -0.065197036 0.08112552 0.11460166 -0.19280808 0.03582728
-0.08978797 -0.18468805 -0.05094279 -0.13520457 -0.053471852 0.019646678 -0.057397757 -0.195286
-0.3042375 -0.053793304 -0.22132102 -0.27998447 -0.27745938 -0.012761624 -0.018214822 -0.028205086
0.09301596 -0.25837228 0.093865685 -0.06213401 0.054607946 -0.21154553 -0.085942894 -0.005729388
-0.008044222 -0.05583125 -0.12912418 -0.33979884 -0.25476632 0.006673437 -0.23110808 -0.061625253
-0.08465278 0.10037027 0.012982973 -0.3072717 -0.13287409 -0.10728896 -0.11162853 -0.07910375
-0.10865206 -0.08802409 0.023755357 -0.024921646 -0.2174064 -0.21932831 0.16665366 -0.05989308
-0.08321103 0.0438741 0.0019527345 -0.30694744 -0.2661776 -0.07047667 -0.11429094 -0.06933116
-0.2617249 -0.11658322 0.0074289045 -0.22169976 -0.20590995 -0.19240254 -0.118567 0.039254624
0.012662128 -0.123364575 -0.009702675 0.05738067 -0.27206653 -0.17652403 -0.086019196 -0.29752597
0.163949 -0.121346526 0.0355518 0.009864156 -0.075430386 -0.110046946 0.08600821 -0.25649825
-0.27820855 0.04304798 0.20019203 -0.11016399 -0.34083328 -0.0874949 -0.13533793 0.06896348
-0.23766215 -0.28742176 -0.038993012 -0.08708945 -1.1367067 -22.851831 0.4226003 0.91829914
0.6476912 3.703074 1.6148887 1.8000969 5.540136 -4.1282263 0.21947317 2.5114393
0.6060514 6.8115597 1.3660536 -0.0153176 3.0629299 2.288435 6.3368897 1.7416408
-2.3837378 -4.1951942 0.80347466 2.3173199 -10.119535 -2.1932387 1.5445534 -3.760501
-1.1886134 -0.026686257 -3.5066226 0.31518912 -5.8716674 2.0068045 11.500808 -10.706359
-2.6692414 4.2909856 0.7147347 0.8412292 5.483226 4.5331993 12.250414 2.441137
-2.5410156 8.359103 4.001982 -18.357952 2.6531136 0.6704136 -11.955097 3.1348898
2.4248936 1.8428519 -4.8185673 0.59112793 0.42946863 -1.2181901 2.4314444 0.589954
-0.6447345 1.1128532 -0.71862864 -17.38728 -6.890483 4.446027 2.6499083 -0.07851982
-0.57025635 -0.96334815 -5.946642 -11.735165 -0.20690815 2.689248 -16.818815 -3.9864204
-20.161087 -4.856148 -0.7164244 1.5801775 -2.3931108 2.8050785 -13.086728 2.5008206
6.8345876 3.6733434 -10.214083 2.1255615 0.39875597 17.115353 1.7065318 -1.466802
-0.041630317 -2.234021 0.006022395 -12.169144 -1.3413287 -5.0275254 -9.965101 -4.216158
0.8422716 -0.5626776 -1.6808735 1.0752672 4.1177473 0.5985292 0.50804496 0.5479122
3.000888 -8.883448 3.4008574 -5.5592675 -0.075115636 0.9468481 -6.8084583 -5.7373857
4.756031 -3.9751809 -2.6325107 -2.0105736 -1.3307881 7.619943 -0.5214628 6.2667365
12.404154 -1.8103532 4.181397 -2.617066 -6.0060925 -8.406025 -6.806253 -0.15606704
-7.1323686 -9.187216 -13.02329 0.8783157 -1.5688679 0.38153058 -5.0616827 -2.541962
-5.8029838 4.5807924 8.10489 1.4111251 -2.8291862 7.7789235 -1.8076605 1.6694148
3.8054614 -3.9807985 8.8881035 6.277853 -3.8102934 -2.8553302 -0.6781851 6.867351

regressor.4.bias f4 [100]
00000000: a3ab 98be 9a31 60bf 2e3c adbe bf6e d5be
00000010: fd3c 643e 3562 cfbd c8df acbe f819 c9be
00000020: 47ff 0440 0990 32c0 6393 50bd 83eb c3be
00000030: fcec 403e 09eb e0be 20f1 5abe 6626 cdbe
00000040: bcf9 76c0 bf6c 3dc0 8add febf c576 acbe
00000050: 56de 22be ed49 60be 00f0 c0bf fa2c 10c0
00000060: 3975 e8bc d659 91be c1fa 8abe dedb 25c0
00000070: 88d3 29bf 0cf3 d1be bb30 c8bc e15c 3cc0
00000080: 4054 e6c0 348c 803f 9000 0c3f f027 94c0
00000090: 8a30 36c0 f32a 923e 31e9 07bf 94dc e2bf
000000a0: 1340 e5be 44c4 5abe 96e1 6fbe 2e83 abbe
000000b0: 3de0 423f 2b67 07bf b896 2dbf c9e7 44bf
000000c0: 5173 a3be b9cb 9ebf c25b d13d bd9a 0dbf
000000d0: 3eb7 2140 0aef 923e 8f5f c0be d208 1abf
000000e0: 4492 48be 0bba bcbe b85f e83d 87a4 d5bf
000000f0: 8aa8 6c40 6eb5 8abf 749b 6940 aed7 a3bd
00000100: 6852 59be c69d 98be 490d 4f3e 128b 66bf
00000110: dc38 b23f 8d86 473f 1517 eabe 9710 2ec0
00000120: 40d4 c1bf cc84 863f c1cc 4ebf a7fb 0fbd
00000130: 9273 f93f 6913 97bd 602b a1be 6d37 19c0
00000140: 0fdc 05c0 43d9 e3be 91e8 15be c056 7bbe
00000150: 4b03 423f cc29 9f3f faa1 5cc0 f736 fa3f
00000160: 553f 8fbe bd7e d43e 1421 0bc0 bc09 5d3f
00000170: d26f a5be a639 47bf 86eb 0940 6073 87c0
00000180: 5029 45c0 3206 0ac0 9902 5ac0 e8e1 713f
-0.29818448 -0.87575686 -0.33834976 -0.41686055 0.2228889 -0.101261534 -0.33764482 -0.39277625
2.078081 -2.7900412 -0.05092181 -0.3826562 0.18840402 -0.43929318 -0.21381044 -0.40068358
-3.8589926 -2.9597623 -1.9911358 -0.33684364 -0.15905127 -0.219032 -1.5073242 -2.2527452
-0.028376209 -0.28388852 -0.27144435 -2.5915446 -0.66338396 -0.41005743 -0.024437299 -2.9431689
-7.1977844 1.0042787 0.5468836 -4.629875 -2.8467126 0.28548393 -0.53090197 -1.7723565
-0.44775447 -0.21363932 -0.23425898 -0.3349852 0.7612341 -0.52891797 -0.67808104 -0.76916176
-0.31923917 -1.2405921 0.102225795 -0.55314237 2.5268092 0.28697997 -0.37572905 -0.6016971
-0.19587046 -0.3686069 0.11346382 -1.6690835 3.6977868 -1.0836618 3.650113 -0.08000122
-0.21222842 -0.29807872 0.20219912 -0.90055954 1.3923602 0.77939683 -0.45720735 -2.7197626
-1.5142899 1.0509276 -0.8078118 -0.035152104 1.9488394 -0.07376749 -0.31478405 -2.394008
-2.0915563 -0.44501695 -0.14639498 -0.24544811 0.75786275 1.243463 -3.4473863 1.9548024
-0.27978006 0.41502944 -2.173894 0.8634298 -0.32311875 -0.7782234 2.1550002 -4.232834
-3.0806465 -2.1566281 -3.4064085 0.9448533

regressor.6.weight f4 [1, 100]
00000000: 0ec2 a73d 8fa2 bb40 76c2 be3f 3cec 4b3d
00000010: b71b cb40 a515 7bbc 0710 ca3d 8235 5441
00000020: f7ef d43e b2a1 6d41 3fc2 df42 76b3 87bd
00000030: a2bf ed41 6005 c4bd 3ab2 3bbd 0cf0 043e
00000040: eb93 4a41 f096 3d41 197f 4140 6da6 df3d
00000050: 3b3b d43d c2d5 ad3c ee44 9442 73e5 eb42
00000060: 5c96 8ebe 9bea 183d 0d03 933d 761b 2f42
00000070: 0f50 acbd 7d99 533d dab6 1442 5fa0 d042
00000080: f189 f0bf 4b7d 0e43 c725 513d fff7 d541
00000090: e9c4 db41 4ce5 2243 f121 c241 beaf 3c42
000000a0: 62a4 48bd 1663 763d 892f 673d fef3 e53d
000000b0: 80d8 2843 133b 893d 3d6e 3a40 ae1b c43f
000000c0: 7077 1cbd 20fa 68bf 7512 1140 e242 d03d
000000d0: 39ca 1a43 db8e 713f 89f7 14bc 38c2 1bbd
000000e0: 5058 20bd ef30 463d 2643 7242 3792 2842
000000f0: 7edf 2243 8b74 d440 800d 0d43 3a69 213d
00000100: 1ddd 043c bdc2 3d40 c08b 7142 07e1 ad3d
00000110: bc74 0e43 cec2 d341 3c23 c63d ce01 ac41
00000120: 8fbc a240 938d 2243 15d3 d7bd 8359 6d3e
00000130: 9507 0842 eba5 d13c 12dd 003e 5181 3c41
00000140: 6cb4 823f 2540 813d a95d e23c b78b 75bd
00000150: 6aa4 1e43 c3dd c842 b923 9b41 a4d6 2f42
00000160: 444c 053e 63c7 3842 797d 6941 41d8 373e
00000170: 0f8d c73e c12c e640 3914 0e3f a23b 2742
00000180: 1d5b bf41 6841 4e42 76d7 9841 0f2c b340
0.0819131 5.8635936 1.4903095 0.049785838 6.347133 -0.015324985 0.09866338 13.263063
0.4158933 14.851976 111.87939 -0.06626026 29.71857 -0.09571338 -0.045824267 0.12982196
12.661113 11.84935 3.0233824 0.10920415 0.1036286 0.021220092 74.13463 117.94814
-0.2784909 0.037333112 0.07178316 43.776817 -0.084137075 0.05166005 37.178566 104.313225
-1.8792096 142.48943 0.051061418 26.746092 27.471148 162.89569 24.266573 47.171623
-0.048984893 0.06015309 0.056441817 0.112281784 168.8457 0.06700721 2.9129784 1.5320947
-0.038199842 -0.9100666 2.2667515 0.10169007 154.78993 0.94358605 -0.00909222 -0.03802702
-0.03914672 0.04838651 60.565575 42.142788 162.87302 6.6392264 141.05273 0.039406992
0.008109358 2.965011 60.386475 0.08490186 142.456 26.47012 0.09674689 21.500881
5.0855174 162.55302 -0.105383076 0.23178677 34.007404 0.025591811 0.12584332 11.781571
1.021131 0.06311063 0.027632551 -0.059947696 158.64224 100.43313 19.392443 43.95961
0.13017374 46.194714 14.593133 0.17953588 0.38974807 7.192963 0.5549961 41.808235
23.919489 51.563873 19.105206 5.5991282
