saved-networks/FourLayerNet_V3-2020_09_07-11_18_17.pth (torch_old, 44709 bytes, 7 tensors)

regressor.0.weight f4 [50, 11]
-1.3856293 0.09779336 -0.1752399 -0.81457305 -0.054467246 0.5602863 0.17475814 0.9002451
0.7493186 0.5616882 0.2615513 -0.09208852 -0.07941899 0.05550535 0.0013008174 0.036347292
-0.0091599105 -0.0058857827 -0.0119434325 -0.040718302 -0.020672623 -0.0073622745 -2.9992442 0.7883742
-0.6798684 -0.66705036 -0.0076648993 -0.0075210617 -0.8691971 0.29133868 2.1280768 0.017665785
-0.7303644 -1.4449551 -0.76675826 -0.31652862 0.0793566 0.22977613 0.86575353 -0.22091419
1.8511918 0.92025274 1.0028813 -0.0438274 -1.5381398 -0.907664 -0.40917283 -0.0079214405
0.073933184 -0.023481533 -1.2473731 0.15138176 1.6010956 0.23890729 -1.1220202 -0.64545083
-0.087863676 0.23881422 0.35853085 0.042021014 -0.035832737 -0.29833165 0.6381837 1.4337426
0.33561063 -0.0074065374 -1.5071744 -2.7975748 0.587713 -0.24467704 0.0042748926 0.6705856
-0.008665876 -0.61913884 -1.9674002 0.40236863 -0.1662804 0.7402485 0.9608604 0.17733161
0.3059135 0.124255635 0.2887112 -0.61610734 -0.45514292 -4.788425 0.11368148 -0.7586818
-1.4166417 0.1749823 -0.21982545 -0.10801771 -0.23986669 0.20701592 -1.5352839 0.31511405
-4.3035645 -0.013815955 -1.7680485 -2.4090743 -0.021829627 -0.424741 -0.14788613 0.54290503
0.09145999 0.1570993 1.2530273 1.8464235 0.010247922 0.1548956 -1.7622368 0.27481082
-0.13542588 -0.48643154 -0.029712375 -0.11654411 -0.8802219 0.22889131 1.8455547 -0.041015312
-0.7962248 -0.91766995 -0.08733385 -0.13364153 -0.11948888 -0.16995229 0.09458421 0.4727412
0.12886356 1.3774809 0.14996356 0.4960534 -0.95855254 -0.003667111 -0.17732121 -0.010277666
-0.000750141 0.26032287 -0.6197424 0.1291442 -3.7541754 -0.18295476 -0.9812501 0.11130814
-0.12706941 0.20992853 -0.06765462 0.274966 -0.1639935 0.066517234 -0.16113998 -0.10679045
-0.18084486 0.055813234 0.16048367 0.2826515 -0.38438523 0.44657245 -0.18696374 -0.17199734
-0.8928666 0.38943544 -0.6077657 -0.5068493 -1.2098479 -1.4034003 -0.24176154 -0.4091489
-0.09936386 0.17307983 0.063046545 -0.18583293 1.0186056 1.1274036 0.07361326 -0.14793749
0.0016535036 -0.0017263733 0.002374723 0.0006034315 -0.0026749421 0.0016915125 0.00055156753 0.0010114975
-0.0030791338 0.00051225454 -0.0005641819 -1.4535639 -0.4511871 -0.46930405 0.073726654 0.12828068
0.18659958 -0.029138228 0.8822947 1.009477 0.21300869 0.03412832 2.6057665 0.28695056
-0.36211032 -0.38135567 -0.32724392 -0.24791273 0.8310413 1.5347391 4.6876626 0.081573725
0.9136663 -2.3311641 -0.124285914 -0.48771 -0.13992357 -0.043969177 -0.3533897 -0.8886664
0.57924235 2.118634 -0.33913857 -0.86603093 -1.6881176 -0.12600937 -0.3446916 -0.07712086
-0.053192895 0.19462271 0.43501142 0.5626593 1.5459762 0.1382632 0.42442584 0.083127044
4.443799 0.027297808 -0.349298 0.18039341 0.2171298 0.7958427 0.51698655 -2.0352314
-0.24114004 0.38753045 3.4038527 2.0053658 0.3062734 -0.07922278 0.3181226 0.2853843
-1.7277968 0.009356118 -5.0194077 0.6441636 -1.2272809 -0.9387076 -0.017963098 -0.19866405
00000000: 4d5c b1bf e347 c83d 1772 33be dc87 50bf
00000010: 0c19 5fbd ec6e 0f3f ccf3 323e 7676 663f
00000020: 58d3 3f3f ccca 0f3f 0dea 853e e898 bcbd
00000030: 6ca6 a2bd 9459 633d 3080 aa3a e6e0 143d
00000040: 7313 16bc 86dd c0bb 63ae 43bc 3cc8 26bd
00000050: a259 a9bc 3c3f f1bb 9ef3 3fc0 e4d2 493f
00000060: db0b 2ebf d0c3 2abf d629 fbbb 3d73 f6bb
00000070: b383 5ebf 582a 953e 6932 0840 d6b7 903c
00000080: 29f9 3abf 4af4 b8bf 454a 44bf 0a10 a2be
00000090: b785 a23d 6f4a 6b3e 06a2 5d3f 5437 62be
000000a0: daf3 ec3f af95 6b3f 6a5e 803f 5c84 33bd
000000b0: c4e1 c4bf ab5c 68bf 1a7f d1be eec8 01bc
000000c0: 486a 973d 585c c0bc eca9 9fbf d203 1b3e
000000d0: b3f0 cc3f 1da4 743e 5c9e 8fbf 443c 25bf
000000e0: dff1 b3bd b78b 743e 5b91 b73e 3a1e 2c3d
000000f0: 59c5 12bd edbe 98be 0260 233f e184 b73f
00000100: 28d5 ab3e 8ab2 f2bb 17eb c0bf 770b 33c0
00000110: 5c74 163f 9e8c 7abe 6614 8c3b 7fab 2b3f
00000120: 52fb 0dbc e27f 1ebf c5d3 fbbf 4303 ce3e
00000130: 6945 2abe ed80 3d3f f2fa 753f 6b96 353e
00000140: b2a0 9c3e bd79 fe3d f4d1 933e 36b9 1dbf
00000150: 7e08 e9be c73a 99c0 d6d1 e83d f838 42bf
00000160: 8454 b5bf 8f2e 333e ec19 61be 6438 ddbd
00000170: 9d9f 75be fbfb 533e 2f84 c4bf a156 a13e
00000180: cdb6 89c0 515c 62bc 6a4f e2bf 462e 1ac0
00000190: 0cd4 b2bc a777 d9be 766f 17be d3fb 0a3f
000001a0: 604f bb3d a4de 203e 3363 a03f 9b57 ec3f
000001b0: e6e6 273c f49c 1e3e fa90 e1bf 01b4 8c3e
000001c0: 15ad 0abe 8e0d f9be 5e67 f3bc aeae eebd
000001d0: 3956 61bf 7c62 6a3e 233b ec3f acff 27bd
000001e0: 63d5 4bbf 6bec 6abf 17dc b2bd 53d9 08be
000001f0: 96b6 f4bd f907 2ebe 5eb5 c13d 220b f23e
00000200: cff4 033e 4b51 b03f 0c90 193e b6fa fd3e
00000210: b363 75bf ea53 70bb b193 35be a863 28bc
00000220: 1ca5 44ba 0a49 853e 70a7 1ebf 613e 043e
00000230: 6944 70c0 7e58 3bbe 3533 7bbf 86f5 e33d
00000240: 7c1e 02be 81f7 563e 818e 8abd 58c8 8c3e
00000250: e9ed 27be 303a 883d e101 25be f4b4 dabd
00000260: 652f 39be 6b9c 643d d555 243e b3b7 903e
00000270: 24ce c4be 25a5 e43e 6c73 3fbe 1220 30be
00000280: e892 64bf 1564 c73e 8896 1bbf e0c0 01bf
00000290: 4cdc 9abf 9fa2 b3bf 5690 77be f77b d1be
000002a0: 487f cbbd d73b 313e 8c1e 813d fd4a 3ebe
000002b0: ab61 823f c34e 903f 8dc2 963d ed7c 17be
000002c0: 60ba d83a 7a47 e2ba 3ea1 1b3b 9a2f 1e3a
000002d0: 154e 2fbb beb5 dd3a 1297 103a 3994 843a
000002e0: 4bcb 49bb d248 063a 9be5 13ba 620e babf
000002f0: ff01 e7be 9f48 f0be 00fe 963d 035c 033e
00000300: f613 3f3e 4bb3 eebc 11de 613f 8b36 813f
00000310: f31e 5a3e 23ca 0b3d e1c4 2640 2feb 923e
00000320: 8666 b9be 0d41 c3be 848c a7be d6dc 7dbe
00000330: 1fbf 543f 5572 c43f 5501 9640 2010 a73d
00000340: 09e6 693f cb31 15c0 9d89 febd 20b5 f9be
00000350: 2048 0fbe 0619 34bd 7fef b4be a47f 63bf
00000360: 3a49 143f b397 0740 92a3 adbe 34b4 5dbf
00000370: 3d14 d8bf 9a08 01be 6b7b b0be 8bf1 9dbd
00000380: cbe0 59bd 2d4b 473e d1b9 de3e 710a 103f
00000390: 8ce2 c53f de94 0d3e 584e d93e 833e aa3d
000003a0: 9a33 8e40 a79f df3c 30d7 b2be 0db9 383e
000003b0: 4657 5e3e 59bc 4b3f 3b59 043f 3b41 02c0
000003c0: 6aed 76be 646a c63e b9d8 5940 ea57 0040
000003d0: decf 9c3e 8e3f a2bd f7e0 a23e e41d 923e
000003e0: 7228 ddbf 674a 193c fd9e a0c0 e8e7 243f
000003f0: 8a17 9dbf 244f 70bf 5927 93bc 976e 4bbe

regressor.0.bias f4 [50]
0.45614228 -0.062108275 0.43803206 -0.08234464 1.4014289 1.4215008 0.26953864 3.205531
0.4341843 -0.47942966 0.80061346 1.55356 0.8515642 -0.061042197 -0.43829092 -0.16861074
0.0006272989 -0.030065373 -2.8724716 0.32790968 0.4894343 -1.1909118 5.644883 1.5786724
1.7500753 1.2407227 -0.10192967 1.3159338 1.760748 1.1646273 0.45220885 1.8441412
0.13946445 0.026954174 -0.63772243 1.7258673 0.1525906 2.6070535 0.23431362 0.001274723
-0.96466696 -0.0023958425 1.0554535 0.000668625 2.0301173 -0.7119722 1.0184144 -1.2162887
2.1802528 0.33167085
00000000: 7b8b e93e 3f65 7ebd bd45 e03e 4ea4 a8bd
00000010: 0662 b33f bdf3 b53f f800 8a3e 6b27 4d40
00000020: 684d de3e ce77 f5be 01f5 4c3f 0edb c63f
00000030: 1d00 5a3f 6207 7abd ab67 e0be 4ba8 2cbe
00000040: 5171 243a a84b f6bc 93d6 37c0 c7e3 a73e
00000050: 2297 fa3e cc6f 98bf e2a2 b440 f011 ca3f
00000060: 7802 e03f 00d0 9e3f 81c0 d0bd 8570 a83f
00000070: 3160 e13f 8212 953f eb87 e73e d20c ec3f
00000080: c5cf 0e3e 00cf dc3c c741 23bf 38e9 dc3f
00000090: b640 1c3e f7d9 2640 e9ef 6f3e 9b14 a73a
000000a0: 6af4 76bf 9103 1dbb 1a19 873f aa46 2f3a
000000b0: 71ed 0140 cf43 36bf 675b 823f 59af 9bbf
000000c0: 4389 0b40 c3d0 a93e

regressor.2.weight f4 [100, 50]
-0.0013759151 -0.0010223287 0.003148888 0.005659651 0.00096087233 -0.00564735 -0.0048419987 -0.003702524
-0.00082594063 0.002994656 0.0004250891 -0.0016078003 -3.841154e-05 -0.003486081 -0.003319694 0.0006392362
-0.000116429095 0.0020256373 -0.0013851663 0.00051497604 0.0005350409 -0.0022009439 -0.006354744 0.0012429127
-3.511241e-05 0.0010733076 -0.0032273072 -0.0009733498 -0.0024575356 -0.0022684543 0.002691887 -0.0032769581
0.01047453 0.00571298 -0.00078119774 -0.002815884 -0.00086162507 -0.0012181666 -0.0006300502 -8.737825e-05
-0.0037830127 1.876499e-05 0.00032587664 0.00014957422 -0.008310518 -0.003072493 -0.00011266278 0.0062376494
-0.0006289037 -0.002981009 0.14630358 -0.002790416 0.3433555 0.21178697 0.20483164 0.1261713
-0.10658147 -0.4743465 -0.37686107 0.28742045 0.22598249 0.12882498 -0.32318723 -0.017569803
-0.056983832 0.18179467 -0.0005875274 0.1745059 -0.45965764 0.29266706 0.20295298 -0.25974363
-0.66516846 0.13119754 0.18063009 -0.27634552 -0.17959136 -0.42079782 0.23036687 -0.29511845
-0.3659845 0.17091846 0.27152604 -0.31866395 -0.08112152 0.1917195 -0.2517879 -0.38073227
-0.27701804 -0.0006641335 0.31944215 0.00028597596 0.17470436 -0.0017781758 -0.45407492 -0.6056304
-0.016237197 -0.14855169 0.16199736 -0.0763529 0.118375435 0.00012034229 0.27554303 0.17283012
0.16801974 0.11269296 -0.07291181 -0.37090075 -0.3066258 0.22123358 0.17958272 0.118878804
-0.2702216 -0.013531518 -0.039785735 0.14029253 -0.0011749101 0.13956265 -0.37887132 0.23473981
0.16887376 -0.21911737 -0.5289864 0.1100065 0.14935994 -0.2236006 -0.15785632 -0.34174052
0.20908037 -0.23992606 -0.31053483 0.15200095 0.20929162 -0.28062043 -0.0853903 0.17871137
-0.20508225 -0.3259445 -0.2145378 -0.0013399975 0.26524138 0.000902874 0.14203735 -0.0020232322
-0.33193284 -0.4796196 0.0019956632 -0.12845844 0.15240186 -0.05758099 -0.0009116833 0.0011925047
0.002494788 -0.0006475476 0.0024858124 -0.0040254514 0.00016552728 -0.0017959824 0.0016833416 0.0031000779
0.0011049492 -0.0028254776 0.0026322003 0.0004060593 -0.0055848225 -0.0008072341 -7.6946075e-05 -0.00036324354
-0.0037173296 -0.00079386315 -0.00053772295 -0.00659316 -0.008454781 -0.0017791643 0.0029728226 0.0012299668
-0.00978807 0.0036209447 -0.002599685 0.0015287161 0.004646917 -0.0043508494 0.01168236 0.00078917004
0.00052188884 -0.0029220188 -0.0031875244 -0.007850507 -0.0029076568 -8.829942e-05 -0.0012966319 0.00012499881
0.0020810857 0.0002129137 -0.008427622 -0.013167675 0.0016780487 -0.0037657933 -0.0017082428 -0.007235577
-0.003967473 -0.0010303601 -0.004967406 0.0009999031 -0.0005798057 0.00014344235 0.0027788845 0.0019153436
0.001711528 -0.0060539264 -0.0004892566 -0.0012734643 -0.00024110716 -0.0036891464 0.0026870966 -0.003096102
0.0001652709 -0.0023242661 -0.004005739 -0.0026645584 -0.0036091101 -0.0001245507 0.003799983 -0.00019410635
0.001059302 -0.0020172938 0.0026660298 -0.0008986959 -0.00398457 -0.00015472318 -0.0011455385 -0.0006765183
-0.006165727 0.0016542419 0.00039860333 -0.0036052226 0.0014933019 0.001936299 0.00038698732 0.0001942886
-0.006959444 -0.00021430184 0.00019545876 -5.0151302e-05 0.0010406866 0.0024830264 0.0026458807 0.0061803088
-0.0030759266 0.002921697 -0.1411102 -0.0074588875 0.23897035 0.0919179 0.44732687 0.034635577
00000000: 0d58 b4ba a9ff 85ba 935d 4e3b 9874 b93b
00000010: 0de3 7b3a 680d b9bb a1a9 9ebb 0ba6 72bb
00000020: f083 58ba fe41 443b 7ede de39 d3bc d2ba
00000030: 141c 21b8 bc76 64bb 398f 59bb 6a92 273a
00000040: 652b f4b8 8ec0 043b 788e b5ba 75ff 063a
00000050: fd41 0c3a b63d 10bb 753b d0bb 3be9 a23a
00000060: aa45 13b8 3aae 8c3a 3b81 53bb 6628 7fba
00000070: 9b0e 21bb 59aa 14bb 5f6a 303b 3cc2 56bb
00000080: 5d9d 2b3c f333 bb3b 4bc9 4cba b28a 38bb
00000090: aede 61ba e3aa 9fba f429 25ba d73e b7b8
000000a0: 6cec 77bb 8269 9d37 6cda aa39 06d7 1c39
000000b0: d728 08bc e15b 49bb 5f45 ecb8 3265 cc3b
000000c0: 03dd 24ba 085d 43bb 9bd0 153e 69df 36bb
000000d0: 4bcc af3e afde 583e 63bf 513e 0d33 013e
000000e0: 6347 dabd 8bdd f2be eff3 c0be c628 933e
000000f0: f467 673e b2ea 033e cc78 a5be 8cee 8fbc
00000100: e167 69bd 6228 3a3e 4c04 1aba adb1 323e
00000110: 3f58 ebbe 75d8 953e e8d2 4f3e 1efd 84be
00000120: 7b48 2abf a658 063e 18f7 383e 297d 8dbe
00000130: cce6 37be d072 d7be 4be5 6b3e c419 97be
00000140: 5262 bbbe 4005 2f3e 7605 8b3e ec27 a3be
00000150: 0a23 a6bd 1e52 443e 58ea 80be 57ef c2be
00000160: 4fd5 8dbe 3f19 2eba ec8d a33e 0bef 9539
00000170: b3e5 323e ae11 e9ba 827c e8be 980a 1bbf
00000180: df03 85bc ef1d 18be a3e2 253e e95e 9cbd
00000190: d26e f23d 4660 fc38 fa13 8d3e 61fa 303e
000001a0: 5e0d 2c3e 91cb e63d c952 95bd b4e6 bdbe
000001b0: 0ffe 9cbe 0e8b 623e 88e4 373e bb76 f33d
000001c0: 7c5a 8abe 4db3 5dbc 5ef6 22bd d8a8 0f3e
000001d0: 71ff 99ba 83e9 0e3e 6cfb c1be a25f 703e
000001e0: 3eed 2c3e 4e60 60be a76b 07bf 164b e13d
000001f0: d0f1 183e 8ef7 64be 16a5 21be 9df8 aebe
00000200: 2a19 563e 2daf 75be 6cfe 9ebe 23a6 1b3e
00000210: 8b50 563e 7bad 8fbe 1ce1 aebd 1d00 373e
00000220: 1501 52be 33e2 a6be ccaf 5bbe dba2 afba
00000230: b8cd 873e d9ae 6c3a 3d72 113e 3498 04bb
00000240: 1af3 a9be b390 f5be acc9 023b 9c8a 03be
00000250: 3c0f 1c3e 0bda 6bbd 08fe 6eba d14d 9c3a
00000260: 997f 233b 2fc0 29ba 03e9 223b efe7 83bb
00000270: 6491 2d39 2b67 ebba 92a3 dc3a ad2a 4b3b
00000280: f1d3 903a a62b 39bb fe80 2c3b 5be4 d439
00000290: e300 b7bb 909c 53ba 1c5e a1b8 b971 beb9
000002a0: 719e 73bb 411b 50ba faf5 0cba 6f0b d8bb
000002b0: ec85 0abc d932 e9ba b0d3 423b d636 a13a
000002c0: 245e 20bc 5f4d 6d3b 7a5f 2abb 335f c83a
000002d0: 2a45 983b 9291 8ebb 5f67 3f3c 4ee0 4e3a
000002e0: 5ecf 083a 577f 3fbb c9e5 50bb 6a9f 00bc
000002f0: 638e 3ebb 642d b9b8 bff3 a9ba 1d12 0339
00000300: d362 083b 9641 5f39 0214 0abc 3bbd 57bc
00000310: f9f1 db3a 87cb 76bb 1ee7 dfba 6b18 edbb
00000320: 9301 82bb 260d 87ba 9fc5 a2bb 2e0f 833a
00000330: 1afe 17ba 0369 1639 f21d 363b 440c fb3a
00000340: 5a55 e03a 0460 c6bb 7441 00ba 5fea a6ba
00000350: b6d1 7cb9 9bc5 71bb 001a 303b f9e7 4abb
00000360: 924c 2d39 b752 18bb 9342 83bb df9f 2ebb
00000370: d286 6cbb d399 02b9 2309 793b 0789 4bb9
00000380: 47d8 8a3a 9334 04bb 8fb8 2e3b 7696 6bba
00000390: ff90 82bb 303d 22b9 e525 96ba 6058 31ba
000003a0: de09 cabb 26d3 d83a a2fb d039 9945 6cbb
000003b0: e6ba c33a 6acb fd3a 8fe4 ca39 f3b9 4b39
000003c0: 0c0c e4bb 36b6 60b9 10f4 4c39 8d59 52b8
000003d0: a667 883a 45ba 223b 8366 2d3b 3084 ca3b
000003e0: 7c95 49bb f179 3f3b 317f 10be af69 f4bb
000003f0: a5b4 743e 743f bc3d 0708 e53e 09de 0d3d

regressor.2.bias f4 [100]
-0.0018815697 0.0004915542 0.0067216423 -0.0010658731 0.0003621388 0.3402179 0.00020371385 0.0013717397
0.0011606078 -0.026017435 -0.025824882 0.0005219962 -0.024702996 0.0075252987 -0.0003282715 0.81115013
-0.0016923673 0.0013819177 -0.0011170455 -0.00090996485 -0.0007376048 -0.20360295 -0.022003578 -0.00017616258
-0.0007745894 0.0014766792 -0.02394569 0.00014387758 0.11178872 0.0013701811 0.0012009976 0.00010555039
-0.0010660035 0.15200481 0.001431977 -0.0007935827 0.052883394 -0.024586486 -0.0011126227 0.6500699
-0.00024123598 -0.021850768 0.0009868756 0.77420974 -0.024029834 -0.050357904 -0.02190387 0.0132757705
0.00516372 0.012645569 0.00088818435 -0.02165437 -0.00057052367 0.0011102601 -0.023950273 1.2021568
0.00058315764 0.00024195788 0.092094816 -0.001597629 0.0015365109 0.33689585 0.0010936633 -0.023246232
-0.022232257 0.0004955298 -0.0007112905 0.18426496 -0.3067636 -0.017905599 -0.026077112 -0.19404785
-0.0006049993 0.0091876015 0.013233017 -0.027545113 -0.001978446 -0.00014413297 0.0011299005 -0.025739843
-0.028000753 -0.023795165 -0.0010328793 0.0013255795 -0.023071514 0.0020863584 -0.0014201769 0.028307637
-0.0014182044 -0.41264024 -0.00088202313 -0.025466815 -0.040260267 -0.012497394 -0.0013288015 -0.3863982
-0.0273546 0.0068668392 0.21794291 -0.00044930127
00000000: 019f f6ba a5db 003a 3941 dc3b c4b4 8bba
00000010: 72dd bd39 0a31 ae3e 059c 5539 f2cb b33a
00000020: 891f 983a 8422 d5bc b48e d3bc 92d6 083a
00000030: f05d cabc c896 f63b db1b acb9 89a7 4f3f
00000040: 6cd2 ddba 7721 b53a d469 92ba b58a 6eba
00000050: d25b 41ba 4b7d 50be d940 b4bc 48b8 38b9
00000060: d10d 4bba 228d c13a c029 c4bc d8dd 1639
00000070: 7cf1 e43d a697 b33a cb6a 9d3a ef5a dd38
00000080: 24b9 8bba 26a7 1b3e 2db1 bb3a 6f08 50ba
00000090: 429c 583d 9969 c9bc 6cd5 91ba fb6a 263f
000000a0: 4af4 7cb9 6200 b3bc 0d5a 813a 9c32 463f
000000b0: 37da c4bc 1744 4ebd bf6f b3bc 9e82 593c
000000c0: 6c34 a93b 5c2f 4f3c 0bd5 683a 8164 b1bc
000000d0: 328f 15ba 2686 913a 5d33 c4bc 46e0 993f
000000e0: 0cdf 183a 13b6 7d39 359c bc3d 8967 d1ba
000000f0: c064 c93a 9d7d ac3e 4059 8f3a e26e bebc
00000100: 6c20 b6bc 71e6 013a e675 3aba f4af 3c3e
00000110: 1e10 9dbe c3ae 92bc ab9f d5bc 7bb4 46be
00000120: d198 1eba 9887 163c 4ccf 583c 4aa6 e1bc
00000130: d1a8 01bb 6622 17b9 2b19 943a 5ddc d2bc
00000140: d661 e5bc 14ee c2bc ae61 87ba 11bf ad3a
00000150: 7900 bdbc 49bb 083b 3b25 baba 6be5 e73c
00000160: 0be3 b9ba 9545 d3be 9237 67ba c89f d0bc
00000170: f3e7 24bd dfc1 4cbc 2e2b aeba fcd5 c5be
00000180: c116 e0bc 3903 e13b 6d2c 5f3e 3290 ebb9

regressor.4.weight f4 [50, 100]
-0.00976596 -0.0017679019 -0.00072015496 -0.01519616 0.010104337 -0.08909144 0.0040469086 -0.006498994
-0.0015780587 -0.009863883 -0.009742354 0.015281875 -0.0087602995 -0.0010171339 0.009242157 -0.07872257
-0.010081551 0.016521212 -0.013862593 -0.012822393 -0.013736834 -0.04693119 -0.0063245166 -0.0041527385
-0.009492591 0.00061837205 -0.0084845945 -0.003205112 -0.012596716 -0.0016124367 0.0076802196 -0.0018237658
-0.013135048 -0.013221063 0.019257173 -0.014445427 0.0043480834 -0.008660622 -0.020273222 -0.2395615
0.0033663975 -0.0061934376 0.0049052434 0.18894362 -0.007978815 -0.12089444 -0.006163946 0.0018242798
-0.00097345246 -0.0014730528 -0.001704577 -0.005935908 -0.01213483 0.0068086027 -0.007911395 0.27817518
-0.0009798738 0.008536008 -0.01398782 -0.008542338 -0.010230656 0.0049291356 -0.0013284149 -0.007263802
-0.006613151 0.009782997 -0.02010898 0.00038750374 0.32144776 -0.0044583627 -0.010064045 0.004454175
-0.0024601193 0.00042872978 0.0017821243 -0.011202618 -0.025975576 -0.008706377 0.013135246 -0.009672361
-0.012657835 -0.007738054 -0.019133333 0.02064767 -0.007093592 -0.0014240487 -0.027246824 0.0021968551
-0.02447659 -0.03759761 -0.021682447 -0.009491714 0.0085448 -0.003206858 -0.016511904 0.0076956884
-0.011546794 -0.0006831724 -0.012657774 -0.0018937418 0.00042263806 4.6608035e-05 -5.48768e-05 0.00031592255
-1.7261245e-05 -0.0015270072 9.662343e-05 -0.00017146072 3.6603116e-05 -4.7091147e-05 -4.6081295e-05 2.7382794e-05
-3.676094e-05 -5.0141607e-05 -0.00011673444 -0.0008272849 0.00037634617 -6.305918e-05 0.00012184789 0.00028110616
0.00018425354 -0.007600875 -1.0355134e-05 0.00022348751 9.332924e-05 -8.653689e-05 -3.4017758e-05 -1.6702768e-05
-0.0001111516 3.766062e-05 -9.543811e-05 4.8541144e-05 0.00015191293 -0.00011379456 -0.00011474818 6.465644e-05
-0.0018832883 -3.573657e-05 0.0003231715 -0.0016153682 -2.4115513e-06 -8.919818e-06 -0.00029661626 -0.001966481
-2.844799e-05 -0.098497234 -8.598156e-06 0.00010307475 -3.250312e-05 3.544456e-05 4.355352e-05 -6.088603e-06
0.0003116282 -0.0002847466 -2.7717542e-05 -0.00057249254 -9.117587e-05 -0.00022213667 -0.00011121501 -1.1657072e-05
9.184609e-05 -0.000354833 -0.00027271622 -2.0632018e-05 -1.354294e-05 -1.25492315e-05 0.00026740078 -0.000109639215
-0.005548518 1.1427912e-05 -4.8762973e-05 0.00072716427 0.00029601 -7.029924e-05 0.00010185327 -5.6151628e-05
0.00017132648 -0.00010331586 -7.076149e-05 -4.5476896e-05 -6.280674e-05 -2.5821764e-05 0.00020694167 -0.00011693203
-1.8762363e-05 2.1132462e-05 0.00017669056 -3.3075725e-05 0.0001745638 -0.0015911685 0.00045419752 -4.3885186e-05
-0.003159368 2.9880654e-05 0.00030551397 0.00075582997 -5.797342e-05 -5.7145968e-05 -0.00014372623 4.9971088e-05
-0.0012312514 0.35321772 0.287585 -0.00032239108 -0.00037432145 0.23571086 -0.00064501964 0.0006423933
0.3393255 0.7854445 0.77690953 -0.0016098034 0.7101903 0.2941789 -0.0028991706 0.4747149
-0.0031518345 -5.9009788e-05 0.0016950798 -0.00090055587 0.001687419 -0.008242713 0.5723122 -0.0026749447
-0.0019636333 0.0010234187 0.6929916 0.0046988907 0.97768456 0.34082755 0.0011533804 0.3581677
0.002053615 0.97361124 0.0007042551 0.0011348593 0.032165304 0.70373815 0.0016136321 0.37945455
-3.825702e-06 0.56605667 0.0005536975 0.43230015 0.6611695 -0.9096218 0.56466866 0.21647713
0.30157003 0.3698972 0.34790823 0.5541313 -0.0014526896 0.00047153689 0.6571592 0.5209424
00000000: 6801 20bc f2b8 e7ba c8c8 3cba 51f9 78bc
00000010: a98c 253c 9375 b6bd ee9b 843b 83f5 d4bb
00000020: ddd6 ceba 209c 21bc 659e 1fbc d460 7a3c
00000030: 5c87 0fbc 5a51 85ba 6b6c 173c 4c39 a1bd
00000040: 172d 25bc 7e57 873c ee1f 63bc 0415 52bc
00000050: 7510 61bc eb3a 40bd e43d cfbb b213 88bb
00000060: d086 1bbc 3f1a 223a f802 0bbc db0c 52bb
00000070: 7562 4ebc 6658 d3ba 5aaa fb3b 6d0b efba
00000080: 6234 57bc 289d 58bc 38c1 9d3c 83ac 6cbc
00000090: 5e7a 8e3b 48e5 0dbc 0714 a6bc 9c4f 75be
000000a0: c79e 5c3b 52f2 cabb 2abc a03b 707a 413e
000000b0: 93b9 02bc 8197 f7bd edfa c9bb ac1c ef3a
000000c0: 4a2f 7fba 7313 c1ba 1d6c dfba 0182 c2bb
000000d0: 2ad1 46bc b31a df3b cc9e 01bc fa6c 8e3e
000000e0: 1c6f 80ba 9dda 0b3c 2b2d 65bc 2af5 0bbc
000000f0: 7b9e 27bc 9684 a13b 351e aeba 3005 eebb
00000100: 22b3 d8bb dd48 203c 96bb a4bc df29 cb39
00000110: cd94 a43e 7517 92bb aae3 24bc 54f4 913b
00000120: f439 21bb 23c7 e039 2b96 e93a 2f8b 37bc
00000130: bbca d4bc 31a5 0ebc 3735 573c d378 1ebc
00000140: cf62 4fbc 808f fdbb 82bd 9cbc 4d25 a93c
00000150: 5d71 e8bb 25a7 baba bb34 dfbc 1df9 0f3b
00000160: 2183 c8bc f4ff 19bd 639f b1bc 2283 1bbc
00000170: 7dff 0b3c 262a 52bb f943 87bc 1d2c fc3b
00000180: c42e 3dbc ec16 33ba 8d62 4fbc 6e37 f8ba
00000190: 8595 dd39 ff7c 4338 842b 66b8 68a2 a539
000001a0: 3ecc 90b7 dc25 c8ba 4fa2 ca38 23ca 33b9
000001b0: 4c86 1938 bc83 45b8 6a47 41b8 1ab4 e537
000001c0: c22f 1ab8 244f 52b8 53cf f4b8 26de 58ba
000001d0: 5450 c539 a43e 84b8 9688 ff38 6e61 9339
000001e0: 2f34 4139 c310 f9bb f6ba 2db7 f957 6a39
000001f0: c1b9 c338 247b b5b8 4aae 0eb8 ec1c 8cb7
00000200: 101a e9b8 c8f5 1d38 f225 c8b8 a898 4b38
00000210: d14a 1f39 fda4 eeb8 f6a4 f0b8 2998 8738
00000220: abd8 f6ba dae3 15b8 586f a939 c3ba d3ba
00000230: 23d6 21b6 54a6 15b7 2983 9bb9 14e0 00bb
00000240: 98a3 eeb7 ebb8 c9bd cc40 10b7 d629 d838
00000250: f653 08b8 4eaa 1438 3cad 3638 b44c ccb6
00000260: 0762 a339 0b4a 95b9 f882 e8b7 5313 16ba
00000270: ac35 bfb8 5ced 68b9 1b3c e9b8 be92 43b7
00000280: 7e9d c038 e108 bab9 5afb 8eb9 ec12 adb7
00000290: 7c36 63b7 8a8a 52b7 ed31 8c39 1bee e5b8
000002a0: 58d0 b5bb 82ba 3f37 d886 4cb8 2b9f 3e3a
000002b0: ca31 9b39 9e6d 93b8 0f9a d538 5a84 6bb8
000002c0: 1aa6 3339 48ab d8b8 c965 94b8 72be 3eb8
000002d0: 1db7 83b8 d19b d8b7 7bfe 5839 6839 f5b8
000002e0: de63 9db7 9e45 b137 0346 3939 caba 0ab8
000002f0: 1d0b 3739 c18e d0ba 5c21 ee39 5c11 38b8
00000300: 660d 4fbb 37a8 fa37 642d a039 e422 463a
00000310: 7c28 73b8 04b0 6fb8 37b5 16b9 0c98 5138
00000320: f161 a1ba f4d8 b43e 573e 933e 9906 a9b9
00000330: 9340 c4b9 305e 713e 8916 29ba 4966 283a
00000340: 12bc ad3e e412 493f 8be3 463f 0a00 d3ba
00000350: 08cf 353f 9e9e 963e 0300 3ebb d50d f33e
00000360: 028f 4ebb 4781 77b8 712d de3a 4813 6cba
00000370: 632c dd3a 720c 07bc 0d83 123f 204e 2fbb
00000380: 4db0 00bb 3c24 863a e667 313f 27f9 993b
00000390: 8949 7a3f f380 ae3e 062d 973a c261 b73e
000003a0: f195 063b 963e 793f c29d 383a 8fbf 943a
000003b0: c4bf 033d 2f28 343f 8280 d33a de47 c23e
000003c0: 885e 80b6 17e9 103f 0326 113a 7256 dd3e
000003d0: 6842 293f f9dc 68bf 208e 103f 2eac 5d3e
000003e0: 6367 9a3e 2a63 bd3e 0721 b23e 8ddb 0d3f
000003f0: 2d68 beba 9c38 f739 963b 283f 7b5c 053f

regressor.4.bias f4 [50]
0.018698404 -0.0025686354 0.0021010528 -0.002568636 0.0016832402 -0.0025686359 0.002805652 0.22015442
-0.0025686375 -0.0025686142 0.015382593 -0.002568637 -0.0025686063 -0.0025686366 -0.10719875 -0.0025686312
0.042975176 0.04385949 0.0023719529 0.019845162 0.0017236689 0.002842927 0.0023631644 -0.0025686098
-0.002568636 0.0030818854 0.0028568124 0.0006383794 0.0019074288 -0.0021097413 -0.0025686375 0.00065700116
-0.0025686363 0.0013225311 0.0145961 0.002677847 -0.0025686123 -0.0025692636 0.0076138284 -0.002568636
-0.0025686366 -0.002568636 -0.0025686093 -0.0025686352 0.0021309613 0.0022447754 0.1523419 -0.0025692268
-0.0025686359 -0.0025686368
00000000: 652d 993c 8d56 28bb d1b1 093b 9056 28bb
00000010: 2ba0 dc3a 8f56 28bb 08df 373b 2970 613e
00000020: 9656 28bb 3256 28bb 4507 7c3c 9456 28bb
00000030: 1056 28bb 9256 28bb 058b dbbd 7b56 28bb
00000040: bd06 303d 02a6 333d c472 1b3b 5292 a23c
00000050: bbec e13a 6650 3a3b 52df 1a3b 1f56 28bb
00000060: 9056 28bb 75f9 493b 5c39 3b3b eb58 273a
00000070: b102 fa3a 9643 0abb 9656 28bb 9a3a 2c3a
00000080: 9156 28bb c858 ad3a 7b24 6f3c d17e 2f3b
00000090: 2a56 28bb 1761 28bb 6c7d f93b 9056 28bb
000000a0: 9256 28bb 9056 28bb 1d56 28bb 8c56 28bb
000000b0: 99a7 0b3b 151d 133b 84ff 1b3e 7960 28bb
000000c0: 8f56 28bb 9356 28bb

regressor.6.weight f4 [1, 50]
-0.30746904 -0.0026125265 4.4888625 -0.0026125268 4.298844 -0.0026125186 3.8751802 1.252719
-0.002612544 -0.0026121864 6.179821 -0.0026125165 -0.002611741 -0.0026124606 -0.34825647 -0.0026123947
7.240905 7.1082273 4.9156017 5.7149653 4.2752523 5.6666393 4.903995 -0.0026119773
-0.0026124376 5.8532906 3.8987043 2.7110727 3.8086195 5.5963655 -0.0026125202 2.7876194
-0.0026125216 3.2136772 5.7956243 5.4028153 -0.002612086 -0.002630686 6.151426 -0.0026125244
-0.0026125158 -0.0026125228 -0.0026119698 -0.0026125235 4.5478883 4.7126775 5.8938823 -0.0026296978
-0.0026125158 -0.0026124408
00000000: 956c 9dbe ec36 2bbb c3a4 8f40 ed36 2bbb
00000010: 2190 8940 ca36 2bbb f402 7840 1959 a03f
00000020: 3737 2bbb 3731 2bbb 18c1 c540 c136 2bbb
00000030: be29 2bbb d135 2bbb ac4e b2be b634 2bbb
00000040: 7eb5 e740 9976 e340 9c4c 9d40 ffe0 b640
00000050: dece 8840 1c55 b540 87ed 9c40 b52d 2bbb
00000060: 6e35 2bbb 284e bb40 5f84 7940 3782 2d40
00000070: 6cc0 7340 6d15 b340 d136 2bbb 5b68 3240
00000080: d736 2bbb e3ac 4d40 c175 b940 dde3 ac40
00000090: 882f 2bbb 9667 2cbb 7bd8 c440 e336 2bbb
000000a0: be36 2bbb dc36 2bbb 952d 2bbb df36 2bbb
000000b0: 4d88 9140 41ce 9640 af9a bc40 0257 2cbb
000000c0: be36 2bbb 7c35 2bbb
