saved-networks/FourLayerNet_V5-2020_09_29-19_35_55.pth (torch_old, 1610 bytes, 7 tensors)

regressor.0.weight f4 [4, 1]
1.236125 -1.1558424 -1.0275282 -1.0315241
00000000: 5839 9e3f a5f2 93bf 0b86 83bf fb08 84bf

regressor.0.bias f4 [4]
-0.7015852 6.5266695 4.033216 3.7824662
00000000: 169b 33bf 7ada d040 1b10 8140 ed13 7240

regressor.2.weight f4 [2, 4]
0.02980127 -12.549193 -19.253883 -17.297886 1.8342409 -1.4227952 -2.6161864 -2.062825
00000000: cb21 f43c 7fc9 48c1 f407 9ac1 1262 8ac1
00000010: 68c8 ea3f 271e b6bf 996f 27c0 5305 04c0

regressor.2.bias f4 [2]
0.35089788 1.0878025
00000000: e3a8 b33e 1d3d 8b3f

regressor.4.weight f4 [2, 2]
51.05568 -18.78738 20.719013 -0.3523266
00000000: 0439 4c42 8e4c 96c1 8ac0 a541 2764 b4be

regressor.4.bias f4 [2]
-1.2778903 1.0774972
00000000: e991 a3bf 6eeb 893f

regressor.6.weight f4 [1, 2]
85.853035 31.91322
00000000: c1b4 ab42 464e ff41
