saved-networks/FourLayerNet_V5-2020_09_29-18_01_49.pth (torch_old, 1610 bytes, 7 tensors)

regressor.0.weight f4 [4, 1]
0.71400136 -1.3201723 1.1907667 -1.227189
00000000: cbc8 363f 68fb a8bf 0b6b 983f 8714 9dbf

regressor.0.bias f4 [4]
-4.760789 5.5628996 -1.6794351 6.4690986
00000000: 6258 98c0 4603 b240 bbf7 d6bf db02 cf40

regressor.2.weight f4 [2, 4]
-1.2878519 1.0348723 -2.6833477 0.26881853 -0.3737462 -14.070691 -0.105161086 -12.442433
00000000: 55d8 a4bf b276 843f f8bb 2bc0 95a2 893e
00000010: a95b bfbe 8d21 61c1 b25e d7bd 3514 47c1

regressor.2.bias f4 [2]
-0.9387161 1.2408743
00000000: b34f 70bf f8d4 9e3f

regressor.4.weight f4 [2, 2]
-28.480999 71.58643 3.6040537 7.0732493
00000000: 16d9 e3c1 412c 8f42 d1a8 6640 0f58 e240

regressor.4.bias f4 [2]
-1.5523133 0.1181284
00000000: 34b2 c6bf 4ded f13d

regressor.6.weight f4 [1, 2]
45.06393 -52.295727
00000000: 7741 3442 d32e 51c2
