saved-networks/FourLayerNet_V5-2020_09_29-19_20_29.pth (torch_old, 1610 bytes, 7 tensors)

regressor.0.weight f4 [4, 1]
000000 5c b1 6d bf 7a ff 34 3f de 39 60 bf 8e 2d 2c bf
       -0.92848754 0.70702326 -0.875883 -0.6725701

regressor.0.bias f4 [4]
000000 9c 02 ce be 00 53 e2 bd 28 22 52 3e f8 57 14 3f
       -0.40236366 -0.11050987 0.20520842 0.5794673

regressor.2.weight f4 [2, 4]
000000 56 39 ea be 40 e1 2e 3c 18 4e a5 bd 60 20 f9 3c
       -0.4574687 0.010673821 -0.08071536 0.030410945
000010 ec ef 2c 3e 60 06 91 3c 40 45 c9 bd a4 30 10 be
       0.16888398 0.017703235 -0.098276615 -0.14081055

regressor.2.bias f4 [2]
000000 d0 f5 d8 3d ce 40 ba 3e
       0.1059376 0.36377567

regressor.4.weight f4 [2, 2]
000000 a2 03 9b 3e bb 84 0f 3f 8e 90 2b bf 00 78 9e bb
       0.3027621 0.56061906 -0.6701745 -0.0048360825

regressor.4.bias f4 [2]
000000 57 30 2f bf 22 7f e7 3e
       -0.68433136 0.45214182

regressor.6.weight f4 [1, 2]
000000 82 5c d5 be a6 f8 27 bf
       -0.4167214 -0.6561378
