saved-networks/FourLayerNet_V5-2020_09_29-18_48_40.pth (torch_old, 1610 bytes, 7 tensors)

regressor.0.weight f4 [4, 1]
000000 d0 8a 61 bf 41 8f 78 bf 03 00 46 bf 1d 47 5b bf
       -0.88102436 -0.9709359 -0.7734377 -0.85655385

regressor.0.bias f4 [4]
000000 f5 5b 77 40 5f d7 66 40 f8 cb 77 40 55 e8 74 40
       3.8649876 3.6068952 3.8718243 3.8266804

regressor.2.weight f4 [2, 4]
000000 32 92 5c bd 92 46 0b bd 0d 36 71 c0 20 ab ce be
       -0.05385036 -0.034002848 -3.768924 -0.40364933
000010 ad 21 6a c1 72 51 8a c1 56 7a 71 c1 f1 20 61 c1
       -14.633222 -17.289768 -15.092367 -14.070542

regressor.2.bias f4 [2]
000000 53 bb f2 3e 8a 2a cd c0
       0.47408542 -6.4114428

regressor.4.weight f4 [2, 2]
000000 52 84 c1 c0 5e 2a 49 40 a1 b5 d5 41 a2 c6 4c 42
       -6.0474024 3.143211 26.713686 51.193977

regressor.4.bias f4 [2]
000000 8e 4e 3b bf 95 2c 38 40
       -0.7316674 2.877721

regressor.6.weight f4 [1, 2]
000000 a3 71 95 c1 70 c8 0e 42
       -18.680487 35.69574
