saved-networks/FourLayerNet_V5-2020_09_29-19_16_00.pth (torch_old, 1610 bytes, 7 tensors)

regressor.0.weight f4 [4, 1]
00000000: 4a2f 683f 50e4 0ac0 7ca8 0bc0 c4f5 0bc0
0.9069716 -2.170185 -2.1821585 -2.1868753

regressor.0.bias f4 [4]
00000000: 006a 37c0 f1c4 d440 2517 d840 a39f d940
-2.8658447 6.6490407 6.7528253 6.800737

regressor.2.weight f4 [2, 4]
00000000: 556f 9a3e ca2e 05c1 c68a 0cc1 aa62 0fc1
00000010: 36f0 3ac0 950a 3f3d 92a0 203e 50f1 373e
0.30163065 -8.323923 -8.78388 -8.961588 -2.9209113 0.04664095 0.15686253 0.17963147

regressor.2.bias f4 [2]
00000000: 05ca 4ac0 3b17 cf3f
-3.1685803 1.6178964

regressor.4.weight f4 [2, 2]
00000000: 2a35 93c0 f22d 203f 2535 93c0 f02d 203f
-4.6002398 0.62570107 -4.6002374 0.62570095

regressor.4.bias f4 [2]
00000000: ebd1 15c0 e9d1 15c0
-2.3409374 -2.340937

regressor.6.weight f4 [1, 2]
00000000: 2921 8bc3 5b1d 8bc3
-278.25906 -278.22934
