saved-networks/FourLayerNet_V4-2020_09_15-18_10_53.pth (torch_old, 4923 bytes, 7 tensors)

regressor.0.weight f4 [28, 7]
5.204755 -7.324091 0.49517033 0.30635804 0.11220606 1.3399029 0.6127341 -0.018152062
-1.771872 0.4199816 -3.7468686 -0.25448674 -0.34745887 -0.356468 -0.35798422 -0.2963475
-0.41972572 0.23690405 0.180341 3.2870202 0.09614897 -1.0213357 0.23326561 -0.14361918
0.0011053697 -0.07606068 0.21427822 -0.0771971 -6.29153 0.6078374 -0.22679207 -0.19937958
0.73448867 -1.0640312 0.46053243 -0.78803176 -1.1427385 -0.0005781807 -1.4396508 -0.21069779
-1.5602908 -0.7792439 -2.8728547 2.5680394 -0.9457573 -3.370779 -0.06790401 5.2708697
0.8398929 -0.7218796 -0.45272592 0.5456099 0.4655223 -0.11297561 3.6483715 -0.31363538
-4.0662117 -0.4294977 0.28327072 0.15727647 -0.48109815 1.0915473 -0.35996735 5.868662
4.489578 -0.45782077 -0.24236986 1.1610197 0.78263295 0.96759796 1.5012902 0.782158
-0.20935518 0.16490963 -0.31605244 -1.8995415 -0.18770054 1.1673493 1.2226039 -0.20759818
-0.06919409 -0.39993066 -2.4490669 -0.28682643 -4.5465093 0.0717722 0.18548447 0.043830547
-0.38949585 0.6578495 -0.34108546 -2.5296624 1.749505 -0.6465428 0.35730204 -0.5499313
1.167041 -0.32172683 -2.07335 1.5232252 -0.43237007 0.35380566 -0.34075218 1.1154509
-0.16356543 -0.00089306606 0.000372668 0.001801885 0.00021686309 -0.0018482629 -0.0030434262 -0.0015863787
2.3817894 -0.17899646 -0.6657698 -0.78499365 1.1639527 1.4894313 1.126322 -5.09236
-0.1075048 0.13558 -0.0014021819 -0.44312388 0.80102605 -0.56489414 -0.8991944 -0.8175038
0.113459304 -1.9984921 -0.3083884 -1.6277282 -0.88475686 0.91008925 2.6646824 0.036563102
-0.51948833 -0.866734 -0.28872603 -1.7233503 0.7207566 -0.06876981 0.19712614 -0.45783827
1.3297956 6.447369 1.0949676 -6.1805797 0.5270363 -0.23776 -0.22353096 0.763219
-1.0398921 0.4523676 0.0006405765 -0.0010375847 0.0014996394 0.0010758872 -0.0022024226 -0.0034839292
-0.0018403976 0.1725907 -0.901562 -0.3797876 -0.06197851 -3.3298404 3.4395258 -3.2950284
-3.3279915 1.0572376 -2.2818074 -0.26799121 -0.13601255 0.1751594 -0.056787908 -6.8087792
1.3899219 -0.29936975 -0.2398129 0.34797874 -0.67787284 0.037322987 5.052381 5.5436893
-0.62323105 0.2892097 0.5793698 -0.57653564 -0.11289543 -5.0247793 0.19988102 0.22464687
0.0015101114 -0.11692071 0.5561496 -0.15289454
00000000: 5a8d a640 f45e eac0 f786 fd3e f6da 9c3e
00000010: 4acc e53d f081 ab3f 24dc 1c3f a2b3 94bc
00000020: b4cc e2bf d407 d73e b2cc 6fc0 164c 82be
00000030: 21e6 b1be f982 b6be b549 b7be dcba 97be
00000040: 4ae6 d6be fa96 723e 50ab 383e 8a5e 5240
00000050: c0e9 c43d 21bb 82bf 2edd 6e3e e810 13be
00000060: 0de2 903a b4c5 9bbd c06b 5b3e 8319 9ebd
00000070: 3754 c9c0 3b9b 1b3f 2e3c 68be 292a 4cbe
00000080: 7307 3c3f 2d32 88bf e8ca eb3e 73bc 49bf
00000090: 4145 92bf 0d91 17ba 7a46 b8bf 29c1 57be
000000a0: 9cb7 c7bf 877c 47bf dadc 37c0 c25a 2440
000000b0: 271d 72bf d8ba 57c0 4211 8bbd f7aa a840
000000c0: 3903 573f 1acd 38bf b1cb e7be 17ad 0b3f
000000d0: f058 ee3e c25f e7bd eb7e 6940 d194 a0be
000000e0: 681e 82c0 1fe7 dbbe dc08 913e 150d 213e
000000f0: 7f52 f6be d2b7 8b3f a44d b8be 14cc bb40
00000100: 9faa 8f40 7c67 eabe ce2f 78be 4b9c 943f
00000110: a25a 483f 80b4 773f 472a c03f 823b 483f
00000120: 3461 56be 12de 283e a0d1 a1be 2d24 f3bf
00000130: 9234 40be b46b 953f 497e 9c3f 9e94 54be
00000140: a2b5 8dbd b6c3 ccbe 83bd 1cc0 eada 92be
00000150: 017d 91c0 4efd 923d a4ef 3d3e a987 333d
00000160: 006c c7be d368 283f c1a2 aebe fde5 21c0
00000170: c8ef df3f d483 25bf 4bf0 b63e 4cc8 0cbf
00000180: 9961 953f 61b9 a4be c4b1 04c0 0bf9 c23f
00000190: 9c5f ddbe 0426 b53e 1277 aebe 18c7 8e3f
000001a0: b27d 27be a61c 6aba a762 c339 3a2d ec3a
000001b0: be65 6339 6941 f2ba 3874 47bb 09ee cfba
000001c0: 3d6f 1840 d94a 37be e46f 2abf 58f5 48bf
000001d0: 67fc 943f afa5 be3f 522b 903f 9df4 a2c0
000001e0: 7a2b dcbd 7cd5 0a3e 6bc9 b7ba 22e1 e2be
000001f0: 0b10 4d3f e79c 10bf 9b31 66bf ee47 51bf
00000200: 5a5d e83d 97ce ffbf 16e5 9dbe 6659 d0bf
00000210: 6d7f 62bf 9cfb 683f 288a 2a40 31c3 153d
00000220: 30fd 04bf 48e2 5dbf e6d3 93be be96 dcbf
00000230: 8183 383f 30d7 8cbd 6fdb 493e c769 eabe
00000240: be36 aa3f d950 ce40 e627 8c3f 4fc7 c5c0
00000250: daeb 063f 5c77 73be 4de5 64be 5262 433f
00000260: 2f1b 85bf ba9c e73e 5cec 273a 91ff 87ba
00000270: 8c8f c43a c904 8d3a 8556 10bb a252 64bb
00000280: 7f39 f1ba 9ebb 303e c4cc 66bf 8573 c2be
00000290: 2edd 7dbd 1b1c 55c0 3121 5c40 bfe1 52c0
000002a0: d0fd 54c0 9053 873f 2209 12c0 2536 89be
000002b0: e046 0bbe fc5c 333e 709a 68bd 85e1 d9c0
000002c0: f6e8 b13f fe46 99be 8391 75be 452a b23e
000002d0: 1389 2dbf fddf 183d 1bad a140 e765 b140
000002e0: 128c 1fbf 4b13 943e 9451 143f d797 13bf
000002f0: b835 e7bd feca a0c0 9cad 4c3e d409 663e
00000300: eeee c53a 2074 efbd d25f 0e3f 6390 1cbe

regressor.0.bias f4 [28]
-1.2728263 3.3332932 -1.3871837 0.27058527 2.2919989 1.5670258 -3.8491905 -1.4135302
0.2188472 1.6157662 3.8647692 4.32246 0.67361873 0.19201599 0.1053591 0.0024885458
-3.2625928 0.7951835 1.9011027 2.6953964 -2.1056535 2.2167974 0.0011198998 -0.4166536
0.81655294 2.6062427 0.41379344 0.7029205
00000000: f9eb a2bf ad54 5540 3c8f b1bf 278a 8a3e
00000010: 1cb0 1240 4d94 c83f 2359 76c0 8fee b4bf
00000020: 7b19 603e 6dd1 ce3f 6158 7740 9851 8a40
00000030: 4772 2c3f d79f 443e 83c6 d73d df16 233b
00000040: 52ce 50c0 2591 4b3f 5557 f33f 6081 2c40
00000050: 07c3 06c0 02e0 0d40 9ac9 923a 9f53 d5be
00000060: 9d09 513f aecc 2640 bcdc d33e 99f2 333f

regressor.2.weight f4 [14, 28]
-1.796261 0.8516187 -0.6773252 0.33398747 1.0658149 0.28940022 -2.1803987 -0.7687045
0.771354 0.9885979 -0.010025633 0.22202024 0.90715957 0.26861373 0.24301122 0.0010478557
0.08729698 0.98671263 0.45710975 0.14136833 -2.837963 1.0316336 0.00010354799 1.2401929
-0.01953443 1.2770487 1.207799 0.9707655 -1.0356941 1.0824963 -0.9621745 0.07828532
0.9103643 -0.16694559 -1.6386007 -1.0749593 -0.12051736 0.8977857 0.89083314 1.0442959
0.08252422 -0.09448822 -0.090691224 -0.000104713006 -0.055729967 0.07860337 -0.010675674 0.64479065
-0.8636952 0.88129365 -0.00050514634 0.12835757 -0.019459132 1.0682364 0.77610695 0.14101665
-7.725891 -4.0955 1.2413579 0.7916622 2.6564913 -1.8536146 3.615134 1.4153988
2.448316 -4.1811767 -2.8132286 -3.2927291 2.8250875 2.6077797 2.1457105 0.00019335253
-3.6128876 3.036111 -2.0455956 -1.5641 1.0248728 2.5858257 -0.0011094884 -2.3490422
2.901658 3.2875807 -3.6274557 2.917237 -0.5397395 0.9954343 -1.3971198 0.11181237
1.8203533 -0.005840615 -2.5797977 -1.6449175 -0.28739744 1.6417907 1.3706633 1.6938176
0.035554823 -0.05894515 -0.07894629 -0.0005085811 -0.6248388 -0.051081426 0.22244512 0.9981583
-1.6536025 1.7632637 0.0007972076 0.7028317 0.09066985 1.9004929 0.94612783 0.3151026
-1.1182672 1.154605 -0.9018739 0.067549646 0.9332018 -0.15562035 -1.6918409 -1.007811
-0.15622538 0.66723907 0.74755913 0.8892361 0.03484542 -0.089327194 -0.09281246 -0.00041268734
-0.07155335 0.029662767 -0.06693434 0.6095952 -0.86609775 0.906975 -0.0010651296 0.22670113
0.062289707 1.0177107 0.5549682 0.101893626 -0.77522385 0.05683526 -0.11662784 0.2958664
0.83911985 0.07864559 -2.0120866 -0.31226784 0.78198963 0.32942307 -0.5336742 -0.42770824
0.74047375 0.25397035 0.22820728 0.00075921154 0.086179726 0.8354187 0.0109331915 -0.44283557
-2.9262295 0.82924163 0.000739755 1.2238036 0.07444871 0.85854924 0.6614514 0.7262443
-0.7073302 -0.3395866 0.48671973 0.044602577 2.5701344 0.96119976 0.23247963 0.6174178
1.1924708 -1.7912467 -0.7138866 -0.9866045 1.3010626 0.10796364 -0.2779872 -0.00096960115
0.5249917 1.6400921 0.87481046 -0.92920333 -0.2042414 2.5400023 -0.0028053063 -0.52924013
1.2021025 2.5396445 -2.6154788 1.553387 -1.5996386 0.5937198 -0.3616133 0.30302447
0.9599059 0.2503545 -1.9805977 -0.5426126 0.7090598 0.879963 -0.3852552 -0.17565714
0.79939145 0.32633147 0.30708688 0.0015664754 0.12970234 0.85578996 0.3511783 -0.12814349
-2.7908077 0.9612522 0.00032963295 1.1709666 -0.025600562 1.0958728 1.0543715 0.8593109
-3.0932446 -0.32984763 -0.006607694 0.6100695 3.1109695 -0.4222199 0.25843006 0.43434322
1.7894187 -3.7117393 -1.5540793 -1.8381898 2.0353599 1.1250662 0.8598398 0.0005980696
-1.2315968 2.3303056 -0.8739346 -2.077957 1.1718223 3.0672219 0.00197365 -2.000457
1.7824519 3.3487082 -3.5726998 2.3572571 -1.662925 0.8248066 -0.5389491 0.14911273
00000000: e1eb e5bf af03 5a3f 2f65 2dbf 6800 ab3e
00000010: 9f6c 883f 442c 943e a78b 0bc0 d1c9 44bf
00000020: 7577 453f c114 7d3f 8d42 24bc 4659 633e
00000030: 9c3b 683f bd87 893e efd7 783e 3458 893a
00000040: c2c8 b23d 3399 7c3f 4a0a ea3e dcc2 103e
00000050: 30a1 35c0 920c 843f e727 d938 a4be 9e3f
00000060: ab06 a0bc 5576 a33f 2899 9a3f 1684 783f
00000070: a091 84bf 3d8f 8a3f 1151 76bf 0e54 a03d
00000080: a20d 693f c9f3 2abe abbd d1bf 4498 89bf
00000090: ced1 f6bd 49d5 653f a40d 643f 7dab 853f
000000a0: 7502 a93d 0a83 c1bd 52bc b9bd 5e99 dbb8
000000b0: 1b45 64bd cefa a03d 06e9 2ebc 0011 253f
000000c0: 211b 5dbf 769c 613f cc6b 04ba 2b70 033e
000000d0: c268 9fbc f8bb 883f f2ae 463f ab66 103e
000000e0: 803a f7c0 560e 83c0 d1e4 9e3f 60aa 4a3f
000000f0: f403 2a40 3e43 edbf 5b5e 6740 ca2b b53f
00000100: 36b1 1c40 33cc 85c0 f00b 34c0 13bc 52c0
00000110: 3cce 3440 dde5 2640 5253 0940 adbe 4a39
00000120: 8d39 67c0 a54f 4240 0aeb 02c0 6e34 c8bf
00000130: 082f 833f 2b7e 2540 416c 91ba b556 16c0
00000140: c4b4 3940 b967 5240 3c28 68c0 03b4 3a40
00000150: 5e2c 0abf c8d4 7e3f d2d4 b2bf e2fd e43d
00000160: 5601 e93f a162 bfbb 681b 25c0 a88c d2bf
00000170: c225 93be 3326 d23f e571 af3f 04cf d83f
00000180: efa1 113d 7870 71bd 98ae a1bd 4d52 05ba
00000190: 70f5 1fbf c23a 51bd a7c8 633e 4d87 7f3f
000001a0: 3fa9 d3bf a0b2 e13f b2fb 503a c7ec 333f
000001b0: 1db1 b93d 5a43 f33f 6f35 723f 2155 a13e
000001c0: 6123 8fbf 19ca 933f 35e1 66bf 7857 8a3d
000001d0: 50e6 6e3f f15a 1fbe 3e8e d8bf f3ff 80bf
000001e0: 8cf9 1fbe 2ed0 2a3f 0960 3f3f faa4 633f
000001f0: 12ba 0e3d 2df1 b6bd 7614 bebd f55d d8b9
00000200: 908a 92bd 55ff f23c df14 89bd 6e0e 1c3f
00000210: 95b8 5dbf 832f 683f d29b 8bba 5724 683e
00000220: 7e23 7f3d 5844 823f 6512 0e3f 9bad d03d
00000230: 1275 46bf 17cc 683d 94da eebd cd7b 973e
00000240: 8fd0 563f f010 a13d 07c6 00c0 92e1 9fbe
00000250: 7930 483f 24aa a83e df9e 08bf 93fc dabe
00000260: b08f 3d3f 6708 823e 2baf 693e d305 473a
00000270: ff7e b03d 00de 553f 2121 333c 58bb e2be
00000280: 5847 3bc0 2e49 543f 1eec 413a 99a5 9c3f
00000290: 9178 983d e2c9 5b3f e154 293f 25eb 393f
000002a0: 9813 35bf 4bde adbe 5433 f93e 31b1 363d
000002b0: 157d 2440 3011 763f 240f 6e3e 180f 1e3f
000002c0: e2a2 983f 9247 e5bf 46c1 36bf 1d92 7cbf
000002d0: 3889 a63f 0a1c dd3d 5754 8ebe d52c 7eba
000002e0: db65 063f 8aee d13f 94f3 5f3f 45e0 6dbf
000002f0: a824 51be 668f 2240 3bd9 37bb 487c 07bf
00000300: 7fde 993f 8989 2240 0164 27c0 63d5 c63f
00000310: f5c0 ccbf 05fe 173f 6125 b9be 0626 9b3e
00000320: 65bc 753f 772e 803e 3a84 fdbf a9e8 0abf
00000330: f184 353f 4145 613f 2b40 c5be 77df 33be
00000340: eba4 4c3f eb14 a73e 7e3a 9d3e 3152 cd3a
00000350: b1d0 043e 0d15 5b3f a4cd b33e 0c38 03be
00000360: 989c 32c0 a014 763f 96d2 ac39 3ce2 953f
00000370: 45b8 d1bc 8f45 8c3f a5f5 863f cdfb 5b3f
00000380: b8f7 45c0 cae1 a8be 5b85 d8bb 842d 1c3f
00000390: 201a 4740 352d d8be f250 843e 3c62 de3e
000003a0: ac0b e53f 238d 6dc0 12ec c6bf ce49 ebbf
000003b0: 5643 0240 2b02 903f 761e 5c3f c5c7 1c3a
000003c0: f7a4 9dbf ba23 1540 2eba 5fbf 3ffd 04c0
000003d0: 46fe 953f 5d4d 4440 5a58 013b 7d07 00c0
000003e0: 6227 e43f 3c51 5640 1da7 64c0 4ddd 1640
000003f0: bada d4bf 8626 533f 91f8 09bf 02b1 183e

regressor.2.bias f4 [14]
0.089664705 0.32566684 0.0016854517 0.44172302 0.30067435 -0.091646425 -0.68584305 -0.07449699
-0.03785142 0.0911844 0.36547917 0.5414321 -0.031576797 0.33844826
00000000: 21a2 b73d cebd a63e 60ea dc3a 8529 e23e
00000010: fdf1 993e 1fb1 bbbd 6993 2fbf e191 98bd
00000020: 170a 1bbd e3be ba3d 1620 bb3e 4b9b 0a3f
00000030: ac56 01bd 1749 ad3e

regressor.4.weight f4 [14, 14]
-1.804315 -1.4165934 5.7641425 -2.0978923 -1.3794788 -0.90437436 2.2379997 -1.4417294
3.5010958 -1.3778939 -1.7081779 -1.8639414 -1.0502261 -1.6810848 -0.0147353755 0.07063764
-0.3425786 0.012840868 0.09839557 0.080436565 -0.14505705 -0.024614703 0.0052841105 0.0033027125
0.049528033 -0.115846425 0.005677286 -0.014996569 -2.528099 -2.4260333 9.74347 -3.8620303
-2.315245 -1.1431537 2.0146904 -1.9246262 5.539581 -1.9817824 -2.8047216 -3.6885893
-1.3795679 -2.720112 -1.937764 -1.9056215 8.358478 -3.1016443 -1.8095715 -0.8344043
0.28530765 -1.4651461 4.781845 -1.5090052 -2.1914768 -3.0244234 -1.0422745 -2.1160245
-2.3891883 -1.1105751 5.175399 -1.2641586 -1.1221843 -2.2872975 3.1309068 -2.303862
3.5595503 -1.5445718 -1.4112743 -0.970787 -1.6836469 -1.5361321 -0.042254757 0.0756493
-0.293164 0.017295592 0.11359812 0.06497532 -0.1394095 -0.05210861 0.024474738 -0.0068716654
0.057347756 -0.12016784 -0.011608728 -0.0068649217 -1.2931453 -0.28084758 1.097006 -0.24961796
-0.16237684 -1.0971409 2.7437718 -1.2841512 2.6307747 -0.607708 -0.39245299 -0.5942105
-0.75344354 -0.4691404 -0.3082709 -0.118560374 0.4385314 -0.0054915478 -0.12728886 -0.341977
0.3358105 -0.37342843 0.46534213 -0.21718083 -0.12870446 -0.075922094 -0.28406736 -0.074277505
-1.8204724 -1.6374253 6.3030734 -2.480747 -1.5743886 -0.8237717 2.0654926 -1.3976543
3.6686113 -1.4227178 -1.9276135 -2.2890463 -1.007186 -1.8693722 -0.24002242 0.09801649
0.29886824 -8.153964e-05 0.11393076 -0.2579777 0.052719846 -0.28944665 0.3315768 -0.1445594
0.01436852 -0.12227765 -0.19661894 -0.091066174 -0.02528565 0.07091155 -0.31251067 0.0144072175
0.10333094 0.0716575 -0.14323874 -0.037166208 0.011950212 -0.0055818683 0.054810867 -0.11769422
-0.0056938734 -0.003550001 -0.033231925 0.08694534 -0.30449462 0.015965622 0.11221708 0.07390717
-0.13964938 -0.042205885 0.012339723 -0.00870292 0.055898998 -0.12193854 -0.0051766224 -0.016285472
0.56132406 0.3269328 -0.41057482 0.21569073 0.30344996 0.1779446 -1.9765097 0.26275083
-1.1904538 0.37324086 0.41454756 0.4386033 0.124520525 0.18211718 -1.9192567 -0.0452839
2.6350956 -0.5557507 -0.1995023 -2.4447303 2.469751 -2.079947 2.9861016 -0.8714086
-0.45425323 -0.6637516 -1.4960504 -0.70016426
00000000: cbf3 e6bf ef52 b5bf db73 b840 de43 06c0
00000010: c392 b0bf 1485 67bf 633b 0f40 978a b8bf
00000020: f411 6040 d45e b0bf 93a5 dabf a295 eebf
00000030: cf6d 86bf c92d d7bf a56c 71bc 78aa 903d
00000040: 7666 afbe 8162 523c 9e83 c93d edbb a43d
00000050: d689 14be c6a4 c9bc 5526 ad3b 5272 583b
00000060: e8dd 4a3d e440 edbd 8708 ba3b 2bb4 75bc
00000070: 60cc 21c0 2144 1bc0 41e5 1b41 812b 77c0
00000080: f92c 14c0 dc52 92bf b0f0 0040 275a f6bf
00000090: 3f44 b140 0cab fdbf 8f80 33c0 d911 6cc0
000000a0: ae95 b0bf 5116 2ec0 a708 f8bf 68eb f3bf
000000b0: 53bc 0541 5781 46c0 0aa0 e7bf 859b 55bf
000000c0: d813 923e e889 bbbf e004 9940 1527 c1bf
000000d0: 2841 0cc0 2790 41c0 4069 85bf f26c 07c0
000000e0: 76e8 18c0 5327 8ebf de9c a540 f3cf a1bf
000000f0: bca3 8fbf 1563 12c0 c760 4840 7a72 13c0
00000100: accf 6340 87b4 c5bf a3a4 b4bf 7f85 78bf
00000110: be81 d7bf fa9f c4bf 5313 2dbd 05ee 9a3d
00000120: 9819 96be 7caf 8d3c 22a6 e83d c811 853d
00000130: 5dc1 0ebe d66f 55bd 3f7f c83c b52b e1bb
00000140: 7be5 6a3d 8e1a f6bd 8932 3ebc 23f3 e0bb
00000150: c985 a5bf 41cb 8fbe b16a 8c3f da9b 7fbe
00000160: 1d46 26be 1d6f 8cbf f599 2f40 115f a4bf
00000170: 9d5e 2840 c092 1bbf 99ef c8be 2e1e 18bf
00000180: ade1 40bf 2c33 f0be afd5 9dbe c8cf f2bd
00000190: 3087 e03e 71f2 b3bb 0358 02be 9c17 afbe
000001a0: 5bef ab3e 0332 bfbe 5341 ee3e a764 5ebe
000001b0: 1acb 03be 0b7d 9bbd 4771 91be ce1e 98bd
000001c0: 3d05 e9bf 2797 d1bf c7b2 c940 8fc4 1ec0
000001d0: 9185 c9bf b4e2 52bf 0831 0440 56e6 b2bf
000001e0: 87ca 6a40 9e1b b6bf 0abc f6bf bc7f 12c0
000001f0: 79eb 80bf 9747 efbf 70c8 75be dfbc c83d
00000200: 4205 993e 4300 abb8 8854 e93d a715 84be
00000210: c4f0 573d 5a32 94be 6fc4 a93e 6107 14be
00000220: f169 6b3c b46c fabd 7a56 49be e780 babd
00000230: da23 cfbc 133a 913d 6601 a0be 400c 6c3c
00000240: 2c9f d33d 2bc1 923d 2dad 12be 983b 18bd
00000250: d2ca 433c 1be8 b6bb 5c81 603d ab09 f1bd
00000260: ac93 babb 22a7 68bb 331e 08bd 6610 b23d
00000270: b8e6 9bbe 56ca 823c 12d2 e53d a45c 973d
00000280: 3f00 0fbe 14e0 2cbd 8d2c 4a3c b196 0ebc
00000290: 59f6 643d eaba f9bd a8a0 a9bb 1c69 85bc
000002a0: efb2 0f3f bc63 a73e dd36 d2be 08de 5c3e
000002b0: cb5d 9b3e 1c37 363e 45fe fcbf 4787 863e
000002c0: ca60 98bf 6d19 bf3e 943f d43e 9d90 e03e
000002d0: 9e04 ff3d ed7c 3a3e 34aa f5bf 9c7b 39bd
000002e0: 68a5 2840 ae45 0ebf 554a 4cbe 7676 1cc0
000002f0: 6610 1e40 da1d 05c0 4a1c 3f40 a214 5fbf
00000300: e193 e8be a0eb 29bf 947e bfbf f73d 33bf

regressor.4.bias f4 [14]
0.6919974 0.13245127 2.1200678 1.5492309 0.8168265 0.11684247 -0.16785209 0.021600006
0.9451019 0.129696 0.12140103 0.12848692 0.38757926 -0.02200931
00000000: be26 313f 4ea1 073e 31af 0740 334d c63f
00000010: 8b1b 513f 1b4b ef3d 6be1 2bbe 7ff2 b03c
00000020: 33f2 713f 07cf 043e 1aa1 f83d 1392 033e
00000030: ca70 c63e de4c b4bc

regressor.6.weight f4 [1, 14]
8.906741 0.7844338 14.439283 11.766412 9.045596 0.7810505 0.8826284 1.3303146
9.625631 1.0236071 0.77036303 0.7817369 -0.09415247 4.53488
00000000: 0382 0e41 a7d0 483f 4e07 6741 3943 3c41
00000010: c3ba 1041 edf2 473f eff3 613f c047 aa3f
00000020: 9602 1a41 8f05 833f 8336 453f e91f 483f
00000030: 03d3 c0bd bd1d 9140
