saved-networks/FourLayerNet_V5-2020_09_29-19_18_17.pth (torch_old, 1610 bytes, 7 tensors)

regressor.0.weight f4 [4, 1]
0	0xb904f928	-0.00012681319
1	0xbb2574d2	-0.0025246632
2	0x1d850cc5	3.521801e-21
3	0x3f2c0c06	0.67205846

regressor.0.bias f4 [4]
0	0x38b27c4e	8.510855e-05
1	0xbaa2525a	-0.0012384162
2	0x1c95532e	9.881494e-22
3	0x3e181136	0.14850315

regressor.2.weight f4 [2, 4]
0	0xb3510812	-4.8668944e-08
1	0x34cdf048	3.8359053e-07
2	0x9720073c	-5.170792e-25
3	0xb32378ba	-3.8061195e-08
4	0x38fcb8b2	0.000120506986
5	0x3b30d641	0.0026983174
6	0x9e9be452	-1.6505694e-20
7	0x3f294907	0.66127056

regressor.2.bias f4 [2]
0	0xb54d0645	-7.6377574e-07
1	0x3e45404f	0.19262813

regressor.4.weight f4 [2, 2]
0	0xb65be30b	-3.27657e-06
1	0xbebbeb40	-0.3670292
2	0xb65be30b	-3.27657e-06
3	0xbebbeb40	-0.3670292

regressor.4.bias f4 [2]
0	0xbe04c221	-0.1296468
1	0xbe04c221	-0.1296468

regressor.6.weight f4 [1, 2]
0	0xc0b00e2c	-5.50173
1	0xc0b00e2c	-5.50173
