saved-networks/FourLayerNet_V5-2020_09_29-18_57_00.pth (torch_old, 1610 bytes, 7 tensors)

regressor.0.weight f4 [4, 1]
00000000: 9eae a33f 75bf 98bf 0c8d 8cbf f1f9 7fbf
1.2787664 -1.1933428 -1.0980544 -0.99990755

regressor.0.bias f4 [4]
00000000: 06e7 0ebf 9324 ba40 4f8a a540 c085 9040
-0.55821264 5.8169646 5.1731334 4.516327

regressor.2.weight f4 [2, 4]
00000000: a7d2 2e40 12f7 f5bf 3f91 ffbf b65e e7bf
00000010: 9440 443f dfb7 48c1 c895 54c1 ff04 6ac1
2.7316072 -1.9216025 -1.99662 -1.8075778 0.7666104 -12.54489 -13.286568 -14.62622

regressor.2.bias f4 [2]
00000000: c27b 95be e451 6740
-0.29195982 3.6143732

regressor.4.weight f4 [2, 2]
00000000: 67c4 23c1 c4be cc41 59f0 eabe 3b06 9f40
-10.23545 25.593147 -0.45886496 4.9695106

regressor.4.bias f4 [2]
00000000: ffc2 993f 7093 2140
1.2012633 2.5246239

regressor.6.weight f4 [1, 2]
00000000: e10f eb41 4516 0141
29.382753 8.067937
