saved-networks/FourLayerNet_V5-2020_09_29-19_25_00.pth (torch_old, 1610 bytes, 7 tensors)

regressor.0.weight f4 [4, 1]
0	0x406671a6	3.6006866
1	0xbfa5278d	-1.2902695
2	0xbf3bab18	-0.73307943
3	0x402a49fa	2.6607652

regressor.0.bias f4 [4]
0	0xc185f7a6	-16.745922
1	0x3febddfd	1.842712
2	0xbee77d11	-0.45212606
3	0xc0e1d1a7	-7.0568423

regressor.2.weight f4 [2, 4]
0	0xbf11e007	-0.56982464
1	0x3fd4de01	1.663025
2	0x3f0d3c20	0.5516987
3	0x3fe66149	1.7998439
4	0x410e02f3	8.87572
5	0x401bb4bb	2.432906
6	0x3fcea91d	1.6145359
7	0x3fbe2faa	1.4858296

regressor.2.bias f4 [2]
0	0xbfaa80c6	-1.3320549
1	0xc08f13ac	-4.4711514

regressor.4.weight f4 [2, 2]
0	0xbedb634f	-0.42849204
1	0x410077a5	8.02921
2	0xc04c211d	-3.189521
3	0x41224061	10.1407175

regressor.4.bias f4 [2]
0	0x404cdbd4	3.2009172
1	0x40a052c5	5.0101037

regressor.6.weight f4 [1, 2]
0	0x4101907f	8.097777
1	0x4134f0f7	11.308829
