saved-networks/FourLayerNet_V2.pth (torch_old, 87509 bytes, 7 tensors)

regressor.0.weight f4 [100, 11]
00000000: 8f44 b140 72de 6b40 6da0 113f 617b ff3c
00000010: 50f8 fe3d 5295 033e c616 33c0 fe6a 8140
00000020: 85f6 fcc0 53c9 96bf dda5 b0bf 496d 8940
00000030: 7ae1 eb40 62f8 94bc b11a 0fbf e6e6 14bf
00000040: 265e 93c0 9966 c3c0 fd15 bb40 0cb5 4741
00000050: df8c e1bf 420d b3c0 e32a fac0 5c51 9fc0
00000060: 8d21 8940 a19d b7c0 fb7a f0bf 3756 c0c0
00000070: 203e e43e 850a 2240 da4e ecbf 5fb2 02c1
00000080: 6266 293e 001a b340 8bb4 9a40 4687 d23f
00000090: f42d a6be 945b 9fc0 a4a9 eabd 6421 a9be
000000a0: b1bb d43f 4efb d2c0 af08 b7c0 748c b0c0
000000b0: c062 73bf 7a65 ef40 48a9 f93f 218c 72be
000000c0: 73b3 c6bd 6710 a83f 28c8 0741 c553 0bc0
000000d0: 2ad0 0ec1 4e9d 86be 7dac bf40 64c4 6ec0
000000e0: 7cba 16c1 efd4 b73f f024 bc3f 0762 0c3f
000000f0: 9388 bc3e 38a3 d4c0 239d b73f d3a7 20c1
00000100: b636 24bf 2f84 8fc0 d599 5140 a5dc 3f41
00000110: a080 753e a01d 3fbe 718f 29bf 92df ec3f
00000120: 85f5 553d 580d f6bf 6b8a 22c1 fb79 313f
00000130: 331f 73bf fb08 b13f 8e42 9b3f 4bad f93f
00000140: 4e07 d5bf 3d2a 963d 9b44 09bf 7b27 d4c0
00000150: 3a11 3240 14db 6ec1 8379 e7bf ba66 f6c0
00000160: d47b 3d40 2804 1640 6c10 2ebe 859e 29bf
00000170: 60de 04bf 5570 63be 840d e23f 5d04 84c1
00000180: af24 bec0 6ebb 89bf 34df 633d 346e 9040
00000190: 1e9a 5540 224c 603f 0a73 0a40 a8e7 1fbf
000001a0: e508 433f 6e4d 0cc1 d5dc 2dbf 8e32 8ac0
000001b0: 64b9 a3bf bd36 54c1 8020 cbc0 d489 1a40
000001c0: 823d 1040 e9f9 46c0 51f6 e93e b842 9bc0
000001d0: 2456 46c0 21a4 6541 b986 ea40 131d 71c0
000001e0: 14a9 dbbf 423c 5441 b1d1 8a3f b788 2841
000001f0: d2dc 3240 5366 193f 4c00 84c0 5cf2 a9c0
00000200: 2662 c13e bf87 adbd 73ea d4bf 79c0 fcbe
00000210: 59ea 9a3d ec45 bebe 468c dfbe dab3 113f
00000220: 47b4 91be 8fad 6ebf 91c6 b9bf 1e5f 9cc0
00000230: 4f32 f9c1 6d33 13c0 c1ca 92bf d522 fac0
00000240: d22c 02c0 e18a 1a40 94c5 1dc1 10f7 0a3d
00000250: 13a9 93bf 3dd8 8ec0 549c 453a 3e07 c040
00000260: 62d3 473f 782c ddbf 2114 8840 c98c ae40
00000270: 901e 8a40 08d9 0cbf 19c8 3fbf 3c32 f940
00000280: d065 c940 8eb6 4a40 d5ee 5bc0 d95f c7c0
00000290: b87c 08c1 75fd 1c41 d112 86c0 57bc 30c1
000002a0: 2675 283d 5f28 27bf 84c3 f33d be31 85bf
000002b0: 94a9 cd3f 7ceb c33f 89c3 113f 7a00 c3be
000002c0: b514 88be 50e8 7fc0 91a9 163f fcaa bdbf
000002d0: 7b42 ecc0 4101 01c1 8b58 a2c0 c4e1 9240
000002e0: 75f8 df3f e06e ecbf b848 98be e8b3 7f41
000002f0: 7f2b 453f 0bb8 0fc0 67df a5c0 116b 6e40
00000300: 4f33 3040 c744 3dc0 17b1 3440 d287 2ec1
00000310: bde1 3440 1164 1cc0 9773 2341 cada 8740
00000320: 6b4c 07c0 7a66 8d3f f211 f63e b639 c1be
00000330: 9d2c 17c0 4466 f3c0 72ea 3ac1 5f25 d3bf
00000340: e416 32c0 8c2f 8841 a94d 4bc0 abdf a640
00000350: 359a 033e 888f 2abf 43ca f63f d093 49bf
00000360: 8f7d 0040 c877 c13f 7dbf 2540 9003 3e3f
00000370: d889 a240 5f56 9340 0f6c c740 8820 b4bf
00000380: de41 633d 112d 2140 bae9 17c0 0ca7 2fc1
00000390: b515 37c0 164b 4240 594d 66c0 398d 0f41
000003a0: 6ab3 5741 beeb bcbe 7927 223f aec6 a4be
000003b0: 9217 d03f a222 58be 06e2 3ac0 b7bb e73f
000003c0: 4cd5 d43f bf15 fdbf da8d c040 265f c43f
000003d0: d753 a840 7fe7 ed3f c7a3 3d40 f9f5 1540
000003e0: 39a8 7fc0 0500 bc3e 8287 3dc1 1015 6740
000003f0: 070b 46c0 3417 4841 f2a4 793f 0210 3e40
5.539619 3.685452 0.56885415 0.031186761 0.124497056 0.1284993 -2.798265 4.0443106
-7.9050927 -1.1780189 -1.3800617 4.2945905 7.371274 -0.018184844 -0.559001 -0.58164823
-4.6052427 -6.106274 5.846434 12.481701 -1.7621115 -5.5953684 -7.817735 -4.9786816
4.2853456 -5.737992 -1.8787531 -6.0105243 0.44578648 2.531892 -1.8461564 -8.168548
0.16542962 5.596924 4.834539 1.6447532 -0.32456934 -4.979929 -0.11458138 -0.33033288
1.6619779 -6.593177 -5.71981 -5.517145 -0.95072556 7.4811373 1.9504786 -0.23686267
-0.09702196 1.3130006 8.486366 -2.176988 -8.925821 -0.2629189 5.9898057 -3.7307367
-9.420528 1.4361857 1.4698772 0.5483708 0.36822948 -6.644924 1.4344829 -10.040973
-0.6414598 -4.4848857 3.2750142 11.991368 0.23974848 -0.18663645 -0.662345 1.8505728
0.0522361 -1.9222822 -10.158793 0.6932675 -0.9496948 1.3830866 1.2129686 1.950601
-1.6642854 0.07332275 -0.5362031 -6.6298194 2.7823014 -14.928486 -1.8083957 -7.70004
2.9606829 2.3440037 -0.16998452 -0.66257507 -0.5190182 -0.2221082 1.7660375 -16.50213
-5.941978 -1.0760324 0.055632785 4.5134525 3.3375316 0.8761617 2.1632714 -0.62462854
0.76185447 -8.768904 -0.6791509 -4.318671 -1.2790952 -13.263364 -6.3477173 2.4146624
2.2537541 -3.1090033 0.45695737 -4.8518944 -3.0990076 14.352571 7.3289456 -3.7673995
-1.7160974 13.264711 1.0845243 10.533378 2.7947278 0.5992176 -4.1250362 -5.310835
0.37770194 -0.08473157 -1.6634048 -0.49365595 0.075642295 -0.3716272 -0.43661708 0.56915057
-0.28457853 -0.9323358 -1.4513723 -4.886611 -31.149565 -2.3000138 -1.1468126 -7.816752
-2.0339856 2.4147265 -9.860737 0.033927023 -1.1535972 -4.4638963 0.00075382483 6.000884
0.7805692 -1.7279196 4.252457 5.4546857 4.316231 -0.55018663 -0.749147 7.787382
6.2936783 3.1673923 -3.4364522 -6.23045 -8.530449 9.811879 -4.189797 -11.045981
0.041127346 -0.65295976 0.11902526 -1.0405805 1.6067376 1.5306239 0.5693899 -0.380863
-0.26578298 -3.9985542 0.5885249 -1.4817805 -7.3831153 -8.062806 -5.0733085 4.5900593
1.7497698 -1.8471336 -0.2974298 15.981422 0.77019495 -2.245608 -5.183521 3.7252848
2.7531316 -2.9573228 2.8233087 -10.908159 2.826278 -2.4436076 10.21572 4.2454576
-2.1140392 1.1046898 0.48060566 -0.37739342 -2.362098 -7.6062336 -11.682238 -1.649578
-2.7826471 17.023216 -3.176615 5.214803 0.12851794 -0.6662526 1.9280475 -0.7874117
2.0076635 1.5114679 2.5898125 0.74224186 5.0793266 4.6042933 6.2319407 -1.4072428
0.055482738 2.5183756 -2.3736405 -10.978283 -2.8607 3.035833 -3.598471 8.971978
13.481302 -0.36898607 0.6334148 -0.3218283 1.6257193 -0.21106961 -2.9200454 1.8104161
1.6627593 -1.9772261 6.017316 1.5341537 5.2602344 1.8586272 2.9631212 2.343138
-3.9946425 0.36718765 -11.845583 3.6106606 -3.094423 12.505665 0.9751731 2.969727

regressor.0.bias f4 [100]
00000000: f253 0341 f729 643f 4b55 c7c0 011a 12bf
00000010: 3d11 0d3f 31b6 51c0 15cb c5c0 c6c1 5bc0
00000020: 4a38 90c0 aa59 1640 576f 12c1 f49c e33d
00000030: db91 3740 7d78 17c0 96da a5be b3a0 1fc1
00000040: 1b85 013e f3c4 7d3f 45f7 fdbf 0e61 2fc1
00000050: da56 6e3e 570f 7d40 a798 9cc0 61fa 4140
00000060: 7d7a 8cc0 3bf7 a640 2170 acc0 3bc1 5dc0
00000070: 42f1 03c1 e9d3 47c0 7d66 80c0 ae56 d2c0
00000080: 9d80 d03f 7310 08c1 65cd 30c1 81ed a4c0
00000090: 3d4c a1c0 a401 9ec0 cddc 63bf 5f7a 9cc0
000000a0: 5db9 a7be a7e6 11c0 30c2 d0c0 c6a4 53c0
000000b0: d916 4ec1 6296 56c0 a6f2 b9c0 aff4 7cbf
000000c0: b908 8340 274e 16c1 dbb0 62c0 51a1 a3bf
000000d0: f82f c5c0 34ff 403f 9d86 14c0 ff76 f5c0
000000e0: 8ab1 db40 9487 cdc0 7f11 a740 806d 343f
000000f0: 7471 f740 3138 1cbf 577e 4c40 13f0 06c1
00000100: 9f60 9cbd 06f0 afc0 416d 9a3f dc43 abc0
00000110: acb5 cbbf fda8 0bc1 4704 13c1 dd7f a6c0
00000120: cdcb b4c0 0760 5f3d 97da 1141 df1c cbbf
00000130: 003f f440 a985 34c0 930f c0bf 83ad ca3f
00000140: f205 ddc0 bc8a 0fc1 70ab 81c0 9407 9ec0
00000150: fca8 a7c0 ce16 5240 536f 04c1 e292 a1bf
00000160: 4f5c ddc0 8a17 8140 5cd2 e9c0 2c5a 96c0
00000170: 1b74 80c0 da5e c2c0 123c 0cc1 2ed2 bebf
00000180: 222f c440 ba8a ad40 0845 a0bf 98f1 9140
8.207994 0.89126533 -6.2291617 -0.5707093 0.5510443 -3.276745 -6.1810403 -3.433702
-4.506871 2.3492227 -9.152183 0.11113921 2.8682773 -2.366729 -0.3239333 -9.976733
0.12648432 0.99128646 -1.9841086 -10.961195 0.23275319 3.9540613 -4.8936343 3.030907
-4.389952 5.2176795 -5.3886876 -3.4649189 -8.246401 -3.122309 -4.012511 -6.573081
1.628925 -8.504016 -11.050145 -5.153992 -5.0405564 -4.9377003 -0.8900879 -4.889938
-0.32758608 -2.279703 -6.5237045 -3.306932 -12.880578 -3.3529286 -5.81087 -0.9881086
4.094815 -9.39408 -3.5420444 -1.2783605 -6.1621056 0.7538941 -2.3207161 -7.670776
6.8654222 -6.4228 5.2208858 0.70479584 7.7325993 -0.6102324 3.1952112 -8.433612
-0.076356165 -5.4980497 1.2064592 -5.3520336 -1.5914817 -8.728757 -9.188544 -5.2031083
-5.649878 0.05453494 9.115867 -1.5868186 7.6326904 -2.820658 -1.5004753 1.5834202
-6.9069757 -8.971371 -4.0521774 -4.938425 -5.239378 3.282642 -8.277179 -1.262295
-6.917518 4.0341234 -7.3069286 -4.6985073 -4.014173 -6.0740786 -8.764666 -1.4907892
6.1307535 5.4231844 -1.2521067 4.5607414

regressor.2.weight f4 [100, 100]
00000000: 5f6a 2bc0 a1af 01bf 7685 ce40 38e5 adc0
00000010: 24ff 903e 3974 b440 b5bc 78c0 fc2d 1441
00000020: 76c9 cbc0 15fd d33f ea5e 8340 a0c6 a4bf
00000030: eb61 a53f e65d 453f c30c 1141 95e1 0741
00000040: 83bb a7c0 f4d3 20c0 7040 91bf 7ae4 1041
00000050: ad95 c140 e519 d73e c5e8 f540 bb0e 6240
00000060: 429a aa40 24be cdc0 289a 1a41 0f1b be40
00000070: 7eb2 acc0 5a7b 8340 c502 7d40 673d d23f
00000080: 12bd 3e3f 2ffd a53f 6c71 bf40 7e76 2cc0
00000090: 4d11 0b40 2c04 d7c0 9d4b cfc0 c669 0a41
000000a0: 4b12 0dc1 fd40 c740 b679 c0c0 938d 7ec0
000000b0: 0176 a740 c6f0 bac0 a97b 08c0 fc8b 1341
000000c0: b9de 6540 ddb0 1041 4705 bac0 16ef 93c0
000000d0: 129f c1bf 2e55 68c0 cab1 3441 8b1c 3f3f
000000e0: 0fb8 b9be 8dc8 3641 3d42 cf3d d463 4b40
000000f0: 8326 e0c0 1c16 e53f 4682 8bbf 4ddf 0141
00000100: a45c 2640 9d3e 91be c96c a8c0 b928 1541
00000110: a6ec f83f df14 8240 e129 adc0 eedf 6940
00000120: f975 2c40 f672 46c0 eb2f 003f e3ab 1b41
00000130: eb28 ccc0 8aa3 c740 87a4 9340 10b3 c740
00000140: 50ed 13c0 c8fc 8340 96ed 6140 816c 6ac1
00000150: 32f2 06c1 4d71 d040 7f5a 92bf 6ded 6a40
00000160: 0c9e 9a40 b0ba 90c0 d6c9 a1bf f725 c73f
00000170: 7c9c 943c 9621 ae40 9ed1 893e 3576 a7be
00000180: cfdd bfbf 3dcf 9dc0 287a a240 bcb6 ba3e
00000190: f7d3 08c1 cb94 0441 4e51 d7c0 6a30 1d40
000001a0: 0709 e5c0 5345 08c1 b567 8340 8269 0cc0
000001b0: 579a 0f41 d93d 5ac0 887c e73e b224 90c0
000001c0: a28c 5fc0 4be1 ed3f d25d dfbf 01a7 e33f
000001d0: 07ae 1bc0 7077 7cc1 bd96 6ebe 5aef 87c1
000001e0: 6e6c 9e41 2df7 0540 5d7f 9c41 44c7 12c1
000001f0: b98d 1b40 2399 b4be 2178 f6c0 6213 b1bf
00000200: a9b1 8641 4531 d9c1 15a0 3141 3cdc e840
00000210: f3f1 75c0 7f45 0a40 c6e0 af40 22d5 4040
00000220: 783b 79bf 965f 4640 7c75 b340 9465 1ec1
00000230: d6a9 613f b379 06c2 1239 823f e117 b640
00000240: 22ba e140 494f 9540 2b22 3e40 c5ac b440
00000250: c392 7abf 2560 e03f 984d 04c1 92a1 67c0
00000260: 71ac 6f40 04a9 08c1 2b31 b140 43af 1fc0
00000270: c95c 5ac1 f2fe bb40 ea0f 76c1 a4eb 84c0
00000280: 38f4 ecbe 8a3f 93bf 4b3d 26c1 6283 7cbe
00000290: 9dec cd40 9608 2a40 4696 923f c07e 703f
000002a0: 2f53 2840 0d3e a5c0 be9b 4d40 d6fd 11c0
000002b0: f1d2 6e40 5f16 4940 a75d 6ec1 aa76 1340
000002c0: 39e0 b8bf f7b1 b440 9cd8 3dc0 a356 0140
000002d0: 7d4b 6abf cfcf 8f40 eeee 87bf c525 4840
000002e0: 7a07 57c1 42e1 5840 c587 5b40 d25c a43f
000002f0: 9f9d 4341 f31b 2d40 2512 c7c0 de44 04c1
00000300: 5327 9bbf 1227 bebf 4730 2bc1 5db5 c9bd
00000310: e9a0 57c0 754f 1b40 630c 15bf 9658 2fc1
00000320: ed0c 9dbf 9933 1d3f 49c9 1140 8d13 17c1
00000330: 5a03 af3f 6049 70c0 f669 75c0 1bbd d63f
00000340: 4525 87c0 cc79 ea3f 84b4 2d3e dc84 0cc1
00000350: 334a 46c0 c62a 35bf 7f09 5541 ecbd 8cc0
00000360: efcb 5ec0 9d00 e0bf b165 bdc0 37c5 8b40
00000370: ebfa 8c3f e27f 5040 7d5e c340 039b 0040
00000380: 01b0 a0bf a910 1cbf 4e20 0941 b7da 193f
00000390: 4dc3 76c1 ab52 0cc0 a8ec c340 66e6 0040
000003a0: 085c 56c1 950c 12c0 bb5c ddbf 6dbe 3140
000003b0: 579c 33c0 9dbe b8c0 a0a7 d73f 4f7c b8c1
000003c0: ae69 3a40 5914 0341 0f4a 9ec0 3390 44c1
000003d0: 3c34 0fc1 8d18 9bc0 e192 1bbf 0fcb 8640
000003e0: 03c4 4bc0 0bd7 70c0 083c fb40 0847 15bf
000003f0: 0061 b140 f92c 43c1 ca1b 96bf 1496 efc0
-2.6783674 -0.50658613 6.4537916 -5.434231 0.28319657 5.6391873 -3.8865178 9.261227
-6.3683424 1.656161 4.105336 -1.2873116 1.2920507 0.770964 9.065616 8.492574
-5.2416396 -2.5129366 -1.134779 9.05578 6.049521 0.42011943 7.6846642 3.532149
5.3313303 -6.4294605 9.662636 5.940803 -5.3967886 4.1088076 3.953294 1.6424989
0.7450725 1.296789 5.9825954 -2.6947322 2.172931 -6.7192593 -6.47798 8.650824
-8.816966 6.226683 -6.0148573 -3.977391 5.233155 -5.8418913 -2.1325476 9.221676
3.591719 9.0431795 -5.813144 -4.6229353 -1.512667 -3.630199 11.293406 0.7465293
-0.36273238 11.423963 0.10120056 3.177968 -7.004701 1.7897372 -1.0899131 8.117017
2.5994043 -0.28368083 -5.2632794 9.322442 1.9447219 4.0650477 -5.411362 3.6542926
2.6947005 -3.1007667 0.50073117 9.729465 -6.379995 6.2387133 4.613834 6.240608
-2.3113594 4.124607 3.530126 -14.65149 -8.43413 6.5138307 -1.1433867 3.6707413
4.831793 -4.522789 -1.263972 1.5558461 0.018141024 5.4416 0.26917738 -0.32707372
-1.4989566 -4.9315476 5.0774117 0.3646754 -8.551749 8.286326 -6.728675 2.45608
-7.157352 -8.516925 4.1064095 -2.1939397 8.975181 -3.410025 0.45212197 -4.5044794
-3.4929585 1.8584379 -1.7450507 1.778534 -2.4324968 -15.77916 -0.2329969 -16.99187
19.802944 2.0932114 19.56219 -9.173649 2.430525 -0.35273084 -7.702164 -1.383404
16.836748 -27.149057 11.101583 7.276884 -3.8428924 2.1604917 5.496188 3.0130086
-0.9735637 3.099584 5.6080914 -9.899799 0.88149774 -33.618847 1.0173666 5.690415
7.0539713 4.6659284 2.9708354 5.64609 -0.9788019 1.7529341 -8.268944 -3.6192365
3.7449 -8.541264 5.537252 -2.4950721 -13.647653 5.8748713 -15.378885 -4.1537647
-0.46280074 -1.1503766 -10.389964 -0.24659494 6.4351335 2.656774 1.145211 0.93943405
2.6300771 -5.1638246 3.2126307 -2.281118 3.7316248 3.1419904 -14.897864 2.3041177
-1.4443427 5.646724 -2.9663458 2.020913 -0.91521436 4.4941173 -1.061979 3.1273053
-13.439325 3.3887486 3.4301617 1.2840827 12.225982 2.704831 -6.220965 -8.266813
-1.2121376 -1.4855673 -10.699286 -0.098490454 -3.3691962 2.4267247 -0.58222026 -10.959127
-1.226957 0.61406857 2.2779105 -9.442273 1.3672898 -3.7544785 -3.8345923 1.677646
-4.2232995 1.831842 0.16963392 -8.782436 -3.0982788 -0.7076839 13.314818 -4.398184
-3.481197 -1.7500187 -5.9186635 4.367824 1.1014074 3.2578053 6.105284 2.0094612
-1.2553712 -0.6096292 8.570387 0.6009936 -15.422681 -2.1925457 6.1226387 2.0140624
-13.397469 -2.282018 -1.7293924 2.7772477 -2.8064172 -5.773268 1.684803 -23.060698
2.9127002 8.192468 -4.9465404 -12.285205 -8.950253 -4.846747 -0.60770994 4.2122874
-3.1838386 -3.7631252 7.851078 -0.5831151 5.543091 -12.19848 -1.172723 -7.48707

regressor.2.bias f4 [100]
00000000: 8817 6ac1 fa38 97c0 0696 0c41 0e00 59be
00000010: bd5b 8bc1 6001 9e40 f132 6940 fff5 bebe
00000020: c900 3e40 05ed ccbf 90a9 ad40 4bed 70c1
00000030: 8953 84c1 f80b b9c0 36cb 0441 8f8f 0341
00000040: 7675 51bf 8402 55c0 bb32 28c0 b13f 54c1
00000050: 97a7 923f 019d 7040 cb35 dfbe 809d e640
00000060: 8907 e440 4b7c a0c0 5d01 a940 3023 4f41
00000070: 6f84 18c1 97c2 e43f 5c06 0341 de42 663f
00000080: c82c 10bf daf8 afc0 1217 763f 2938 8940
00000090: 71a6 08c1 5a61 35c1 3c16 e2be fc00 c3c0
000000a0: f6da 4abe aaf7 e2c0 c975 173f 7bdb 26c0
000000b0: c4d4 cec0 5a4f 3440 2c0c 1941 bcd9 5640
000000c0: d89f 19c1 4c33 95c0 a1bc f8bf 7e7b cdc0
000000d0: 50d7 6bc0 931e b540 671a 9fbf 5779 28c0
000000e0: 482c 2cc0 8664 5e41 5efa 1440 aef9 a93f
000000f0: aa09 a93c b706 20c0 6571 18c0 1d95 7e40
00000100: e95d 3ac1 d963 0bc0 750d 30c0 05bd ee3f
00000110: e966 1fc0 a575 a9c0 d6f8 f0c0 c974 e4c0
00000120: c879 23c1 869e d8c0 5df6 2c41 c511 54c1
00000130: b545 d1bf 8eb2 0dc0 e1a3 d1bf e623 c540
00000140: fcbf 0840 1c96 1741 a56a 1dc1 2291 59bf
00000150: 27f4 ffc0 357e b7c0 b418 34c0 85b4 95c0
00000160: 0db5 13c1 7705 873d a152 4b3f c537 2441
00000170: e12a cfc0 bdc4 0dc1 2588 df40 d20b 60c0
00000180: 735c 57c0 768d 17c1 fb2e 1941 4235 3dc0
-14.630745 -4.725705 8.786627 -0.21191427 -17.419794 4.937668 3.6437342 -0.37297055
2.968798 -1.6009833 5.4269485 -15.057933 -16.540789 -5.782711 8.299612 8.2225485
-0.81819856 -3.3282785 -2.6280963 -13.26555 1.1457394 3.7595828 -0.43595728 7.206726
7.12592 -5.0151725 5.2814164 12.946091 -9.532332 1.7871884 8.189053 0.8994578
-0.5631833 -5.4991274 0.9612895 4.2881055 -8.540635 -11.336267 -0.44157588 -6.09387
-0.1981009 -7.0927324 0.591641 -2.607146 -6.4634724 2.8173432 9.565472 3.3570395
-9.601524 -4.662512 -1.9432565 -6.4213247 -3.6850166 5.659982 -1.2429932 -2.632406
-2.6902027 13.899542 2.3277812 1.3279321 0.020634491 -2.5004098 -2.381921 3.9778512
-11.647927 -2.1779692 -2.7508214 1.8651434 -2.4906561 -5.295611 -7.5303755 -7.139256
-10.217232 -6.769351 10.810147 -13.254338 -1.6349398 -2.214023 -1.6378137 6.160632
2.1367178 9.474148 -9.838536 -0.8498708 -7.9985538 -5.734156 -2.8140078 -4.678286
-9.231702 0.06592839 0.79422957 10.263616 -6.4739842 -8.860532 6.985369 -3.5007215
-3.3650177 -9.472036 9.57397 -2.9563756

regressor.4.weight f4 [100, 100]
00000000: f592 8fc0 06fd 08c2 d704 dac0 a04b 5540
00000010: 414d b9bf dd18 ecbd e5e0 88c1 d0f9 cabe
00000020: 20f5 17c1 2e17 dd3f bbb9 a640 a2ab 7340
00000030: 8c03 97c1 7d12 42bd f4a7 c0c0 99f2 e0bf
00000040: 65b5 3e3e 971d 05c2 3a19 dec0 bdf3 2141
00000050: f739 75be b100 b240 68a0 5d40 1e8e 18c1
00000060: 4898 57bf a63c 5ac1 ff1d 3abf 6da2 a5c0
00000070: 4aa4 3041 b4a2 e43f 573b 46c0 ef29 f6bf
00000080: 52d7 9940 614d 0841 68bd 1340 c12b f2c1
00000090: 839c 0541 fb2a 4e42 5239 8dbf de29 dabf
000000a0: c6bc 5541 83f8 ddc0 0924 abc1 dd6d 1fc1
000000b0: a65a 8040 40dd debf bf97 9640 7cb6 cf3f
000000c0: 0cbe db40 444f e4bf 8603 ab3e 211f 7ac1
000000d0: c070 0842 a696 b73f 454b 83bf 5fc8 693f
000000e0: 93a0 6dc1 c865 d340 9d4b 41c1 d8c7 fa40
000000f0: 9010 e6bf ba93 913e e36a 0741 af02 0d3f
00000100: 8b98 4e42 2380 253f 8f83 ae41 8f9d 19c1
00000110: 2568 3ac1 163e 84c1 b184 22c1 22f1 14bf
00000120: 3687 29c0 b901 dd40 2a80 bcc0 0b21 4641
00000130: 7ac7 8641 a64b bbbf 5bb8 6e41 2b4e 8540
00000140: 2a94 37c0 6fec e13f 858b c63f 87c6 c03f
00000150: e052 b5c0 a0f9 a6c0 b5a9 1ec1 4361 ebc0
00000160: cad9 2842 79bc 8dbf 76f3 b240 47a1 65c0
00000170: 757f 23c0 3bec 9a3e 3b8d 2941 f407 c140
00000180: 2d8f 2e41 bb0c e83f 5fdd ebbf 5f93 dfbf
00000190: 8b2f b6be be13 e83d 9680 98be f722 9abc
000001a0: c4c7 5abd 962f d9be b28f e7bd c577 b5be
000001b0: b0d4 1cbc 3c2e 27bc a9ae 883b 3bcf 4ebe
000001c0: 4a6f d9bd 9027 28bd 93a3 e3be 6ce4 a5bd
000001d0: f99c eebd 2f0d 28bd a6d8 4a3e 19ab 5fbe
000001e0: 4643 c1be 3dca 35be 603b 13be 4add 86be
000001f0: 3138 5cbd cf82 173e ef93 bfbd 5c9d d0be
00000200: f58e 433e afc8 3dbe e163 6ebd ae47 96be
00000210: de5f 41be 5fc3 613d 571c 89bd dc1d 21be
00000220: a600 443e 9547 033e fdc2 37be 1321 523e
00000230: e43e 84be 9fcd 67be 8e0b ab3c edfe 93bb
00000240: e4f2 e6bc 754a ec3d f325 df3d 26c6 11be
00000250: cdce 01be cded 73bd fdb2 063e a1e2 fc3d
00000260: f300 21bd 663b 50be 36be c2be e8ae 993d
00000270: e2a7 d7be b69c 433e e5f2 bcbe 2d79 9ebc
00000280: 2aa0 1c3d 5cd5 b5bd 7c2c bfbd 1908 46bc
00000290: 09db 58bd e0d4 8cbd a3b1 c5bd 1bea 04be
000002a0: 9ca0 0a3e 9ec9 3f3e d498 2cbe 955f 1e3e
000002b0: 9821 1cbe 2372 01be 8453 99be a1fc 383d
000002c0: cb9f 913d 696e abbc fb79 09be 2d8a 7fbe
000002d0: 77aa 54be d9d6 173e 6499 7f3d 40fe 4ebe
000002e0: d1ef 81be 4075 c23c ebeb 10bd b319 86be
000002f0: 3c54 0dbe 70a0 ad3c cfa1 4ebe 13d4 c7be
00000300: 14f0 a13b 8a33 9fbd fe66 353e 5965 1e3e
00000310: 8210 483e 45e5 81be 4a27 b4be d3f9 75be
00000320: 1e8f 1340 4a93 aac1 8e90 febe 9d28 0941
00000330: 7278 8cc1 8971 1941 b8c6 973f 9218 4e40
00000340: 6f6a ca40 f6cc 103e 8c6f d23f abe2 40c0
00000350: 6b75 2040 de74 b741 e2b2 8440 7991 ffbf
00000360: 79a3 7dc1 f85d 0740 0cbf 9abf 4275 2ac0
00000370: 590e ab3f b604 1fbd b6d6 5441 92c0 9040
00000380: 8f50 423f cf8e 073f 30a2 dcc0 46d2 9cbf
00000390: 6ac7 c541 4d1d c640 f98e 68c0 e7a8 2bc2
000003a0: 42e1 09c0 d003 74bf a77d e03f bcae 52c1
000003b0: d439 4e42 9494 1b43 55ed d43d f7ff eabf
000003c0: 9c8f 83c0 2b2d dec1 c333 e540 22c2 02c1
000003d0: 3e87 37c1 75c3 a340 7b41 5cc1 02fe 8641
000003e0: e564 c3c0 f3e7 43c1 53e5 13c1 ff2a 673e
000003f0: 4b37 3242 9623 cfbe 1faa acbf 9ed2 b0bc
-4.486689 -34.247093 -6.813091 3.3327408 -1.4476701 -0.1152818 -17.109812 -0.39643717
-9.497345 1.7272699 5.210172 3.8073506 -18.876732 -0.047380913 -6.020502 -1.7574035
0.18623884 -33.278896 -6.9405794 10.122006 -0.23947893 5.5625844 3.4629154 -9.534697
-0.8421674 -13.639807 -0.7270202 -5.1760774 11.04011 1.7862153 -3.0973718 -1.9231547
4.807534 8.518891 2.3084354 -30.271364 8.350711 51.541973 -1.1033118 -1.7044027
13.358587 -6.936586 -21.392595 -9.964322 4.0110655 -1.741127 4.7060237 1.6227565
6.866949 -1.783669 0.33401126 -15.6326 34.110107 1.4342849 -1.0257345 0.9132137
-14.851703 6.6061745 -12.08096 7.836895 -1.7973804 0.2843302 8.463595 0.5508222
51.648968 0.64648646 21.814238 -9.600966 -11.650426 -16.530315 -10.157395 -0.5818044
-2.6488776 6.9064603 -5.890645 12.383067 16.8474 -1.4632461 14.920009 4.165792
-2.8684182 1.7650279 1.5511328 1.5060586 -5.6663666 -5.217972 -9.916432 -7.355623
42.212685 -1.1073142 5.5922194 -3.5879686 -2.5546544 0.30258355 10.59698 6.032221
10.909955 1.8128885 -1.8426932 -1.7466849 -0.35583147 0.113318905 -0.29785603 -0.0188155
-0.053413168 -0.42419118 -0.113067046 -0.3544294 -0.009572193 -0.010203894 0.0041712117 -0.2019624
-0.1061693 -0.041053355 -0.44460735 -0.08100209 -0.11651034 -0.041028198 0.19809207 -0.21842612
-0.37746638 -0.17752929 -0.14378119 -0.26340705 -0.053764526 0.14795993 -0.09354388 -0.40745056
0.19097503 -0.18533586 -0.05820072 -0.29351562 -0.18884227 0.05511796 -0.066948585 -0.15734047
0.19140872 0.12820275 -0.17945476 0.2052043 -0.25829232 -0.22637032 0.020879533 -0.0045164735
-0.028191991 0.11537639 0.1089591 -0.14235744 -0.12676544 -0.059552956 0.13154216 0.123479135
-0.039307546 -0.20335159 -0.38035744 0.07504064 -0.42120272 0.19102749 -0.36904064 -0.01934489
0.03823868 -0.08878586 -0.093346566 -0.012086892 -0.052943263 -0.0687654 -0.09653022 -0.12979929
0.1353783 0.18729255 -0.16855174 0.15466149 -0.1524719 -0.12641196 -0.2994653 0.0451628
0.07110556 -0.020926671 -0.13425438 -0.24955054 -0.20768152 0.14828052 0.062402144 -0.20214176
-0.25378278 0.02373755 -0.03538124 -0.26191482 -0.13801664 0.021194667 -0.20178913 -0.39028987
0.0049419496 -0.07773502 0.1771507 0.15468349 0.19537547 -0.2537023 -0.35186225 -0.24021082
2.3056102 -21.321918 -0.4971966 8.572415 -17.558811 9.590219 1.1857519 3.2202497
6.3254924 0.14140686 1.6440291 -3.0138347 2.5071666 22.932064 4.1468363 -1.996627
-15.85241 2.1151104 -1.2089553 -2.6634068 1.3363754 -0.038822852 13.30242 4.523507
0.7590417 0.52952284 -6.8947983 -1.225167 24.72237 6.1910768 -3.6337264 -42.914944
-2.1543736 -0.9531832 1.7538346 -13.16766 51.556473 155.58038 0.1039683 -1.8359364
-4.1112804 -27.772055 7.1625686 -8.172396 -11.470518 5.1176095 -13.765986 16.874027
-6.106066 -12.244128 -9.243487 0.22574995 44.553997 -0.40456837 -1.3489417 -0.021584805

regressor.4.bias f4 [100]
00000000: 9b7c 3c3f 47a3 f0bd 3afe 35c0 c639 f0bd
00000010: b64f ad3e cd7e a940 6df7 8840 65b3 58be
00000020: df8f 0cbf 5665 d0be 426c 78c0 7329 fac0
00000030: 6af3 51be f63d 59c0 b9ae 87bf e59b 8dc0
00000040: 9591 3bbe 9f8b 8dc0 b036 1dbf fd7c 2c40
00000050: 1769 56c0 ceff 6bc0 0d62 5d3e d670 d2bf
00000060: 0ee3 48bf 6210 cdc0 46a3 3c41 0a7b 93be
00000070: cf69 93bf baf9 08bf d8dd a7bf ee68 99be
00000080: bb25 12bf e981 c4be 1925 46be 9684 dfbe
00000090: 0a0e 6bbe 08cd c2c0 1ce3 1ac0 53ec 84c0
000000a0: c415 bdc0 3684 bf3f c1dc a8be e994 7c40
000000b0: 1199 edbe 3841 2440 1227 70c0 60ef a2be
000000c0: 752a 9740 655d b2bf fe0a 0b41 a052 6cc0
000000d0: de60 adc0 235f 5dbf 16c9 43c0 f1a6 efbf
000000e0: e265 ef3c e44c b3be 5485 a8c0 90d7 60c0
000000f0: 9298 e3c0 6535 c83f ca6d 38bf 46e4 07bf
00000100: 1379 98bf cbec 5dc0 2f95 53c0 6490 eabe
00000110: 7fdf 89c0 ff8b 7ebe bcba 85be 8522 13c0
00000120: 3754 7abf 0f2c 71bf 2b91 dbc0 3a0a 3bc0
00000130: 9332 5940 5a2d 48bf 9562 4bbe 3adb 3fbe
00000140: deb0 53c0 1482 9bc0 800a 0fc1 0f71 7ebf
00000150: 97ad 1440 386d 0bbe b926 d0bf 8708 98c0
00000160: c7e9 96bf f7d1 33bf 47ee 36be ab1d 4ac0
00000170: 67cc ccc0 855f 96c0 0d47 903f e1f0 cabe
00000180: d21f 31bf 0482 4fbe be27 66c0 4745 9bc0
0.7362763 -0.11749893 -2.8436418 -0.117297694 0.33849877 5.2967286 4.2802033 -0.21162184
-0.5490703 -0.40702313 -3.8816075 -7.8175597 -0.20503011 -3.3944068 -1.0600196 -4.42528
-0.18317254 -4.4232936 -0.6141157 2.6951287 -3.3501642 -3.687488 0.21619435 -1.6440685
-0.7847146 -6.40825 11.789862 -0.2880481 -1.1516665 -0.5350605 -1.3114576 -0.29962867
-0.5708882 -0.38380364 -0.19350089 -0.43655843 -0.22954574 -6.087528 -2.4201117 -4.153848
-5.908907 1.4962223 -0.32980922 3.9465888 -0.46405843 2.5664806 -3.7523847 -0.31823254
4.7239327 -1.3934752 8.690184 -3.692543 -5.4180746 -0.8647329 -3.0591483 -1.8722821
0.029223386 -0.350196 -5.2662754 -3.513157 -7.1123743 1.5641295 -0.72042525 -0.5308269
-1.1911949 -3.4675777 -3.3059804 -0.45813286 -4.308532 -0.24858092 -0.2611903 -2.298982
-0.9778475 -0.94207853 -6.8614707 -2.9224992 3.3937118 -0.781942 -0.19861825 -0.18735972
-3.30767 -4.8596287 -8.940063 -0.99391264 2.323095 -0.13615882 -1.6261817 -4.751041
-1.1790093 -0.70242256 -0.17864333 -3.1580608 -6.3999515 -4.69916 1.1271683 -0.396369
-0.6918918 -0.20264441 -3.5961757 -4.8522067

regressor.6.weight f4 [1, 100]
00000000: c6ed 9041 5ea1 b73c 9f24 c841 848d 43be
00000010: 2570 ff3e 6d7b 9a3e 7f31 8e3e 9baa 9a3c
00000020: 8069 afbd 12be 973c 7c4e 4541 1d4c 2dbf
00000030: fbce 01be 3085 d342 d074 c03d eb74 3142
00000040: bd22 26be f3b6 1d3f 60d4 c8bc ac84 223f
00000050: 60ce 8f42 20ac de42 f1b9 a63f be0d 9441
00000060: bb60 5e40 97dd 8842 3bea b53d 8ae7 963b
00000070: ddb4 5a42 8970 b73f c83a b740 254f 24bd
00000080: 3f6e 5fbe c672 973d a68e e63f 5d02 07bd
00000090: ca8b 4a3d d146 a640 42c9 0841 9152 6f41
000000a0: 4a63 d942 3c93 183f b748 2641 15bc 253e
000000b0: 8845 94bd 1ea2 c83d 25b4 a942 4804 04bc
000000c0: d385 023d 2a87 fe40 f6ce 0c3e 5286 4c42
000000d0: 987d 94bf 79b5 a7bd 35b3 e440 19f1 94be
000000e0: c3ef 9740 2672 833c ced8 b541 3671 8440
000000f0: 0801 4543 8198 bf40 5604 e43d b56a 253b
00000100: 147b 913c 1c53 d0be 9d95 bf41 04ab 48be
00000110: dade cb41 d7a0 8c3d 9aa7 6abe 2bbf 9a41
00000120: 381f bebd ef97 843d 15db 0e43 7742 5542
00000130: 77c4 b43e ca67 4ebd cb87 08bd 0963 3a42
00000140: 00e5 9f41 57c7 3443 95ac 6942 525b 9541
00000150: b06f 8e3f 9d04 4fbe 5ca4 603d 8722 5e42
00000160: bebb 3f3d f054 6b3c c7b8 11bd 1065 0c40
00000170: 9cc2 e140 d171 7a40 f10b d840 bd1a dabd
00000180: b57d 7e3d c6f1 cb3c 1c99 fd3e f107 3b43
18.1161 0.022415813 25.017881 -0.19096953 0.49890247 0.3017229 0.27772138 0.01888018
-0.085650444 0.01852325 12.331661 -0.67694265 -0.12676613 105.76013 0.0939728 44.364178
-0.16224189 0.61607283 -0.02451533 0.6348369 71.903076 111.33618 1.3025495 18.50671
3.474654 68.43279 0.088825665 0.0046052383 54.676624 1.4331218 5.7259254 -0.04011454
-0.218194 0.07394938 1.8012283 -0.03296124 0.04944972 5.1961446 8.549135 14.957658
108.693924 0.5959966 10.392753 0.16185029 -0.072398245 0.097965464 84.851845 -0.008057661
0.031865906 7.9539995 0.13750824 51.131172 -1.1600828 -0.0818891 7.146876 -0.29090193
4.748018 0.016045641 22.730862 4.1388197 197.00403 5.987366 0.111336395 0.0025240604
0.017758884 -0.40688407 23.948053 -0.19596487 25.483814 0.06866615 -0.22915497 19.343344
-0.09283298 0.064742915 142.85579 53.314907 0.3530614 -0.05039195 -0.033332627 46.596714
19.986816 180.77867 58.418537 18.66959 1.1127834 -0.20216604 0.054844245 55.53372
0.046809904 0.014363512 -0.035576608 2.1936684 7.055006 3.9131968 6.7514577 -0.10649631
0.062131602 0.02489556 0.49530876 187.03102
