saved-networks/FourLayerNet_V3-2020_09_07-13_18_22.pth (torch_old, 44709 bytes, 7 tensors)

regressor.0.weight f4 [50, 11]
0	0xbfc2ee52	-1.522898
1	0xbf3b6eda	-0.7321602
2	0xbe8e0762	-0.27740008
3	0x3e8f6bf3	0.28012046
4	0x3e275dce	0.16344377
5	0x3e45d2e5	0.19318731
6	0xbe53bb44	-0.20676905
7	0x3f88926b	1.0669683
8	0x3f4dfaa6	0.80460584
9	0x3ea3737d	0.31924048
10	0xbd4d58a5	-0.050133366
11	0xb98328b8	-0.00025016605
12	0xbbee1a62	-0.0072663287
13	0xbaa21a90	-0.0012367535
14	0xbbafb6f2	-0.005362385
15	0x39f30609	0.00046353068
16	0xbb8de378	-0.004330095
17	0x3afac45c	0.0019132006
18	0xbb950de6	-0.004548776
19	0xbb777940	-0.003776148
20	0xba999751	-0.001171807
21	0x3b635e13	0.0034693524
22	0x405ca354	3.4474688
23	0x3f01b84b	0.50671834
24	0xbe968779	-0.29400232
25	0xbe0e5a5a	-0.13901654
26	0xbe840c26	-0.2579052
27	0xbea05948	-0.31318116
28	0x3f0d794e	0.5526322
29	0x3fb83e0b	1.4393934
30	0x408c8ca1	4.3921666
31	0xbe6a525a	-0.22882977
32	0x3f3a508e	0.72779167
33	0x3ff0511c	1.8774753
34	0xbe6ada06	-0.22934732
35	0xbf27be25	-0.6552451
36	0xbe712978	-0.23550975
37	0x3e9156bb	0.28386483
38	0xbe51277b	-0.20425217
39	0xbf923bff	-1.1424559
40	0x3eadd072	0.33948094
41	0xbf711de0	-0.9418621
42	0x3e0cadea	0.13738218
43	0xbf488d19	-0.783403
44	0xbff08b37	-1.8792485
45	0xbeb0fac1	-0.3456631
46	0xbe941af6	-0.2892682
47	0xbe8b8ff4	-0.27258265
48	0x3e28d712	0.16488293
49	0x3ec3bb34	0.38228762
50	0xbee6202f	-0.4494643
51	0x3ff6f3fe	1.929321
52	0x3fa7f91c	1.3122897
53	0x3ee7e2a2	0.45290095
54	0xbeb9db75	-0.36300245
55	0xbb3c82d8	-0.0028764512
56	0x3ba1c112	0.004936346
57	0xba3fcf7a	-0.0007316988
58	0x3b1e74de	0.0024178545
59	0xb9d3d5c0	-0.00040404312
60	0x3b477d2a	0.0030439594
61	0xbafe4d42	-0.0019401687
62	0x3a05eb53	0.00051086134
63	0x3a9af596	0.0011822458
64	0x3a83b977	0.001004978
65	0xbb4e2c09	-0.0031459352
66	0xb8a49bf4	-7.849178e-05
67	0xbc13cf73	-0.009021628
68	0xba2fdc15	-0.0006708515
69	0xbae0aaf6	-0.0017140794
70	0x3b02bda5	0.0019949463
71	0xbb66c579	-0.0035212918
72	0x39617767	0.00021502153
73	0xbb6f1c42	-0.0036485349
74	0xbb5259ef	-0.0032097062
75	0xbb3c867f	-0.002876669
76	0xb9dd041c	-0.00042155467
77	0xbffd4b21	-1.9788553
78	0xbe8d4b87	-0.27596685
79	0xbe24bc02	-0.16087344
80	0x3de86261	0.11346889
81	0x3e8cbbe3	0.27487096
82	0x3dcb5ac9	0.09929425
83	0x3f80cf5a	1.0063279
84	0xbea7cf42	-0.32775313
85	0x3f92e3a1	1.1475717
86	0xbddcffa6	-0.107909486
87	0x3f291af1	0.66056734
88	0x3b9cbbfe	0.0047831526
89	0xba8a61c9	-0.0010557707
90	0x3b89c248	0.0042040683
91	0x3a848383	0.0010109994
92	0x3abb5aeb	0.0014294063
93	0xbb1d4ef1	-0.0024003352
94	0xb90f2283	-0.000136504
95	0x3b513299	0.0031921028
96	0x3a19560d	0.00058493094
97	0xbad81c80	-0.0016487986
98	0x374196c8	1.1538803e-05
99	0x3ff81899	1.9382507
100	0xbfda98ea	-1.7077916
101	0xbee69f1f	-0.45043275
102	0x3dc9264a	0.09821756
103	0x3f371b90	0.7152643
104	0xbf129dd0	-0.5727205
105	0xbfc2f04c	-1.5229583
106	0x3f681300	0.9065399
107	0xbf8d6c6f	-1.1048716
108	0xbded9b43	-0.116018794
109	0xbf62e529	-0.8863092
110	0x3aeffa74	0.0018308894
111	0x3c0bf110	0.0085413605
112	0x3bc79228	0.006090421
113	0x3afe6c52	0.0019410944
114	0x38e7b8c2	0.00011049352
115	0x3b5c9e4c	0.0033663688
116	0xbb045964	-0.0020194883
117	0x3c02fcf1	0.007994876
118	0x3ba33976	0.004981215
119	0x3b26ac8d	0.0025432438
120	0xbabb6746	-0.0014297746
121	0x40a0ab1b	5.020887
122	0xbffcb750	-1.9743443
123	0x3e588bd1	0.21147086
124	0x3eb94aa0	0.36189747
125	0xbeb551da	-0.3541401
126	0xbf071dff	-0.52780145
127	0x3e2d5076	0.16925225
128	0x3f30f822	0.6912862
129	0x40208ea7	2.5087068
130	0xbd10d962	-0.035363562
131	0x3f181cf0	0.59419155
132	0x3e41dad9	0.1893114
133	0x3f7dba86	0.9911274
134	0xbcbf86da	-0.023379732
135	0x3e7da3a6	0.24769458
136	0xbe165675	-0.14681418
137	0xbdf1bae2	-0.11803223
138	0xbfb4a2fe	-1.4112241
139	0xbf3baee2	-0.73313725
140	0xc092bde0	-4.585678
141	0xbea49bc0	-0.32150078
142	0xbfc3e8f8	-1.5305471
143	0xbfc58b8b	-1.543321
144	0x3e661926	0.22470531
145	0xbf1c2f3e	-0.61009586
146	0x3df3dc66	0.11907272
147	0x3d8b9b62	0.06816746
148	0x3e5e6486	0.21718034
149	0xbfa87af7	-1.3162526
150	0x3f19a321	0.6001454
151	0xc0ae9b5d	-5.4564652
152	0xbed2cf49	-0.4117377
153	0xbff9b37e	-1.9507902
154	0xc0525716	-3.2865653
155	0xbf48a2a8	-0.78373194
156	0xbe2839a2	-0.16428235
157	0x3ee97545	0.45597282
158	0x3d8a4581	0.06751538
159	0x3edb6642	0.42851454
160	0x3f8ed8f0	1.1159954
161	0x3dacaaac	0.084309906
162	0x3f8381f9	1.027404
163	0xbd12f61a	-0.035879232
164	0x3f04bf60	0.51854515
165	0x3b75aaa4	0.0037485743
166	0xbb62131a	-0.0034496249
167	0x3b8798b3	0.004138076
168	0x3b459997	0.003015136
169	0x3b0e4708	0.0021709818
170	0xba5bfa9e	-0.0008391532
171	0x3a9f3edd	0.0012149472
172	0x3a3e0c8f	0.0007249796
173	0xba3c902a	-0.0007193113
174	0xb9e31363	-0.00043311258
175	0x3a874dee	0.0010322907
176	0xbffe1d15	-1.9852625
177	0xbe33113a	-0.1748704
178	0xbea62bad	-0.32455197
179	0xbe91f559	-0.28507498
180	0x3e9b4ab4	0.3033043
181	0x3e7cc338	0.24683845
182	0xbefada34	-0.489946
183	0x3fcf41ca	1.6191952
184	0x3fa31abd	1.2742535
185	0x3e9c8098	0.3056686
186	0xbec69380	-0.3878441
187	0x3eb4e6cc	0.35332334
188	0x4090e97b	4.528501
189	0xbcabdfae	-0.020980682
190	0xbe295f72	-0.16540316
191	0x3e346e24	0.1762014
192	0x3db78b25	0.089620866
193	0x3f84b7b4	1.0368562
194	0x3f26ec15	0.6520398
195	0xbfe686b2	-1.8009856
196	0xbf02fabf	-0.5116386
197	0x3ec4292d	0.38312665
198	0xbf116f8f	-0.5681085
199	0x3f42ac15	0.76043826
200	0xbe94e6c2	-0.29082304
201	0x3ea1de4b	0.3161491
202	0xbdb788de	-0.08961652
203	0x3e944ba7	0.28963968
204	0xbe6271ae	-0.22113678
205	0xbe06c0df	-0.13159512
206	0xc0232d85	-2.5496533
207	0xbe1e0530	-0.15431666
208	0xbf169c7b	-0.5883252
209	0x3e49734b	0.19672887
210	0x3f7bee30	0.9841032
211	0xbe4a9f99	-0.19787444
212	0x3e5e9f6a	0.21740499
213	0xbd5b8a54	-0.053598717
214	0xbe774976	-0.24149117
215	0xbec26bf5	-0.3797299
216	0x3f728ee9	0.94749314
217	0x4028c7f8	2.6372051
218	0x3df8976b	0.12138256
219	0xbe477f22	-0.19482091
220	0xbed89467	-0.42300722
221	0x3fb17868	1.386487
222	0xbf034dff	-0.5129089
223	0x3e5eafa9	0.21746697
224	0xbd215013	-0.039383005
225	0x3e402cd3	0.18767099
226	0xbe531717	-0.20614277
227	0x3dba2ea5	0.09090928
228	0xc03496c0	-2.821701
229	0xbea78dfa	-0.32725507
230	0xbf311c21	-0.69183546
231	0xc00b6a39	-2.1783583
232	0xbf14c636	-0.58114946
233	0xbf212d8b	-0.6296012
234	0x3db9cdc8	0.09072453
235	0xbd36ddb4	-0.044645026
236	0xbe1376be	-0.14400765
237	0xbf5e56bd	-0.868511
238	0x3e2eefff	0.17083739
239	0x3fca6738	1.581275
240	0x3d428093	0.0474859
241	0xbf47a78e	-0.77990043
242	0xbf8a854b	-1.0821928
243	0xbd5c24ce	-0.053746037
244	0xbdffd420	-0.124916315
245	0xbea558a2	-0.32294184
246	0xbe60db3d	-0.21958633
247	0xbe055cc9	-0.13023676
248	0x3e847e24	0.25877488
249	0x3ef3c772	0.47613102
250	0x3fbfc5bb	1.4982218
251	0x3d4c3f5e	0.04986512
252	0x3ea6d003	0.32580575
253	0xbed435ca	-0.41447288
254	0xbeed27cc	-0.46319425
255	0x3e77d4d7	0.24202286

regressor.0.bias f4 [50]
0	0x3e9d09cd	0.3067154
1	0x3a958cfc	0.0011409814
2	0xc000b588	-2.0110798
3	0x3fcf1ff1	1.6181623
4	0xbee6b5d3	-0.45060596
5	0x3a38379f	0.0007027331
6	0x39d58f7a	0.00040733424
7	0x3f94b571	1.1617872
8	0xbb62ae25	-0.0034588662
9	0x3fc392fa	1.5279229
10	0xbaecea80	-0.0018075258
11	0x3fe9b104	1.8257146
12	0x40340e55	2.8133748
13	0x3d6c9998	0.057763666
14	0x3f0f7777	0.56041664
15	0xbba2721b	-0.00495745
16	0xbe932266	-0.2873718
17	0xbfaa4665	-1.3302733
18	0x3e51f13a	0.20502177
19	0x40617700	3.5228882
20	0xbe80e0ae	-0.25171417
21	0x3fa1e180	1.2646942
22	0x3fbeb699	1.4899474
23	0x3f8ffc4e	1.1248872
24	0x3f6e90c1	0.93189627
25	0x3f3c5913	0.73573416
26	0x408779cf	4.233619
27	0xbbb0136a	-0.005373408
28	0x3f261986	0.64882696
29	0x3fb0fc93	1.382708
30	0x3f6036ef	0.8758382
31	0xbf078252	-0.5293323
32	0x3fe54f7b	1.791488
33	0x4004c8e0	2.0747604
34	0x3fc1d1bb	1.514213
35	0x3dfef6eb	0.124494396
36	0xb9a61cba	-0.0003168339
37	0xbba9516f	-0.0051671783
38	0x406f0df0	3.7352257
39	0xbdb9c647	-0.090710215
40	0xbafb9610	-0.0019194502
41	0xc003e7d9	-2.0610259
42	0x3fb29372	1.3951247
43	0x3fd03965	1.6267515
44	0x3ed61493	0.41812572
45	0x4009679e	2.1469493
46	0x3a0cfbd1	0.00053781
47	0xb9a5cc66	-0.0003162354
48	0xbf63b3f5	-0.8894647
49	0x3ee4b738	0.44671035

regressor.2.weight f4 [100, 50]
0	0xba698b36	-0.00089089887
1	0xbbcf3500	-0.0063234568
2	0xbc8f1129	-0.017464237
3	0x3d613567	0.05498257
4	0xbd65fcea	-0.0561494
5	0x3aeccd26	0.001806651
6	0xbb95a0b5	-0.004566277
7	0xbe8b8ffc	-0.2725829
8	0x39e1ee7d	0.00043093032
9	0xbc058c81	-0.0081511745
10	0x3b8085c3	0.0039221956
11	0x3f13b25e	0.5769404
12	0xbe601c69	-0.21885838
13	0x3e15c4bd	0.14625831
14	0xbec63f0f	-0.38719985
15	0x3a801aa5	0.0009773566
16	0xbd5bf234	-0.05369778
17	0xbd4b85c5	-0.04968812
18	0xbc4d06a8	-0.012513794
19	0xbd9c667c	-0.07636735
20	0x3ce613df	0.028085647
21	0xbd1caef4	-0.038252786
22	0xbd72ea34	-0.059305385
23	0xbd38bbd8	-0.045101017
24	0xbcef67b7	-0.02922426
25	0xbdded239	-0.108799405
26	0x3eb0e295	0.34547868
27	0x3ab58585	0.0013848996
28	0xbd74eeea	-0.05979816
29	0xbe9fde6f	-0.3122439
30	0xbd5a67d4	-0.053321674
31	0xbd650b39	-0.055918906
32	0x3da06059	0.07830877
33	0xbddb9fde	-0.107238516
34	0xbe04112e	-0.12897179
35	0xbc14cd9a	-0.009082222
36	0x3b02475a	0.0019878955
37	0x3a9701ac	0.0011520884
38	0x3df8a530	0.12140882
39	0x3e8afde0	0.27146816
40	0x3b78fa98	0.0037991162
41	0xbd4b4c1c	-0.04963313
42	0xbcaf2721	-0.021380963
43	0xbd9db551	-0.07700599
44	0xbca7c494	-0.020479478
45	0xbe35a4e6	-0.17738685
46	0xba08a3c9	-0.0005212394
47	0x3b1fe719	0.002439922
48	0x3b258d21	0.0025261121
49	0xbe839e62	-0.25706774
50	0x3e9b2b46	0.30306453
51	0x39e5bcce	0.00043818954
52	0xbf61d8bb	-0.8822133
53	0xbecef56f	-0.40421626
54	0x3ef6eecd	0.48229066
55	0x39852ff8	0.00025403476
56	0x39ebc840	0.0004497189
57	0x3ea0f9bf	0.3144054
58	0x395906d9	0.00020697284
59	0xbefa9628	-0.48942685
60	0xba8ac080	-0.0010585934
61	0xbf893c42	-1.0721514
62	0xbf72589b	-0.9466645
63	0xbf3e4750	-0.74327564
64	0x3f006d1a	0.50166476
65	0x3a083975	0.000519655
66	0x3ef36782	0.47539908
67	0xbeb8cdc9	-0.36094502
68	0xbec1aa57	-0.3782527
69	0x3dd8e991	0.10591424
70	0xbed414ad	-0.41422024
71	0x3f01b5ba	0.5066792
72	0x3e7237bc	0.23654073
73	0x3d061ebd	0.032744158
74	0x3ed9b8d7	0.42523834
75	0x3f2c89db	0.6739785
76	0xbf8c3640	-1.0954056
77	0x3a333756	0.0006836554
78	0xbed24959	-0.41071585
79	0xbf3ef231	-0.74588305
80	0x3f049736	0.5179323
81	0x3f074443	0.52838534
82	0xbefef7a9	-0.49798325
83	0x3f0a3b59	0.5399681
84	0x3e7dcc74	0.24785024
85	0x3ed0226d	0.40651265
86	0xb9b8700f	-0.00035178705
87	0x3a20cc3e	0.000613395
88	0xbf6b56e8	-0.91929483
89	0xbe924663	-0.28569326
90	0xbac99bbb	-0.0015381494
91	0xbdbd884d	-0.09254513
92	0xbf49baf3	-0.78800887
93	0x3ee7a0f7	0.45239994
94	0xbe602cf4	-0.21892148
95	0xbf511c8b	-0.8168418
96	0xbaf25024	-0.0018487019
97	0x39339d70	0.0001712942
98	0xbe1ed6c1	-0.1551161
99	0x3ecbfd45	0.39841667
100	0x3e90f9cb	0.28315577
101	0x398640ce	0.00025606755
102	0xbf527f95	-0.82225925
103	0xbebe7c05	-0.37203994
104	0x3ee1afca	0.4407943
105	0x39b54a65	0.00034578438
106	0x398db891	0.00027031128
107	0x3e9ad2fd	0.30239096
108	0x390c7fcf	0.00013399053
109	0xbee7f9a2	-0.45307642
110	0xba71949a	-0.0009215564
111	0xbf76f367	-0.9646515
112	0xbf5e9aaa	-0.8695475
113	0xbf2f9b9d	-0.6859682
114	0x3ef4f413	0.47842464
115	0x39bbecc9	0.00035843838
116	0x3edd2f60	0.43200207
117	0xbeaa166c	-0.33220232
118	0xbeb38bba	-0.3506754
119	0x3dc245aa	0.094859436
120	0xbec3dd80	-0.3825493
121	0x3eec7e3f	0.46190068
122	0x3e64fa1e	0.22361037
123	0x3d3991a5	0.045304913
124	0x3ec6a314	0.38796294
125	0x3f1e30dd	0.6179331
126	0xbf802c61	-1.0013543
127	0x3a0b0af4	0.00053040613
128	0xbec23170	-0.37928343
129	0xbf30001a	-0.68750155
130	0x3ef1fac0	0.4726162
131	0x3ef6efae	0.48229736
132	0xbee7a083	-0.45239648
133	0x3efc389a	0.49261934
134	0x3e67cc62	0.2263656
135	0x3ebd46d7	0.3696811
136	0xb94724e5	-0.00018991863
137	0x39ebd04b	0.00044977883
138	0xbf567138	-0.8376651
139	0xbe86411d	-0.26221552
140	0xbab20148	-0.0013580704
141	0xbdad4f23	-0.0846236
142	0xbf39b13f	-0.7253608
143	0x3ed3b38f	0.4134793
144	0xbe4ef2b5	-0.20209773
145	0xbf40877d	-0.7520674
146	0xbad6b877	-0.0016381879
147	0x39926f76	0.00027930335
148	0xbe198b9d	-0.14994664
149	0x3ec4011e	0.38282102
150	0xbaa8cb8e	-0.0012878047
151	0xb7b5af50	-2.1658518e-05
152	0x3c186661	0.009301753
153	0x3ac758da	0.0015208975
154	0x39a60eb1	0.00031672933
155	0x38593156	5.178278e-05
156	0xb7d391e1	-2.522109e-05
157	0xba7fdfd3	-0.00097608304
158	0xb88b334c	-6.637591e-05
159	0xba65fb08	-0.00087730633
160	0xb85c8dfd	-5.2584324e-05
161	0xbb1317c5	-0.0022444588
162	0x3b1237c5	0.0022311073
163	0xbbd34e0b	-0.0064485124
164	0xbb6726f9	-0.0035271032
165	0xb7f75086	-2.9482191e-05
166	0xbb3d6402	-0.002889872
167	0xbb67b330	-0.0035354607
168	0xbb1e00f0	-0.0024109446
169	0x3c37c1fb	0.011215682
170	0xbb7037e5	-0.003665441
171	0xbabed946	-0.0014560602
172	0x3bbccddf	0.0057618464
173	0x3b382359	0.002809724
174	0x3a4150a1	0.00073743804
175	0xbb938847	-0.0045023295
176	0xbb8954a2	-0.004190997
177	0xb7933a36	-1.7550872e-05
178	0xba84c95c	-0.001013081
179	0xbb013330	-0.0019714348
180	0xba810c01	-0.0009845496
181	0xb9e99586	-0.00044552627
182	0xb960b929	-0.00021431282
183	0xbb48b093	-0.0030622825
184	0x3b71871b	0.003685421
185	0xbb128555	-0.0022357304
186	0xb7d96c2e	-2.5918791e-05
187	0xb7b53c63	-2.1605001e-05
188	0x3bae98a2	0.005328254
189	0xbaaa4c6a	-0.0012992744
190	0xb8b1e460	-8.482556e-05
191	0x3b986ce7	0.004651654
192	0xb9bf1cba	-0.00036451762
193	0xbb064654	-0.0020488696
194	0xba58a033	-0.00082636176
195	0xbb711166	-0.0036784052
196	0xb843b679	-4.6661564e-05
197	0x37ee7026	2.8424034e-05
198	0x3b9bafab	0.004751166
199	0xbb1e4c1d	-0.0024154254
200	0x3e71efed	0.2362668
201	0xb8e018ca	-0.0001068577
202	0xbf3661d2	-0.7124301
203	0xbea1b3de	-0.3158254
204	0x3eb7b115	0.3587729
205	0x3a0bf495	0.0005338875
206	0xb8408b8b	-4.5906327e-05
207	0x3e8c5be8	0.2741387
208	0xb8f682e8	-0.00011754577
209	0xbec6fcd4	-0.38864768
210	0xba3140b3	-0.0006761655
211	0xbf45a7f4	-0.772094
212	0xbf398ae3	-0.7247755
213	0xbf155187	-0.58327526
214	0x3ed72ecc	0.4202789
215	0xb7cb1ade	-2.4211997e-05
216	0x3eb35f32	0.35033566
217	0xbe8f421e	-0.2798013
218	0xbe98ecd1	-0.29868177
219	0x3dad5fcc	0.084655374
220	0xbea598ea	-0.32343227
221	0x3ec4e66f	0.38457057
222	0x3e4d1fae	0.20031616
223	0x3d828622	0.0637324
224	0x3ea6579b	0.32488713
225	0x3f0541ae	0.52053344
226	0xbf535cf3	-0.82563704
227	0x39245080	0.00015670247
228	0xbea442a6	-0.320821
229	0xbf149366	-0.5803741
230	0x3eca68c6	0.3953306
231	0x3ec8e776	0.3923909
232	0xbec0ee98	-0.37682033
233	0x3ed248fe	0.41071314
234	0x3e4a7a74	0.19773275
235	0x3e9b4f7b	0.30334076
236	0x38a0156a	7.633383e-05
237	0x38835265	6.261914e-05
238	0xbf2fcc47	-0.6867108
239	0xbe66771d	-0.22506376
240	0xba8474fd	-0.0010105666
241	0xbda0eb36	-0.07857363
242	0xbf1bdbd8	-0.6088233
243	0x3eb166a4	0.3464862
244	0xbe2d9662	-0.16951898
245	0xbf216d18	-0.6305709
246	0xba968fda	-0.0011486963
247	0x39fe22d0	0.00048472593
248	0xbe0c370b	-0.13692872
249	0x3ead125b	0.33803067
250	0x3ebe7970	0.37202024
251	0xbc3b68a1	-0.01143852
252	0xbf86ca43	-1.0530475
253	0xbeddc0c2	-0.43311125
254	0x3e8554b4	0.26041186
255	0x3bebb77d	0.0071935044

regressor.2.bias f4 [100]
0	0xbd0a98ad	-0.03383701
1	0xbcbbce94	-0.022925653
2	0xbc8e40a0	-0.0173648
3	0xba2c5340	-0.00065736845
4	0xbbec46f8	-0.0072106086
5	0x3e590de4	0.21196705
6	0xbb93ae46	-0.004506859
7	0xbcb4b4cc	-0.022058867
8	0xbba12f3d	-0.0049189613
9	0x3f5dc264	0.8662474
10	0x3d48fa57	0.049066868
11	0x3d9290a3	0.071564935
12	0x3e219c8e	0.15782377
13	0x39a65fe9	0.00031733446
14	0x3e8c4433	0.27395782
15	0xbce5ea07	-0.028065694
16	0xbcee2801	-0.02907181
17	0x3be62c46	0.007024321
18	0xbbe1b0f6	-0.0068875505
19	0xbb90f094	-0.0044232104
20	0xbd651907	-0.05593207
21	0x3ad7842e	0.0016442591
22	0x3b4f530b	0.003163519
23	0x3d00ef2d	0.031478096
24	0xb98f370d	-0.00027316101
25	0xb9dfcec1	-0.00042687918
26	0x3f83e73c	1.0304942
27	0x3e44d146	0.19220456
28	0xb7d0f358	-2.4908848e-05
29	0x3b09fd45	0.0021055501
30	0x3a81d351	0.0009904896
31	0xbad093b9	-0.0015913165
32	0x3f9c3224	1.2202802
33	0x3e446fc7	0.19183265
34	0x3b0ce572	0.0021499065
35	0x3e06582f	0.13119577
36	0x3a19b61e	0.00058636244
37	0xbcede9be	-0.029042121
38	0xbd179628	-0.037008435
39	0xbbf599ad	-0.007495126
40	0xbcb2fdd0	-0.021849543
41	0xbdd07761	-0.1017902
42	0xbb68098d	-0.0035406083
43	0xbc11bdcc	-0.008895349
44	0xbb50fe12	-0.003188972
45	0xbb97f401	-0.004637242
46	0xbb71146c	-0.0036785854
47	0xbc7d3273	-0.015453923
48	0xb9338de8	-0.00017123634
49	0xbc6bfdec	-0.014403801
50	0xbc7e279a	-0.015512371
51	0x3b5b0ce2	0.0033424427
52	0xbc4e44b9	-0.012589627
53	0x3be8edff	0.0071084495
54	0xbcd29676	-0.025706511
55	0xba85a740	-0.0010196939
56	0xbadc0604	-0.0016786461
57	0xba4db627	-0.0007847272
58	0xbb9cc299	-0.00478394
59	0xbc15fa81	-0.009153963
60	0xbce26bab	-0.02763923
61	0xbb6cb16c	-0.0036116494
62	0xbea18670	-0.3154788
63	0xba69c5e4	-0.00089177326
64	0x3e6d5acc	0.23179168
65	0x3f040f8d	0.5158623
66	0xbcdb9737	-0.026805503
67	0xbcd120b9	-0.025528299
68	0xbb3a7574	-0.0028451355
69	0x3b291c34	0.0025804164
70	0xbabec9ed	-0.0014556028
71	0x3b140e26	0.002259144
72	0xbbc576d0	-0.0060261264
73	0xba7081fa	-0.00091746415
74	0xbc853137	-0.016258819
75	0x3b086b02	0.0020815735
76	0xbab47a69	-0.0013769391
77	0x3b2e254b	0.0026572521
78	0xbb4f4387	-0.0031625943
79	0xbb17f678	-0.0023187678
80	0xbadd9ef2	-0.0016908331
81	0x3aa5a77d	0.0012638416
82	0x3db5b1fb	0.08871838
83	0x3cfb6677	0.030688507
84	0x3a7c8266	0.0009632468
85	0xbc226c0c	-0.009913456
86	0x3bb241fa	0.005439994
87	0xbf0182c9	-0.5059019
88	0xbb0095f3	-0.0019620627
89	0xb88a7188	-6.6014996e-05
90	0xbcca344c	-0.02468314
91	0xbd144ed5	-0.036207993
92	0xbcbe5a89	-0.02323653
93	0xbcb96c69	-0.022634702
94	0xbb8a50b5	-0.004221047
95	0x3d090565	0.03345241
96	0x399ce93b	0.0002992841
97	0xbcef64a9	-0.029222803
98	0x3e2750cd	0.16339417
99	0xbaea7763	-0.0017888363

regressor.4.weight f4 [50, 100]
0	0xbbe864ba	-0.0070920857
1	0xb98d75b7	-0.0002698132
2	0xb9820767	-0.00024801047
3	0xba128207	-0.00055888336
4	0xb95b0024	-0.0002088552
5	0xba0c69da	-0.0005356349
6	0xb94bc886	-0.0001943429
7	0xb98af19f	-0.00026501433
8	0xba9edd74	-0.0012120442
9	0x3a0ee481	0.000545092
10	0xb9ad86a4	-0.00033097446
11	0xb9c28977	-0.00037104983
12	0xb9b79e10	-0.00035022246
13	0x390880b4	0.00013017916
14	0x39ca402b	0.0003857625
15	0xb99e5bc4	-0.0003020448
16	0xb9a1dfed	-0.0003087515
17	0x3b0ef803	0.0021815307
18	0xb958f437	-0.00020690342
19	0xba855552	-0.0010172522
20	0xbc01f202	-0.007931234
21	0x3a081276	0.0005190739
22	0xba0d023a	-0.0005379055
23	0xb99ed7cd	-0.00030296893
24	0xba9f3774	-0.0012147264
25	0xbb1387db	-0.0022511396
26	0x3a30b234	0.00067404215
27	0xb9c8207e	-0.0003817118
28	0xb9d4118b	-0.00040448862
29	0x38a17c61	7.7002456e-05
30	0x3a0ffa16	0.0005492283
31	0xb988d189	-0.00026096057
32	0x3b3a548b	0.002843174
33	0xb9dbf1eb	-0.00041951178
34	0xba1e415a	-0.000603696
35	0xb9d1082b	-0.00039869672
36	0x39445eae	0.00018727288
37	0xb9a1e294	-0.00030877127
38	0xb9be29eb	-0.00036270855
39	0xb95ccac3	-0.0002105637
40	0xb98a6740	-0.00026398338
41	0xbb698c55	-0.0035636623
42	0xba9ab4dd	-0.0011803169
43	0xb964245b	-0.00021757318
44	0xba99f670	-0.0011746418
45	0xbabc885a	-0.0014383898
46	0xba8b2327	-0.0010615335
47	0xb97df19a	-0.00024217964
48	0xb880e55e	-6.1462386e-05
49	0xb9783dcb	-0.00023674143
50	0xb97ec864	-0.00024297979
51	0x39d457c6	0.00040501187
52	0xb971b03b	-0.00023049202
53	0x3b1e571a	0.0024160803
54	0xb9982697	-0.0002902045
55	0xb90c9928	-0.00013408496
56	0xbaf71db9	-0.0018853463
57	0xb9f03c7a	-0.00045821426
58	0xbaae44a8	-0.0013295608
59	0xb9657502	-0.0002188273
60	0xb99c8e31	-0.0002986058
61	0xba96e471	-0.0011512173
62	0xbc953e18	-0.018218085
63	0xb9db873a	-0.00041871687
64	0xbafac336	-0.0019131664
65	0xb922b19b	-0.00015515687
66	0xb999e5a7	-0.00029353538
67	0xb99572eb	-0.00028505115
68	0xba6b702b	-0.0008981253
69	0x39a7ebda	0.00032028445
70	0xba68adc0	-0.00088759884
71	0x39515c89	0.00019966265
72	0xb953bee6	-0.00020193643
73	0x38ba736f	8.890672e-05
74	0xb98062c1	-0.0002448764
75	0x3a0a4f77	0.00052761234
76	0xb976d1f7	-0.00023538606
77	0x39eed722	0.00045555184
78	0xba909098	-0.001102942
79	0xbaa17881	-0.0012319238
80	0xba5b063e	-0.0008355117
81	0xb9c5a0bb	-0.00037694522
82	0xb9d4b2f3	-0.0004056912
83	0xb99e9407	-0.00030246397
84	0xb9fbc9c5	-0.0004802478
85	0xb969d805	-0.00022301085
86	0x3af8b42a	0.0018974592
87	0xba025ca1	-0.0004972909
88	0xba317585	-0.0006769526
89	0xb7b8a8bb	-2.201308e-05
90	0xb9930761	-0.00028043523
91	0xb9b69fce	-0.0003483281
92	0xb98e909f	-0.00027192102
93	0xb98c9eb2	-0.00026821118
94	0xbaa3907f	-0.0012478976
95	0xbdc01122	-0.09378268
96	0x390868ba	0.00013008984
97	0xb9a2620d	-0.000309721
98	0xb9d307e8	-0.00040250947
99	0xb9b8abe5	-0.00035223286
100	0xbb668206	-0.0035172715
101	0x3f1209d1	0.5704623
102	0x3f0602de	0.52348125
103	0xbaae172c	-0.0013282052
104	0x3edff120	0.4373865
105	0x3f10004e	0.56250465
106	0x3ed12f5e	0.4085645
107	0x3f0f7bcf	0.5604829
108	0xbabc5c21	-0.0014370718
109	0x3ed6dacf	0.41963813
110	0x3f1ecd60	0.6203213
111	0x3f2940c2	0.6611444
112	0x3f5c228c	0.85990214
113	0x3ac4ecca	0.0015024182
114	0x3f212f04	0.62962365
115	0x3f23f6b4	0.64048314
116	0x3f2803b2	0.6563064
117	0xbbcffaba	-0.0063470276
118	0x3eddff73	0.43358955
119	0x3b13c4e2	0.0022547771
120	0xbc8678df	-0.016415058
121	0x3b1e58ea	0.0024161884
122	0xbaed0406	-0.0018082864
123	0x3f11d6c6	0.56968343
124	0xbaa17f24	-0.0012321216
125	0xba3f4993	-0.0007297035
126	0x3ed0de3d	0.40794554
127	0x3f58ba85	0.84659606
128	0xb7e4e218	-2.7285001e-05
129	0xbb950e4d	-0.004548824
130	0x3a3f62cf	0.00073007954
131	0x3b565f70	0.0032710694
132	0x3f0d7ec2	0.5527154
133	0x3f3df7ec	0.74206424
134	0xbab884ce	-0.0014077665
135	0x3f0f4b3e	0.55974185
136	0x39e11a1a	0.0004293479
137	0x3f28059e	0.6563357
138	0x3f525039	0.8215366
139	0x3ee1a7d3	0.44073352
140	0x3f0eee57	0.5583243
141	0xbd83aeee	-0.064298496
142	0xb9a38586	-0.00031189265
143	0x3ee91a38	0.45527816
144	0xbab5ab08	-0.0013860175
145	0x3a45794b	0.00075330277
146	0x3a3dc4eb	0.0007239121
147	0x3f029e34	0.5102265
148	0x3a187a3f	0.0005816556
149	0x3eff88af	0.4990897
150	0x3f02ff38	0.5117068
151	0xbb9dbed5	-0.0048140087
152	0x3ef85a6c	0.48506486
153	0x3b2a359c	0.0025971895
154	0x3f1d0c36	0.6134676
155	0x3b5e5e81	0.003393084
156	0xbad39e58	-0.0016145213
157	0xba88f399	-0.0010448574
158	0x3ae6285b	0.0017559634
159	0x3eea758e	0.45792812
160	0x3f21f1b8	0.6325946
161	0xb9fdd52a	-0.0004841474
162	0xbdb61af9	-0.088918634
163	0x3b52f46b	0.0032189141
164	0x3f007632	0.5018035
165	0x3f0ac0a9	0.54200226
166	0x3f1efb7b	0.6210248
167	0x3f1a4a0b	0.6026923
168	0x3a0837ad	0.00051962846
169	0xbba14d82	-0.0049225697
170	0xb9952429	-0.00028446436
171	0xbb9d6a81	-0.004803956
172	0x3ed8ff98	0.42382503
173	0x3b215d80	0.002462238
174	0x3f042928	0.516253
175	0x3af61e00	0.0018777251
176	0x3b5246f2	0.0032085744
177	0x3a55c967	0.00081553165
178	0xbb0de3ac	-0.0021650596
179	0x37b300a8	2.1338768e-05
180	0xbb2468b1	-0.0025086815
181	0x3ad27004	0.0016055112
182	0x3f3c373c	0.7352178
183	0x3f12c0ca	0.5732542
184	0x3b257a6b	0.0025249969
185	0x3eeedc52	0.46652466
186	0x3b4825b8	0.003054006
187	0x3bd01fa9	0.0063514304
188	0xb963c056	-0.00021720058
189	0x3b2a2695	0.0025962938
190	0x3f17c065	0.59277946
191	0x3f44bb74	0.7684853
192	0x3f132710	0.5748148
193	0x3f112e83	0.56711596
194	0xbabf8089	-0.001461045
195	0xbf4ed9c2	-0.8080102
196	0x3b10ba44	0.002208368
197	0x3f289cff	0.6586456
198	0x3f2e430a	0.68071043
199	0x3b49577e	0.0030722315
200	0x3e82149f	0.25406358
201	0x3f6c0d6b	0.92207974
202	0x3f595b0a	0.8490454
203	0x3b2a0b00	0.0025946498
204	0x3f3716d7	0.71519226
205	0x3f669a8b	0.90079564
206	0x3f2b8b50	0.6700945
207	0x3f680ee9	0.9064775
208	0x3b7c702e	0.0038519013
209	0x3fc5afbe	1.5444257
210	0x3f803a1d	1.0017735
211	0x3f887d39	1.0663215
212	0x3fac6eb9	1.347129
213	0x3b52ee4c	0.0032185493
214	0x3f81c223	1.0137371
215	0x3f8419a7	1.0320328
216	0x3f874ada	1.0569718
217	0x3bcbd240	0.006220132
218	0x3f35915c	0.70924926
219	0xb9bc5de4	-0.00035928108
220	0x3e149673	0.14510517
221	0xb931590b	-0.00016913206
222	0xbb8bced8	-0.004266601
223	0x3f6c4af3	0.92301863
224	0xbbdf3e80	-0.0068128705
225	0xbae680ab	-0.0017585953
226	0x3f7f9dc6	0.9985012
227	0x3fa91416	1.3209255
228	0x3b9cb0df	0.004781827
229	0x3b33f3cc	0.0027458547
230	0xbb29229c	-0.0025807982
231	0x3c125d2e	0.008933349
232	0x3f8c7d84	1.0975804
233	0x3f9828e1	1.1887475
234	0xbbbe4059	-0.0058060107
235	0x3f673bc3	0.90325564
236	0xba2dafbd	-0.00066256133
237	0x3f874c86	1.0570228
238	0x3fa8d1e9	1.318906
239	0x3f386e20	0.7204304
240	0x3f673252	0.9031116
241	0x3e9a54ad	0.30142727
242	0x3b2bab1b	0.0026194516
243	0x3f3e3e94	0.74314237
244	0xba22db08	-0.0006212448
245	0x3af5a4b4	0.0018741102
246	0x3bbc2487	0.005741659
247	0x3f541a52	0.8285266
248	0x3ac3f441	0.0014950113
249	0x3f4fa83d	0.81116086
250	0x3f54b2ef	0.8308553
251	0x3bc9b331	0.0061553945
252	0x3f4a1684	0.78940606
253	0x3a63db48	0.0008692038
254	0x3f7d59b6	0.98965013
255	0x3be811cb	0.007082199

regressor.4.bias f4 [50]
0	0x3abca0a4	0.0014391136
1	0x3b274a01	0.0025526287
2	0x3d296c0f	0.04136282
3	0xbbdd1401	-0.0067467694
4	0x3abca062	0.001439106
5	0xbb7648df	-0.0037580056
6	0x3abca065	0.0014391063
7	0x3ccf7df4	0.025328614
8	0x3b2588db	0.0025258574
9	0x3cdf0474	0.027223803
10	0x3b0b7d20	0.0021284297
11	0x3abca0c7	0.0014391177
12	0x3abca0ab	0.0014391145
13	0x3abca073	0.0014391079
14	0x3cd7b719	0.026332425
15	0x3abca0ce	0.0014391185
16	0xbc050cd6	-0.008120736
17	0x3b293fd4	0.0025825398
18	0x3abca095	0.0014391119
19	0x3abca0c5	0.0014391175
20	0x3dc1e4a7	0.0946744
21	0xbc043b9d	-0.008070854
22	0x3abca097	0.0014391121
23	0xbc50e09d	-0.0127488645
24	0x3abca097	0.0014391121
25	0x3ac29c14	0.001484754
26	0xbb9aadb9	-0.0047204164
27	0x3abca09f	0.001439113
28	0x3b2960b0	0.0025844984
29	0x3d92a749	0.07160813
30	0x3abca0ad	0.0014391147
31	0xbbf5b52e	-0.007498405
32	0x3ccf7f1d	0.025329167
33	0x3abca0cb	0.0014391182
34	0xbd61cf9e	-0.05512964
35	0x3abca0a2	0.0014391134
36	0x3bfefdb5	0.007781709
37	0x3abca094	0.0014391118
38	0x3abca08a	0.0014391106
39	0x3abca098	0.0014391122
40	0x3abca0a9	0.0014391142
41	0xbbf2d3f4	-0.0074105207
42	0x3abca07e	0.0014391092
43	0x3abca0c2	0.0014391171
44	0x3a9d336c	0.0011993474
45	0x3abca0ba	0.0014391162
46	0x3f051c0b	0.51995915
47	0x3abca095	0.0014391119
48	0x3b9b7cd6	0.004745106
49	0x3b299164	0.0025874013

regressor.6.weight f4 [1, 50]
0	0xbc243e36	-0.010024598
1	0x408464ac	4.137289
2	0x40d4641e	6.6372213
3	0x40904b29	4.509175
4	0xbc243e05	-0.010024552
5	0x4091cb67	4.5560794
6	0xbc243e16	-0.010024568
7	0x40bb482d	5.8525605
8	0x40802ab2	4.005212
9	0x40a6034a	5.1879015
10	0x4075fa68	3.8434086
11	0xbc243e3f	-0.010024606
12	0xbc243e35	-0.010024597
13	0xbc243e19	-0.010024571
14	0x40c65362	6.1976786
15	0xbc243e3e	-0.010024605
16	0x40bcd25d	5.900679
17	0x40839694	4.112131
18	0xbc243e29	-0.010024586
19	0xbc243e41	-0.010024608
20	0x4064edd6	3.5770164
21	0x40b545cd	5.6647706
22	0xbc243e33	-0.010024595
23	0x40a93df9	5.288815
24	0xbc243e2e	-0.01002459
25	0x408e8be0	4.4545746
26	0x409419dd	4.628157
27	0xbc243e36	-0.010024598
28	0x408367fb	4.106443
29	0x4092f5dc	4.592512
30	0xbc243e37	-0.010024599
31	0x40998f43	4.798738
32	0x40bbd21d	5.8693986
33	0xbc243e3e	-0.010024605
34	0xbe82100e	-0.25402874
35	0xbc243e30	-0.010024592
36	0x40c195ad	6.049521
37	0xbc243e2d	-0.0100245895
38	0xbc243e30	-0.010024592
39	0xbc243e2e	-0.01002459
40	0xbc243e37	-0.010024599
41	0x409a42b5	4.820643
42	0xbc243e26	-0.010024583
43	0xbc243e3f	-0.010024606
44	0x40901343	4.5023513
45	0xbc243e41	-0.010024608
46	0x3f92b10b	1.1460279
47	0xbc243e35	-0.010024597
48	0x40b55884	5.667055
49	0x4083387a	4.100644
