saved-networks/FourLayerNet_V5-2020_09_29-18_52_19.pth (torch_old, 1610 bytes, 7 tensors)

regressor.0.weight f4 [4, 1]
0	0x3f1ac7b4	0.6046097
1	0xbbf946d9	-0.0076073227
2	0x3ff36a91	1.9016896
3	0x3f1f3950	0.62196827

regressor.0.bias f4 [4]
0	0x3fcb5175	1.5884234
1	0xbc18e5ba	-0.009332115
2	0xc0c5ebc4	-6.18503
3	0x3fd2b4bc	1.6461406

regressor.2.weight f4 [2, 4]
0	0x3e627b6f	0.22117399
1	0xbc62dc2c	-0.013846438
2	0xbfeff237	-1.8745793
3	0x3e7066c0	0.23476696
4	0xbfb258c6	-1.3933342
5	0x3a35a555	0.00069292384
6	0x40dc234a	6.8793077
7	0xbfba3b41	-1.4549333

regressor.2.bias f4 [2]
0	0x3ea2c7bb	0.31793007
1	0xbf85b8f1	-1.0447065

regressor.4.weight f4 [2, 2]
0	0xa3d77935	-2.336168e-17
1	0x24078c3a	2.9392235e-17
2	0x3fe0e6f2	1.7570479
3	0x40e84d07	7.2594028

regressor.4.bias f4 [2]
0	0x243ea123	4.133617e-17
1	0x3ee6eb9e	0.45101637

regressor.6.weight f4 [1, 2]
0	0x235577ee	1.1572149e-17
1	0x40f07da9	7.5153394
