saved-networks/FourLayerNet_V5-2020_09_29-19_22_47.pth (torch_old, 1610 bytes, 7 tensors)

regressor.0.weight f4 [4, 1]
1.2621876 1.3680824 -0.004088481 1.1700016
00000000: 5d8f a13f 531d af3f aaf8 85bb 9dc2 953f

regressor.0.bias f4 [4]
0.52098197 0.47504532 1.2568172 -3.339523
00000000: 135f 053f 2439 f33e 63df a03f bfba 55c0

regressor.2.weight f4 [2, 4]
0.44835073 0.6690935 0.13139628 -3.5906851 0.67822766 0.19388576 -0.9801677 -1.0399336
00000000: 3a8e e53e b649 2b3f bf8c 063e c9cd 65c0
00000010: 54a0 2d3f fd89 463e 45ec 7abf 8b1c 85bf

regressor.2.bias f4 [2]
-0.5737139 -0.6158761
00000000: eade 12bf 0eaa 1dbf

regressor.4.weight f4 [2, 2]
-3.5594406 -1.7336198 -3.3220177 -1.2990856
00000000: e0cd 63c0 41e7 ddbf f09b 54c0 7048 a6bf

regressor.4.bias f4 [2]
1.1550442 0.46171528
00000000: 7dd8 933f f265 ec3e

regressor.6.weight f4 [1, 2]
-34.322468 -36.569004
00000000: 354a 09c2 a946 12c2
