saved-networks/FourLayerNet_V4-2020_09_15-11_55_18.pth (torch_old, 5348 bytes, 7 tensors)

regressor.0.weight f4 [32, 8]
5.9901133 -1.1453465 1.43738 -0.23648787 0.28912622 1.037241 3.0183802 1.7878526
-1.0714867 -0.082257375 -0.25860596 0.24589872 0.25278047 0.20375404 1.6727732 0.13094057
0.116510846 0.409242 -0.745779 -0.1759347 0.55486625 -0.01591131 -0.95505714 -0.093363695
-0.3801365 -0.75972265 -0.3924747 -0.103847116 -2.562836 0.34415767 -0.34596494 0.0061474578
-0.004065148 0.0023260044 -0.00044948977 -0.0021855892 -0.019652171 -0.013038909 -0.012964436 -0.0074523627
1.0298891 -0.12029825 -0.47051227 0.018178828 -3.8721278 0.45376295 3.131039 0.6211989
5.4702005 0.19243798 0.14784434 0.5872895 -0.4118666 0.1466262 4.768414 0.33572534
-7.48766 0.94287217 -0.6255478 -0.35574046 -0.8452811 0.35416734 6.2447686 1.0324434
-2.557212 -0.5732422 -0.6595287 0.8409722 0.30964452 1.1188381 3.3134205 0.87470967
-2.284275 0.14622402 -0.42184538 0.21754575 0.19008026 0.7617261 1.4821807 0.5838855
6.068231 -0.8748568 0.7252565 -0.6405537 0.24026553 0.012949375 5.02069 0.17442033
-0.00997316 0.0066482616 -0.0044683726 0.008995862 0.014233532 0.0061769336 0.009411966 0.00028298557
-3.1815002 -0.6976915 -0.024627458 0.06951647 0.39532954 0.3185468 -0.8436862 -0.16569997
-2.3772256 0.3218051 -0.2054228 0.075519666 0.22066894 0.65952903 1.4653198 0.53923774
0.0023172926 0.0155620575 0.02004471 -0.0060713026 0.0039701723 0.004918412 0.0048130057 0.0063063623
3.5829937 -3.3562825 -0.14125286 0.22082973 0.08915901 0.13350177 -0.9623288 0.6434502
-0.031126421 0.018223887 -0.016946642 0.0129465135 -0.009695771 -0.010675108 -0.016171705 -0.011499884
1.0181364 -2.4009054 -0.105200574 0.016814131 -0.17433223 -0.8682234 -0.07147613 -1.0318474
-6.7617064 -0.24584769 0.077823944 -0.31905967 -0.14415109 0.45474386 -0.16871046 0.15756072
-1.6148025 -0.12440553 1.0004667 0.30969715 0.40502402 0.6605717 2.8474054 0.975337
0.0033287357 -0.017230362 -0.0027765485 -0.0040840437 0.0009028279 0.0035890776 0.008140255 0.0027162994
0.018129742 -0.01283273 0.00513159 -0.0074382806 0.011578388 0.008992673 0.021131055 0.0058762603
-1.5850497 0.013410113 -0.6917367 -1.2648228 -0.76135427 1.2067409 3.092899 1.2082216
6.9814997 3.43203 -0.751026 0.070064746 -0.08604501 1.1490738 1.154199 0.765007
2.6615613 1.4708161 0.49386618 -0.3188453 -0.09381492 3.498828 -2.5626125 3.1257339
-0.016790314 0.011282927 -0.006508799 0.011972234 0.011818542 0.004615066 0.005465562 -0.0006260779
-0.00944653 -0.010430924 -0.022425933 0.00095829525 -0.0067576645 -0.0052054725 -0.00052403077 -0.0066983746
-0.32262924 -0.075511836 0.6088494 -0.46348405 0.08114801 1.1046041 1.8963282 1.5921534
0.0031166703 0.01102024 0.003206575 0.009064897 0.0183655 0.008797321 0.009116796 0.0042455075
-3.737525 0.4833128 -0.4671076 0.36689323 0.18093832 0.9148052 1.2340846 0.7685954
5.334585 6.3589396 0.6024284 -0.47423637 0.22977348 0.4849627 -0.7185401 0.1175029
-0.71113706 -0.40399605 0.717928 0.37763336 -1.541513 1.3709291 -3.7927096 0.7736446
00000000: 02af bf40 b79a 92bf 11fc b73f e029 72be
00000010: 5a08 943e 50c4 843f 242d 4140 5bd8 e43f
00000020: 7a26 89bf 8e76 a8bd 0068 84be e0cc 7b3e
00000030: 716c 813e e6a4 503e 6f1d d63f 4915 063e
00000040: 3d9d ee3d 2b88 d13e 5feb 3ebf 3a28 34be
00000050: b70b 0e3f 7058 82bc a07e 74bf 7735 bfbd
00000060: 40a1 c2be 2f7d 42bf 72f2 c8be ccad d4bd
00000070: 8105 24c0 6f35 b03e 5122 b1be 9d70 c93b
00000080: ef34 85bb e16f 183b 7fa9 ebb9 1a3c 0fbb
00000090: 97fd a0bc 26a1 55bc c968 54bc f332 f4bb
000000a0: 68d3 833f ee5e f6bd fce6 f0be c4eb 943c
000000b0: f1d0 77c0 9e53 e83e f162 4840 e406 1f3f
000000c0: e20b af40 760e 453e 8264 173e 9b58 163f
000000d0: 2ee0 d2be 2e25 163e d996 9840 31e4 ab3e
000000e0: e99a efc0 1260 713f e723 20bf 9d23 b6be
000000f0: 5864 58bf 6c55 b53e 25d5 c740 1b27 843f
00000100: 5da9 23c0 00c0 12bf dfd6 28bf f449 573f
00000110: ba89 9e3e 1636 8f3f 150f 5440 f9ec 5f3f
00000120: 9031 12c0 c0bb 153e 1efc d7be 50c4 5e3e
00000130: 66a4 423e 7b00 433f 19b8 bd3f 8579 153f
00000140: f32e c240 9ef6 5fbf 69aa 393f 54fb 23bf
00000150: 2b08 763e 9e29 543c 7ea9 a040 3e9b 323e
00000160: 7766 23bc a9d9 d93b 6d6b 92bb 6163 133c
00000170: c333 693c e067 ca3b a634 1a3c ae5d 9439
00000180: b39d 4bc0 e99b 32bf 86bf c9bc a75e 8e3d
00000190: a268 ca3e 9118 a33e d2fb 57bf 41ad 29be
000001a0: 7724 18c0 a3c3 a43e 5b5a 52be 0eaa 9a3d
000001b0: 0af7 613e e5d6 283f 998f bb3f 7c0b 0a3f
000001c0: b8dd 173b 00f8 7e3c ce34 a43c c7f1 c6bb
000001d0: 3818 823b a12a a13b 6bb6 9d3b 9aa5 ce3b
000001e0: c54f 6540 55cd 56c0 97a4 10be 3021 623e
000001f0: 0099 b63d b0b4 083e 2e5b 76bf 27b9 243f
00000200: d6fc febc 434a 953c afd3 8abc 9d1d 543c
00000210: 03db 1ebc a6e6 2ebc 867a 84bc 026a 3cbc
00000220: 4b52 823f 6fa8 19c0 6673 d7bd cabd 893c
00000230: 2684 32be e443 5ebf 1462 92bd 9313 84bf
00000240: e65f d8c0 7fbf 7bbe 2962 9f3d ca5b a3be
00000250: 589c 13be 30d4 e83e 6fc2 2cbe 9957 213e
00000260: d9b1 cebf 54c8 febd 4b0f 803f a090 9e3e
00000270: 4f5f cf3e 3a1b 293f e43b 3640 b0af 793f
00000280: eb26 5a3b b026 8dbc c1f6 35bb 71d3 85bb
00000290: c1ab 6c3a bb36 6b3b b45e 053c f103 323b
000002a0: d384 943c 5f40 52bc e626 a83b d2bc f3bb
000002b0: 47b3 3d3c 0156 133c 091b ad3c a58d c03b
000002c0: e9e2 cabf 17b6 5b3c a815 31bf b7e5 a1bf
000002d0: 1de8 42bf 7c76 9a3f 0ff2 4540 01a7 9a3f
000002e0: 7268 df40 61a6 5b40 3d43 40bf 1b7e 8f3d
000002f0: 5e38 b0bd da14 933f cbbc 933f 80d7 433f
00000300: 0557 2a40 b443 bc3f 07dc fc3e b13f a3be
00000310: 0922 c0bd ccec 5f40 d801 24c0 060c 4840
00000320: d78b 89bc 07dc 383c c347 d5bb 3027 443c
00000330: 8fa2 413c fb39 973b 7518 b33b 601f 24ba
00000340: 9ec5 1abc 77e6 2abc 97b6 b7bc 1b36 7b3a
00000350: 666f ddbb ab92 aabb 1c5f 09ba 0a7e dbbb
00000360: a92f a5be f3a5 9abd 8edd 1b3f c84d edbe
00000370: ee30 a63d ab63 8d3f e2ba f23f afcb cb3f
00000380: 0d41 4c3b 3d8e 343c 6725 523b ef84 143c
00000390: 3f73 963c a322 103c 9d5e 153c e61d 8b3b
000003a0: 9c33 6fc0 c674 f73e ba28 efbe 6ed9 bb3e
000003b0: e547 393e ac30 6a3f 7cf6 9d3f abc2 443f
000003c0: ecb4 aa40 6f7c cb40 bf38 1a3f 1ccf f2be
000003d0: bd49 6b3e 084d f83e 3ef2 37bf 5ca5 f03d
000003e0: 140d 36bf 92d8 cebe 21ca 373f 2959 c13e
000003f0: 4c50 c5bf 9b7a af3f c1bb 72c0 930d 463f

regressor.0.bias f4 [32]
-4.0919476 -0.39833704 0.12417578 -0.5078262 0.0033268533 2.329546 -4.8961897 -5.515607
-2.8717244 -1.1099316 -4.7767196 -0.0036480278 -0.09585905 -0.9467521 -0.0064335037 1.9802597
0.009939929 2.1646407 0.7874284 -0.77894217 -0.0005443847 -0.0028287198 -1.2428477 0.8876819
0.2768018 -0.0023617954 0.007972209 -0.07733502 -0.003040387 -1.4133636 0.86588424 -1.2482115
00000000: 3cf1 82c0 d5f2 cbbe df4f fe3d e600 02bf
00000010: 5607 5a3b 4817 1540 96ad 9cc0 da7f b0c0
00000020: 55ca 37c0 3d12 8ebf e3da 98c0 c013 6fbb
00000030: c051 c4bd 585e 72bf 24d0 d2bb 2679 fd3f
00000040: 15db 223c 7989 0a40 e894 493f c168 47bf
00000050: 0ab5 0eba 0b62 39bb a215 9fbf 1f3f 633f
00000060: f7b8 8d3e 5ac8 1abb de9d 023c d361 9ebd
00000070: 3b41 47bb 19e9 b4bf 97aa 5d3f 65c5 9fbf

regressor.2.weight f4 [16, 32]
1.6088681 0.22044216 0.566384 -0.44817147 0.012694216 1.6687005 1.5578715 -2.413269
-0.07816539 -0.07652786 1.8702855 -0.012565854 0.5683569 -0.09891734 -0.008874843 1.4906296
-0.0026607562 1.141412 -0.5395858 0.39553556 -0.0041616783 -0.0101854475 -0.35177204 1.7353876
0.0078978585 -0.012627243 3.7343234e-05 0.27660632 -0.005231847 -0.41858676 1.9691473 -1.2503389
-2.1826503 0.43327132 -0.5348717 0.23766717 -0.018654075 -0.65816635 -3.1492157 3.2658315
1.9004586 0.89694476 -3.2806585 0.0028405471 -1.1537678 0.8048028 0.0038642846 0.85157335
-0.042107176 -0.51641774 -0.27982783 1.3337198 0.008375404 0.024894489 1.5356233 -1.9785951
-1.8749745 -0.0068712807 -0.018989142 1.0271933 0.017201077 1.1065166 -1.8948884 -0.7052652
-1.7105442 -0.38902777 0.0400818 -0.93613154 0.006942541 -0.068649575 -1.2707787 3.3299441
0.29869232 -0.21016912 -1.272852 -0.0106351385 -0.18546635 -0.042952023 0.01088082 -0.6462825
-0.014565273 -0.8511607 1.8793367 0.36069545 -0.0008083243 0.005372883 0.2944954 -1.7800508
-2.1743996 -0.01164172 -0.011545726 0.7836156 -0.0078570265 0.4161623 -1.7563673 -1.1568259
-1.3648354 0.35498866 -0.2619 -0.14953482 -0.017180396 0.5218188 -3.845339 1.5685865
2.0487669 0.5557887 -2.9990568 0.0110545065 -1.4443758 0.45481154 -0.0012094803 0.9494339
0.0015448491 -1.4657328 -0.51171184 1.5268872 8.599855e-05 0.007669591 1.3103559 -0.21270832
-1.9886352 0.010371132 -0.0045299293 1.6965505 0.018130824 0.6356783 -0.12667978 -1.8185911
1.1302894 0.18760192 0.11349235 -0.5485258 0.011279823 0.78696865 0.6595323 -1.625008
-0.08821126 0.099843584 1.053193 -0.010090671 0.43962312 0.085205056 0.0058052535 0.48485607
0.0028292483 0.13974853 -0.20739283 0.39638022 -0.008810682 -0.012987644 0.037223835 0.9070709
0.005304698 -0.006512376 -0.011360458 0.3119131 -0.010029567 -0.04179788 0.6273409 -0.7406132
-1.5916309 0.29904827 -0.7097717 -0.23225515 0.002823845 -0.3233398 -2.4055083 2.3300683
1.6194116 0.6374726 -1.71686 -0.0031126386 1.4626004 0.65623784 0.0035515015 -0.4177405
-0.010584216 -0.04505559 2.9176471 1.1779915 0.00035259244 0.0070592086 1.971319 -1.2751571
-1.0514132 -0.0036374687 -0.0017785684 0.43627802 -0.0009051129 1.1884538 -0.84262383 1.2075721
1.4782703 0.1209128 0.26715052 -0.7318679 0.015055227 1.1454304 0.8858947 -2.0420108
-0.041309346 0.002640367 1.3009226 -0.012726981 0.49957976 -0.025590336 -7.097989e-05 0.6807433
0.0051731206 0.30927077 -0.24494827 0.3556838 -0.01013917 -0.015619392 -0.015542835 1.1037433
-0.042492382 -0.009036784 -0.009164983 0.3299904 -0.008854054 -0.19583584 1.0811125 -1.1730603
-4.527863 0.7005565 0.49355185 1.3536537 -0.013436473 -2.8720853 -3.2841518 6.616603
1.9603695 1.2087433 -3.8760772 0.016479865 0.6669898 1.2964118 -0.0003097328 -3.2537627
0.016608866 -0.6019024 2.0688276 1.4733893 -0.00962044 -0.005889779 1.6779611 -2.6956494
-1.7262211 0.019842992 -0.011657793 0.7611038 0.017866006 1.8650215 -2.7393744 0.46456873
00000000: 64ef cd3f 97bb 613e 8bfe 103f bb76 e5be
00000010: 67fb 4f3c fa97 d53f 5568 c73f 0073 1ac0
00000020: 2d15 a0bd a3ba 9cbd 8465 ef3f 03e1 4dbc
00000030: d67f 113f 2d95 cabd ca67 11bc f3cc be3f
00000040: 1560 2ebb ca19 923f 4c22 0abf a383 ca3e
00000050: b05e 88bb dde0 26bc 771b b4be 2e21 de3f
00000060: 0566 013c 7fe2 4ebc fea0 1c38 589f 8d3e
00000070: ea6f abbb 0151 d6be 050d fc3f 1b0b a0bf
00000080: 8bb0 0bc0 bdd5 dd3e 5aed 08bf 065f 733e
00000090: 6ed0 98bc 977d 28bf c08c 49c0 6203 5140
000000a0: 3a42 f33f 2c9e 653f 4ff6 51c0 7928 3a3b
000000b0: aaae 93bf 8e07 4e3f f03f 7d3b b600 5a3f
000000c0: 9378 2cbd f433 04bf 9845 8fbe 55b7 aa3f
000000d0: fe38 093c 87ef cb3c 4e8f c43f 9b42 fdbf
000000e0: 2aff efbf 7b28 e1bb 1e8f 9bbc 127b 833f
000000f0: 46e9 8c3c 56a2 8d3f b48b f2bf 438c 34bf
00000100: 1df3 dabf a62e c7be d02c 243d 51a6 6fbf
00000110: 417e e33b 2698 8cbd e0a8 a2bf ce1d 5540
00000120: 33ee 983e 9336 57be d0ec a2bf 013f 2ebc
00000130: e4ea 3dbe 76ee 2fbd 7845 323c c572 25bf
00000140: 2fa3 6ebc abe5 59bf 1b8e f03f 13ad b83e
00000150: bae5 53ba 020f b03b 1ac8 963e b4d8 e3bf
00000160: 5d29 0bc0 eabc 3ebc 492a 3dbc 089b 483f
00000170: c2ba 00bc 3a13 d53e a5d0 e0bf df12 94bf
00000180: edb2 aebf 13c1 b53e c217 86be a81f 19be
00000190: e7bd 8cbc eb95 053f 091a 76c0 71c7 c83f
000001a0: ff1e 0340 2b48 0e3f 8cf0 3fc0 f61d 353c
000001b0: 4ee1 b8bf 0fdd e83e 6d87 9eba 1a0e 733f
000001c0: 897c ca3a 229d bbbf 8cff 02bf 0a71 c33f
000001d0: 1f5a b438 3151 fb3b beb9 a73f 36d0 59be
000001e0: 998b febf aeeb 293c cd6f 94bb 9128 d93f
000001f0: 1887 943c d0bb 223f 58b8 01be 98c7 e8bf
00000200: 53ad 903f b81a 403e ad6e e83d 306c 0cbf
00000210: 02cf 383c c776 493f 1cd7 283f 4300 d0bf
00000220: 1ba8 b4bd cb7a cc3d 07cf 863f 5753 25bc
00000230: 4816 e13e fd7f ae3d ff39 be3b 0e3f f83e
00000240: e96a 393b 3d1a 0f3e c95e 54be 59f2 ca3e
00000250: ae5a 10bc 21ca 54bc 0578 183d cc35 683f
00000260: 08d3 ad3b c565 d5bb 3721 3abc 13b3 9f3e
00000270: 0e53 24bc 4134 2bbd 6a99 203f d498 3dbf
00000280: 90ba cbbf db1c 993e 99b3 35bf 4bd4 6dbe
00000290: 4210 393b cb8c a5be d9f3 19c0 d71f 1540
000002a0: e148 cf3f 6831 233f 12c2 dbbf 69fd 4bbb
000002b0: 7d36 bb3f 34ff 273f 4fc0 683b 15e2 d5be
000002c0: 6b69 2dbc 368c 38bd bbba 3a40 6dc8 963f
000002d0: 28dc b839 ef50 e73b 2e54 fc3f 5938 a3bf
000002e0: b594 86bf 9962 6ebb da1e e9ba d55f df3e
000002f0: 1945 6dba 411f 983f 32b6 57bf b991 9a3f
00000300: f637 bd3f 21a1 f73d f4c7 883e b25b 3bbf
00000310: 33aa 763c 779d 923f ffc9 623f 4eb0 02c0
00000320: fd33 29bd 020a 2d3b a284 a63f d484 50bc
00000330: ebc8 ff3e d3a2 d1bc 0adb 94b8 3145 2e3f
00000340: 4883 a93b bd58 9e3e b8d3 7abe 301c b63e
00000350: c31e 26bc 7ae8 7fbc 60a7 7ebc 7647 8d3f
00000360: 7e0c 2ebd 050f 14bc ba28 16bc 80f4 a83e
00000370: 9810 11bc 3189 48be e561 8a3f d726 96bf
00000380: 41e4 90c0 ac57 333f d4b2 fc3e 8644 ad3f
00000390: a724 5cbc 3fd0 37c0 8b2f 52c0 36bb d340
000003a0: 63ed fa3f 1ab8 9a3f a611 78c0 c800 873c
000003b0: d8bf 2a3f d2f0 a53f a263 a2b9 a63d 50c0
000003c0: 510f 883c 4716 1abf ac67 0440 0598 bc3f
000003d0: 0d9f 1dbc 0cff c0bb 6ec7 d63f 8585 2cc0
000003e0: d0f4 dcbf c58d a23c 5400 3fbc b3d7 423f
000003f0: bb5b 923c 06b9 ee3f e951 2fc0 f4db ed3e

regressor.2.bias f4 [16]
0.53129274 0.010732786 0.9173365 -0.1464612 -0.048808012 -0.26902193 0.11435908 0.5338875
0.37441376 0.059870947 0.069490425 -0.03531838 -0.03850323 -0.043013506 -0.19535172 -0.48099944
00000000: cd02 083f 91d8 2f3c 91d6 6a3f edf9 15be
00000010: e9ea 47bd 3ebd 89be 1835 ea3d daac 083f
00000020: 29b3 bf3e 3d3b 753d ff50 8e3d 01aa 10bd
00000030: 90b5 1dbd ee2e 30bd 480a 48be 8f45 f6be

regressor.4.weight f4 [8, 16]
-3.0840971 4.3277316 2.5839162 2.8940544 -1.6460199 2.4155564 -2.2252908 7.140487
3.0235016 3.53034 -1.5359138 6.5593643 -0.0045948103 -0.78586173 3.9157202 -1.7954005
-3.8006217 3.7858841 2.8675902 1.8813297 -1.9732939 2.6070719 -2.721734 7.545156
3.395794 3.7986448 -1.9358257 6.9777107 -0.03601141 -0.9079453 3.215711 -2.4003408
-1.3667488 3.5793679 2.1220052 3.7051816 -0.86426055 1.95828 -0.9010511 5.0092745
2.4748461 2.5514276 -0.70599455 3.6981206 0.02436827 -0.5343281 3.924091 -2.135912
-0.37755013 1.5261331 0.97580624 2.322844 -0.12118237 1.8709741 -0.19076489 1.4514848
0.64106864 0.90796167 -0.079072796 -0.53988147 -0.016964126 -0.062430333 1.2247695 -0.19283238
-2.4170918 2.4648948 1.8286725 1.2265289 -1.2295448 1.648749 -1.7117605 4.883565
2.1983578 2.4466186 -1.2090192 4.515478 -0.025417298 -0.5550516 2.090741 -1.4925922
-0.008577631 0.20673983 0.05316194 1.0860094 0.055417575 1.0495532 -0.01956826 0.27900255
0.123669825 0.060193196 -0.066021316 -0.38197732 -0.08988274 0.09371649 0.28434807 0.010944525
-0.69111854 2.2147636 2.6339185 2.8536894 0.037115067 0.9557822 -0.041378498 2.9383454
1.5847774 1.6437589 -0.042722434 0.5227771 0.034703646 0.1255298 2.6635904 -0.88926935
0.42225912 0.08443921 0.14289135 -0.7036126 -0.060548864 -1.2761705 0.042193472 0.017142836
-0.15164287 0.10449477 0.11360455 -0.0169628 0.12014108 -0.015740367 -0.06098407 -0.12706481
00000000: d961 45c0 c77c 8a40 e25e 2540 3038 3940
00000010: c8b0 d2bf 7a98 1a40 2a6b 0ec0 df7e e440
00000020: 0d81 4140 17f1 6140 d398 c4bf 50e6 d140
00000030: 1090 96bb 3c2e 49bf 299b 7a40 afcf e5bf
00000040: 633d 73c0 ed4b 7240 9986 3740 69cf f03f
00000050: e594 fcbf 44da 2640 e430 2ec0 eb71 f140
00000060: b054 5940 ff1c 7340 23c9 f7bf 6849 df40
00000070: b380 13bd 1a6f 68bf 36ce 4d40 2f9f 19c0
00000080: a0f1 aebf 5d14 6540 efce 0740 b221 6d40
00000090: 2e40 5dbf eba8 fa3f 49ab 66bf fa4b a040
000000a0: e163 1e40 974a 2340 0fbc 34bf 02ae 6c40
000000b0: f79f c73c bac9 08bf 4f24 7b40 c8b2 08c0
000000c0: 404e c1be 5458 c33f 70ce 793f 7aa9 1440
000000d0: 762e f8bd 147c ef3f df57 43be 41ca b93f
000000e0: 131d 243f 2d70 683f ebf0 a1bd ac35 0abf
000000f0: 5af8 8abc f3b6 7fbd 3fc5 9c3f da75 45be
00000100: a2b1 1ac0 d6c0 1d40 f111 ea3f e6fe 9c3f
00000110: b961 9dbf 350a d33f f81a dbbf 2a46 9c40
00000120: e5b1 0c40 6695 1c40 24c1 9abf cc7e 9040
00000130: f037 d0bc dd17 0ebf b3ce 0540 430d bfbf
00000140: 3189 0cbc 9bb3 533e 56c0 593d 5b02 8b3f
00000150: 8afd 623d c257 863f 9e4d a0bc 6cd9 8e3e
00000160: 9b46 fd3d 248d 763d 2f36 87bd 8892 c3be
00000170: 7114 b8bd 6eee bf3d 1296 913e aa50 333c
00000180: 25ed 30bf b0be 0d40 1f92 2840 d9a2 3640
00000190: f805 183d 24ae 743f 807c 29bd da0d 3c40
000001a0: fcd9 ca3f b166 d23f b8fd 2ebd b8d4 053f
000001b0: 6925 0e3d e28a 003e 4478 2a40 28a7 63bf
000001c0: 5932 d83e 77ee ac3d 1c52 123e f51f 34bf
000001d0: 1602 78bd 8e59 a3bf 10d3 2c3d 226f 8c3c
000001e0: 4548 1bbe 5b01 d63d 81a9 e83d 92f5 8abc
000001f0: 870c f63d f1f1 80bc 6fca 79bd 471d 02be

regressor.4.bias f4 [8]
-0.08704964 -0.038808204 0.31920677 -0.45631388 -0.023629183 -0.24322166 -0.06575113 0.2469788
00000000: 1547 b2bd 5af5 1ebd 126f a33e f9a1 e9be
00000010: fd91 c1bc 190f 79be 87a8 86bd 03e8 7c3e

regressor.6.weight f4 [1, 8]
13.849771 14.506287 10.315802 2.243513 9.337092 0.4462586 6.173732 -0.27151626
00000000: a998 5d41 c019 6841 860d 2541 b895 0f40
00000010: bb64 1541 027c e43e 368f c540 2e04 8bbe
