saved-networks/FourLayerNet_V4-2020_09_15-17_12_40.pth (torch_old, 4923 bytes, 7 tensors)

regressor.0.weight f4 [28, 7]
-2.3720844 0.6656006 -0.6469242 0.15580232 0.55072606 1.4259572 0.8356265 1.0338535
-0.44807854 -0.18970314 -4.0268483 0.7042517 1.9162258 0.5998263 -2.7815814 -0.16301037
-0.6210881 -0.1896806 -0.116488606 -4.225877 -0.40681535 7.4763994 -1.7908492 1.1096851
0.60190773 0.47013745 4.1015487 1.1454498 2.888721 -5.4442945 -0.65993 -0.27630135
-0.1701055 0.020522607 0.17415643 -2.8218467 -0.87406063 -0.15287979 -0.8929585 0.5370668
-3.0006642 0.14185159 2.2606497 -1.201767 2.32637 -0.9036416 1.6949763 -0.45565316
1.5817438 -3.233248 0.08837162 -0.07135018 0.00836831 0.5560015 0.66590255 0.46505323
0.6179585 0.1483563 1.2890345 0.5544623 0.026116801 -2.8975935 -0.18895817 0.23989174
-2.7135615 1.8471513 1.8633509 0.8733828 -0.8842058 0.14649189 -2.2325528 0.3806584
-0.57130784 -0.25256228 -0.08845728 -4.5417256 -0.33815193 -2.2551079 -0.13664554 0.3522839
-0.032911085 0.7209145 0.8589454 0.59678906 -1.6005669 -0.3589075 1.0279611 -0.8832474
0.36211404 0.39127752 0.24479428 -3.5588853 0.308879 -0.42098156 0.027027022 0.5850348
0.5726808 0.52884376 -3.6837442 0.58188456 -0.7255582 0.04143161 0.6876422 0.60334986
0.736064 3.5035367 1.7422212 0.008813082 0.01704656 2.9829204 -2.5374615 2.6751285
-3.601748 0.45935518 -0.60991234 0.03535002 0.6425446 0.5793788 0.64299107 9.085929
5.2524323 -0.47869915 0.15875025 1.119604 1.3887365 0.724199 -2.699429 0.4747359
-0.6289116 0.07961684 0.63326967 0.85357577 0.6977659 -3.0178883 -0.24860987 0.5332246
-0.040397536 0.9801262 1.0218915 0.8883749 -1.8634945 2.045961 -0.8647785 -0.850443
0.21457987 2.8673773 0.5285722 -4.5731754 0.8730942 -0.8856875 0.031435356 0.7936836
0.4620249 0.8813654 0.4069516 1.5319779 -0.15618774 -0.3349107 0.06506889 -3.3229294
-0.12512413 0.9042875 1.7064545 -0.06878458 -0.34179816 0.11732539 -3.0447452 -0.0734169
-3.0122154 -0.08295522 0.27187243 -0.013156983 0.75314254 0.92807066 0.6533248 -3.4362175
0.6064895 -0.7534864 0.05550084 0.69997823 0.69147813 0.7766223 -2.3273396 2.288852
-0.86842597 -0.98809075 0.087075315 2.65986 0.40509138 -3.4165883 0.4358287 -0.6119345
0.039005406 0.6482777 0.6080391 0.6411325
00000000: 3bd0 17c0 cd64 2a3f d39c 25bf a58a 1f3e
00000010: 62fc 0c3f c485 b63f 9eeb 553f 5055 843f
00000020: 8d6a e5be 8a41 42be f1db 80c0 d749 343f
00000030: e346 f53f 378e 193f 6e05 32c0 31ec 26be
00000040: a1ff 1ebf a23b 42be 9491 eebd 623a 87c0
00000050: 1a4a d0be aa3e ef40 8c3a e5bf 290a 8e3f
00000060: a016 1a3f dbb5 f03e e33f 8340 199e 923f
00000070: cee0 3840 a937 aec0 2cf1 28bf 5f77 8dbe
00000080: 2330 2ebe 071f a83c 1056 323e 2399 34c0
00000090: 70c2 5fbf 858c 1cbe ee98 64bf 367d 093f
000000a0: e20a 40c0 8b41 113e 7cae 1040 80d3 99bf
000000b0: 3fe3 1440 0e55 67bf fcf4 d83f 5f4b e9be
000000c0: 9576 ca3f 89ed 4ec0 2efc b43d 0b20 92bd
000000d0: 3c1b 093c 1d56 0e3f 9778 2a3f 751b ee3e
000000e0: 8732 1e3f b7ea 173e 15ff a43f 3ef1 0d3f
000000f0: e7f2 d53c 2c72 39c0 407e 41be 2ea6 753e
00000100: feaa 2dc0 746f ec3f 4882 ee3f 0496 5f3f
00000110: 505b 62bf f801 163e 25e2 0ec0 a8e5 c23e
00000120: 3b41 12bf d84f 81be 1729 b5bd d155 91c0
00000130: 4022 adbe b053 10c0 cfec 0bbe 8e5e b43e
00000140: c6cd 06bd da8d 383f d9e3 5b3f 2bc7 183f
00000150: 60df ccbf b9c2 b7be 3b94 833f 801c 62bf
00000160: 0367 b93e 8755 c83e 5aab 7a3e c7c4 63c0
00000170: 6325 9e3e e58a d7be c667 dd3c d7c4 153f
00000180: 359b 123f 4e62 073f 77c2 6bc0 63f6 143f
00000190: 2fbe 39bf 31b4 293d 5209 303f 2375 1a3f
000001a0: b16e 3c3f f239 6040 1b01 df3f bf64 103c
000001b0: 3aa5 8b3c 2be8 3e40 c565 22c0 4e35 2b40
000001c0: 0a83 66c0 9a30 eb3e 3723 1cbf 2fcb 103d
000001d0: ce7d 243f 2b52 143f 109b 243f f75f 1141
000001e0: ed13 a840 0e18 f5be 6d8f 223e 2f4f 8f3f
000001f0: 1ec2 b13f 1b65 393f 72c3 2cc0 9510 f33e
00000200: 5a00 21bf 270e a33d f61d 223f f183 5a3f
00000210: c9a0 323f 1525 41c0 9693 7ebe 6881 083f
00000220: e377 25bd 8de9 7a3f 57cd 823f 8a6c 633f
00000230: fd86 eebf 06f1 0240 2062 5dbf a2b6 59bf
00000240: d3ba 5b3e 1c83 3740 8250 073f 7457 92c0
00000250: 1a83 5f3f 6abc 62bf 5cc2 003d d92e 4b3f
00000260: 878e ec3e 2aa1 613f f65b d03e da17 c43f
00000270: aeef 1fbe 6a79 abbe d742 853d e0aa 54c0
00000280: 8a20 00be 637f 673f 1a6d da3f eede 8cbd
00000290: 2b00 afbe 4b48 f03d 1bdd 42c0 9a5b 96bd
000002a0: 23c8 40c0 6de4 a9bd dd32 8b3e 6390 57bc
000002b0: f3cd 403f 0a96 6d3f 4b40 273f fdea 5bc0
000002c0: e542 1b3f 7ce4 40bf d954 633d c631 333f
000002d0: b604 313f b8d0 463f 22f3 14c0 8d7c 1240
000002e0: 2a51 5ebf 84f3 7cbf 8b54 b23d 253b 2a40
000002f0: 2368 cf3e 62a9 5ac0 f024 df3e bda7 1cbf
00000300: 22c4 1f3d 87f5 253f 73a8 1b3f 4221 243f

regressor.0.bias f4 [28]
-0.09171875 2.7834966 3.8820596 -4.3451023 1.554479 -0.98666716 -0.6082676 0.32271716
4.4150515 0.13141753 4.525123 0.7367007 1.714563 -0.04390482 -0.43539882 1.086248
-0.28791916 1.2542646 -0.46177933 0.8950372 0.16651765 -0.530164 4.1318145 3.9818735
0.6686681 -0.53604704 -0.20426574 -0.3281173
00000000: 0ad7 bbbd cf24 3240 aa73 7840 140b 8bc0
00000010: 2bf9 c63f 3896 7cbf 6db7 1bbf 2f3b a53e
00000020: 1a48 8d40 5192 063e cfcd 9040 6b98 3c3f
00000030: cd76 db3f 8ad5 33bd 98ec debe 2d0a 8b3f
00000040: 246a 93be be8b a03f 576e ecbe 2821 653f
00000050: 9a83 2a3e d4b8 07bf d337 8440 04d7 7e40
00000060: d52d 2b3f 613a 09bf 0a2b 51be fefe a7be

regressor.2.weight f4 [14, 28]
-0.19205227 1.6748799 0.11488308 1.4425215 1.043131 -0.3707323 0.42352673 -0.18543233
0.36568335 0.038257338 0.21858023 -0.11996518 -0.008277938 -0.25080758 -0.32181212 0.726475
-0.29116362 1.9307858 -0.22314613 -0.2044768 0.7755723 -0.44555026 0.1182536 0.09403925
-0.18181223 -0.3038558 0.63810974 -0.27750012 0.76995265 0.14774731 -0.6529239 -1.9633706
-2.2489867 0.12198289 -1.4593188 0.5921636 -0.5861002 1.4474083 -0.9048718 0.35598484
0.07318242 0.72216785 0.8262811 -1.2415183 0.779605 -1.5779673 0.72374785 0.49033484
0.525898 0.9474986 -0.9893581 -0.9856741 0.52222884 0.8225192 0.9384565 0.75928783
-0.17685223 -0.6420202 0.6830882 -0.0037410187 -0.795691 2.9365203 0.75908995 0.9269276
-0.048065916 0.0031705478 0.2659224 0.767153 1.2822386 0.9026266 0.8835047 -1.507682
0.87072396 -4.5024724 0.47180018 1.0450777 -0.62109673 1.2742894 -0.5696374 -0.6692865
0.92229193 0.77864987 -0.48678055 0.80901444 -0.13879769 1.5092684 0.10012375 1.5500771
1.1808082 -0.58604693 0.3836119 -0.15137048 0.3435561 0.0849194 0.19576827 -0.10477282
-0.113302894 -0.21176259 -0.2879488 0.62796366 -0.25498274 2.0481064 -0.19114771 -0.19461998
0.80166835 -0.4111667 0.06284326 0.031055152 -0.15992281 -0.27273554 0.6602831 -0.24310651
0.3397371 -0.6419723 0.3287043 -1.8457538 -1.1157488 2.2797914 0.10158095 1.3451831
0.15829808 0.5987603 0.02989824 1.2626895 1.2823476 1.1699759 0.87600046 -1.7680038
0.97680515 -3.210628 0.46588612 1.6277512 -0.1866212 1.179101 -0.467052 -0.51404786
1.4693708 0.69452953 -0.12523784 0.8777323 1.0927546 1.131747 -3.0665793 -4.3550367
0.370247 -1.45312 -0.84006685 0.867544 -1.08103 1.9653738 -2.9422152 1.1477584
0.7919176 0.74118644 0.8170626 -2.2674437 0.7536867 -1.4734533 0.70984393 1.4943501
0.9931977 1.028588 -0.992958 -0.657046 1.2391921 0.81815106 0.9924993 0.7210736
-0.20165737 1.7855881 0.12233205 1.536619 1.1768067 -0.37823287 0.5302605 -0.18674462
0.36672744 0.048627913 0.22283095 -0.117765054 0.008829977 -0.25518265 -0.32872394 0.79111475
-0.29709923 2.017189 -0.22976723 -0.19961803 0.7929238 -0.45276004 0.106703915 0.07987729
-0.1808824 -0.3111322 0.6444561 -0.28343508 -0.14597306 1.5926447 0.11030341 1.6564096
1.2038324 -0.567752 0.37551495 -0.17701079 0.36825818 0.07038965 0.21726675 -0.1240627
-0.12730823 -0.23888251 -0.31572 0.6868909 -0.28210217 2.1776981 -0.20606782 -0.22372203
0.8483631 -0.45133832 0.08934664 0.057660908 -0.18569347 -0.2967545 0.7146565 -0.2681181
2.456432 -0.111104034 -3.4757292 -5.4959736 -3.3087728 0.2773244 -2.4253721 2.2539902
-4.5984235 2.0250661 -4.4696608 1.2901396 0.07535164 2.7399454 3.0607743 -2.810272
2.9154198 -3.6441066 2.4757664 1.612648 2.3521798 3.6692743 -4.5646715 -4.4812236
1.8531523 2.9701169 2.8072038 2.8114552 -0.17299522 1.6276451 0.11256193 1.5208392
00000000: 5aa9 44be 7762 d63f d247 eb3d 8ba4 b83f
00000010: 5185 853f a0d0 bdbe 7fd8 d83e f9e1 3dbe
00000020: d93a bb3e bab3 1c3d 7fd3 5f3e 4eb0 f5bd
00000030: 30a0 07bc da69 80be 8fc4 a4be 44fa 393f
00000040: 6613 95be fd23 f73f 6b80 64be 5e62 51be
00000050: e88b 463f 2a1f e4be f22e f23d a697 c03d
00000060: fc2c 3abe fd92 9bbe 295b 233f 7f14 8ebe
00000070: 9e1b 453f 124b 173e 0526 27bf ba4f fbbf
00000080: 66ef 0fc0 2ad2 f93d f5ca babf 0998 173f
00000090: aa0a 16bf ad44 b93f aea5 67bf a543 b63e
000000a0: aae0 953d fedf 383f 2887 533f 12ea 9ebf
000000b0: 3194 473f d5fa c9bf 8a47 393f 2b0d fb3e
000000c0: 40a1 063f 458f 723f 9346 7dbf 2355 7cbf
000000d0: cab0 053f 9e90 523f af3e 703f b060 423f
000000e0: c018 35be 705b 24bf dede 2e3f e12b 75bb
000000f0: 68b2 4bbf f3ef 3b40 b853 423f 214b 6d3f
00000100: c4e0 44bd f7c8 4f3b fb26 883e 2464 443f
00000110: 6520 a43f 8912 673f 5d2d 623f b9fb c0bf
00000120: c4e7 5e3f 4114 90c0 cb8f f13e 1bc5 853f
00000130: 3200 1fbf ea1b a33f c2d3 11bf 5c56 2bbf
00000140: 531b 6c3f 9955 473f 4d3b f9be 921b 4f3f
00000150: fb20 0ebe b52f c13f ae0d cd3d ed68 c63f
00000160: b924 973f 2c07 16bf c768 c43e dd00 1bbe
00000170: 96e6 af3e 39ea ad3d 7a77 483e 2293 d6bd
00000180: 590b e8bd 4bd8 58be 066e 93be 3ac2 203f
00000190: 198d 82be 2d14 0340 3abc 43be 764a 47be
000001a0: 233a 4d3f 7184 d2be f8b3 803d 6067 fe3c
000001b0: cec2 23be fea3 8bbe 5008 293f eaf0 78be
000001c0: 05f2 ad3e 4c58 24bf ee4b a83e a941 ecbf
000001d0: dbd0 8ebf 1ae8 1140 ac09 d03d f62e ac3f
000001e0: e418 223e 5b48 193f 27ed f43c cf9f a13f
000001f0: f723 a43f c5c1 953f 9141 603f f34d e2bf
00000200: e70f 7a3f ee7a 4dc0 a088 ee3e 275a d03f
00000210: a119 3fbe c8ec 963f 7121 efbe a498 03bf
00000220: 5814 bc3f b0cc 313f 593e 00be 10b3 603f
00000230: 62df 8b3f 16dd 903f d642 44c0 765c 8bc0
00000240: 0491 bd3e d6ff b9bf 9f0e 57bf 5d17 5e3f
00000250: 315f 8abf 5e91 fb3f 414d 3cc0 bfe9 923f
00000260: 1dbb 4a3f 65be 3d3f 042b 513f cc1d 11c0
00000270: 9df1 403f 1e9a bcbf 55b8 353f dd46 bf3f
00000280: 3442 7e3f c6a8 833f 7f32 7ebf 2b34 28bf
00000290: d99d 9e3f 5972 513f 6f14 7e3f 4898 383f
000002a0: 457f 4ebe 278e e43f 3a89 fa3d eeaf c43f
000002b0: 9aa1 963f bda7 c1be 27bf 073f fb39 3fbe
000002c0: b3c3 bb3e 102e 473d cc2d 643e ce2e f1bd
000002d0: 9cab 103c 4da7 82be 814e a8be 7f86 4a3f
000002e0: 641d 98be a019 0140 1a48 6bbe ab68 4cbe
000002f0: 0efd 4a3f 2ad0 e7be 9587 da3d b496 a33d
00000300: 3c39 39be b84c 9fbe 13fb 243f 671e 91be
00000310: f679 15be c8db cb3f c1e6 e13d 3b05 d43f
00000320: 2e17 9a3f 3258 11bf 7f43 c03e 5142 35be
00000330: 568c bc3e 7328 903d 2d7b 5e3e 9614 febd
00000340: 175d 02be 9e9d 74be 0da6 a1be 15d8 2f3f
00000350: b26f 90be 685f 0b40 7103 53be 6317 65be
00000360: 532e 593f d115 e7be 5ffb b63d d82d 6c3d
00000370: 6e26 3ebe 35f0 97be baf3 363f c746 89be
00000380: 2f36 1d40 838a e3bd 5972 5ec0 04df afc0
00000390: efc2 53c0 77fd 8d3e 4c39 1bc0 6041 1040
000003a0: 4926 93c0 af9a 0140 7607 8fc0 4b23 a53f
000003b0: f651 9a3d 445b 2f40 bae3 4340 7fdb 33c0
000003c0: 3d96 3a40 0b39 69c0 f572 1e40 406b ce3f
000003d0: 1d8a 1640 64d5 6a40 ca11 92c0 2f66 8fc0
000003e0: 1834 ed3f 6516 3e40 3aa9 3340 e2ee 3340
000003f0: a925 31be ad56 d03f df86 e63d dcaa c23f

regressor.2.bias f4 [14]
-0.12713559 -0.065248154 -0.36252072 -0.12550248 0.16941702 0.8060501 -0.13795893 -0.13261963
-0.53366584 -0.12951152 -0.13230214 1.3240976 -0.1780763 -0.1343371
00000000: d52f 02be d3a0 85bd 519c b9be b983 00be
00000010: a87b 2d3e 4d59 4e3f 1b45 0dbe 71cd 07be
00000020: 539e 08bf ab9e 04be 367a 07be 087c a93f
00000030: a259 36be aa8f 09be

regressor.4.weight f4 [14, 14]
0.04074031 0.02357676 -0.24604045 0.02653435 -0.8927519 -0.12779585 -0.01427036 0.07701573
0.17968012 0.026816413 0.07342581 -0.33683622 0.0012806793 0.059438057 -1.5363164 2.1302648
1.8780375 -1.5168501 2.4124405 2.0013635 -1.6505898 -1.6036786 6.5961556 -1.5607083
-1.5977842 1.5940784 3.5499208 -1.6187452 -1.448372 2.1954923 1.8368914 -1.4084483
2.2100523 2.3074965 -1.5495012 -1.4904383 7.2543573 -1.4597919 -1.480773 1.7814163
3.6905456 -1.5069795 -1.3087101 2.3949876 2.0540378 -1.3202277 2.3064754 3.1846097
-1.3985707 -1.4006602 7.0519133 -1.3407321 -1.4016851 2.442266 3.8020356 -1.4059426
-0.16013424 0.068978935 2.3969538 -0.16776714 1.0560439 1.1867806 -0.14681266 -0.1946886
0.18100229 -0.15891494 -0.2017973 1.4641062 0.3654507 -0.18339673 -0.28100672 0.50616086
0.31216666 -0.25943553 0.53989345 0.38787356 -0.30576923 -0.2704641 1.3553115 -0.27808422
-0.2651043 0.25799197 0.7251733 -0.27832362 -0.16321087 0.74915487 2.446782 -0.3430476
1.0910634 1.4833384 -0.17063834 -0.3684929 0.7394153 -0.24764514 -0.40700966 1.8251344
0.9938636 -0.3341229 -1.4769015 2.0505593 1.7971892 -1.4566078 2.3260288 1.9233075
-1.5865679 -1.5400763 6.3404593 -1.4995679 -1.5340807 1.525257 3.4135718 -1.554802
-1.5004873 2.081749 1.828777 -1.4807259 2.3650024 1.9497696 -1.6121339 -1.5656325
6.4298077 -1.5239918 -1.5596958 1.5495731 3.4648497 -1.580505 -0.724453 1.5991299
1.342336 -0.6513916 1.5289047 3.9162161 -0.69337314 -0.76146364 2.779282 -0.68785745
-0.749478 3.1344433 2.3452368 -0.75209945 -0.1070958 -0.24313812 1.3168634 -0.059099793
1.4189385 0.6370733 -0.10943202 -0.08598676 0.075287424 -0.08794911 -0.07522317 1.2219217
0.13194577 -0.090476446 0.023647577 -0.11749616 0.11318844 0.04646314 0.10466658 0.19781592
0.033021454 0.037459366 0.024504192 0.035364512 0.041926533 0.34296298 0.03393536 0.03662743
-1.007887 1.9929067 1.4454271 -1.0630424 1.9653976 4.3025627 -1.0386615 -1.1554922
4.9025035 -1.0454184 -1.1672876 3.1309469 3.265654 -1.1388297 -0.008115293 0.014206875
0.0355198 -0.04953799 -0.019934183 0.017793998 -0.01727493 -0.040757224 0.00026261428 -0.027055811
-0.05042444 -0.15807515 0.00031498782 -0.036503747
00000000: 50df 263d 0d24 c13c 07f2 7bbe 915e d93c
00000010: 638b 64bf eadc 02be 3ace 69bc 6cba 9d3d
00000020: 11fe 373e 18ae db3c 4560 963d cc75 acbe
00000030: 77dc a73a 5275 733d 04a6 c4bf 4256 0840
00000040: 8863 f03f 2528 c2bf 6d65 1a40 5716 0040
00000050: 8746 d3bf 5745 cdbf b513 d340 4ac5 c7bf
00000060: 3184 ccbf c30a cc3f e731 6340 0b33 cfbf
00000070: 4164 b9bf f282 0c40 421f eb3f 0948 b4bf
00000080: 7f71 0d40 06ae 1340 0e56 c6bf afc6 bebf
00000090: b223 e840 76da babf f889 bdbf 7305 e43f
000000a0: e631 6c40 b4e4 c0bf d083 a7bf 7a47 1940
000000b0: 5b75 0340 39fd a8bf 4b9d 1340 a5d0 4b40
000000c0: 5d04 b3bf d548 b3bf 46a9 e140 1c9d abbf
000000d0: 6b6a b3bf 164e 1c40 8d54 7340 edf5 b3bf
000000e0: 3bfa 23be d444 8d3d b167 1940 26cb 2bbe
000000f0: 722c 873f 6de8 973f 0f56 16be 735c 47be
00000100: aa58 393e 99ba 22be f4a3 4ebe d567 bb3f
00000110: 5b1c bb3e 5acc 3bbe 1de0 8fbe c293 013f
00000120: 4fd4 9f3e bcd4 84be 7536 0a3f 5d97 c63e
00000130: c98d 9cbe 457a 8abe d97a ad3f 0e61 8ebe
00000140: c0bb 87be 8617 843e f5a4 393f 6f80 8ebe
00000150: c020 27be 9dc8 3f3f 1498 1c40 efa3 afbe
00000160: f7a7 8b3f 08de bd3f d1bb 2ebe 1aab bcbe
00000170: 524a 3d3f b096 7dbe 9263 d0be 019e e93f
00000180: d86d 7e3f 2812 abbe 1c0b bdbf 5d3c 0340
00000190: 4c0a e63f 2072 babf a8dd 1440 f12e f63f
000001a0: a814 cbbf 3821 c5bf 0be5 ca40 d7f1 bfbf
000001b0: c25c c4bf 9f3b c33f f677 5a40 c003 c7bf
000001c0: f80f c0bf 603b 0540 5d15 ea3f 6d88 bdbf
000001d0: 335c 1740 0d92 f93f 675a cebf a566 c8bf
000001e0: fcc0 cd40 2a12 c3bf 1da4 c7bf 6958 c63f
000001f0: 19c0 5d40 fd4d cabf c075 39bf 4ab0 cc3f
00000200: abd1 ab3f 9ac1 26bf 26b3 c33f 49a3 7a40
00000210: e780 31bf 48ef 42bf c2df 3140 6d17 30bf
00000220: cadd 3fbf b89a 4840 5c18 1640 9789 40bf
00000230: 0b55 dbbd 33f9 78be fb8e a83f a012 72bd
00000240: c79f b53f 3c17 233f e51d e0bd d419 b0bd
00000250: 4b30 9a3d aa1e b4bd 9b0e 9abd ee67 9c3f
00000260: cb1c 073e b74b b9bd 90b8 c13c d4a1 f0bd
00000270: 57cf e73d 2250 3e3d 6f5b d63d 4290 4a3e
00000280: 8141 073d fe6e 193d 04bd c83c 61da 103d
00000290: 28bb 2b3d d898 af3e ceff 0a3d a506 163d
000002a0: 7102 81bf 9117 ff3f c103 b93f c611 88bf
000002b0: 2692 fb3f 98ae 8940 dcf2 84bf 2be7 93bf
000002c0: 4fe1 9c40 45d0 85bf ae69 95bf 6f61 4840
000002d0: 7a00 5140 2cc5 91bf 02f6 04bc f4c3 683c
000002e0: 367d 113d 59e8 4abd 034d a3bc b8c4 913c
000002f0: 2784 8dbc 0cf1 26bd 7eaf 8939 26a4 ddbc
00000300: dc89 4ebd 74de 21be f324 a539 f484 15bd

regressor.4.bias f4 [14]
0.21605827 0.06519867 0.026192332 0.07348565 -0.20837379 0.029305099 0.11591053 0.06152678
0.06302235 0.1536777 -0.14442094 -0.043503407 0.04359439 0.026904386
00000000: 613e 5d3e e186 853d 4d91 d63c a57f 963d
00000010: f05f 55be 3f11 f03c 8062 ed3d 8103 7c3d
00000020: dd11 813d b05d 1d3e 15e3 13be a130 32bd
00000030: 0890 323d 9666 dc3c

regressor.6.weight f4 [1, 14]
-0.19151545 9.694473 10.120757 10.402884 1.0417247 1.9847045 2.81098 9.317
9.4565935 6.458558 0.3878005 0.11051336 8.8211565 0.13644233
00000000: a01c 44be 901c 1b41 9fee 2141 3672 2641
00000010: 3c57 853f cc0a fe3f 19e7 3340 6f12 1541
00000020: 354e 1741 82ac ce40 ca8d c63e d454 e23d
00000030: 7523 0d41 8ab7 0b3e
