saved-networks/FourLayerNet_V5-2020_09_29-19_10_24.pth (torch_old, 1610 bytes, 7 tensors)

regressor.0.weight f4 [4, 1]
00000000: 7124 b7bf fd0f eebf 653b 4a3f f01f b7bf
-1.4307996 -1.8598629 0.7899688 -1.4306622

regressor.0.bias f4 [4]
00000000: 9b26 7340 4ad1 bc40 ef42 e4bf 6c1b 7340
3.7992313 5.900548 -1.7832927 3.7985487

regressor.2.weight f4 [2, 4]
00000000: b28f 93c0 69fb d7c0 0060 40bf fc89 93c0
00000010: e230 093f 93c3 eebe 2f98 87bf 043b 093f
-4.611291 -6.7494397 -0.75146484 -4.610594 0.53590214 -0.46633586 -1.0593318 0.53605676

regressor.2.bias f4 [2]
00000000: bea5 90bf 6e8a 573e
-1.130058 0.210489

regressor.4.weight f4 [2, 2]
00000000: 199b 69c0 9676 4740 199b 69c0 9676 4740
-3.6500914 3.116613 -3.6500914 3.116613

regressor.4.bias f4 [2]
00000000: 0f40 b4bf 0f40 b4bf
-1.4082049 -1.4082049

regressor.6.weight f4 [1, 2]
00000000: 6396 0dc2 6396 0dc2
-35.396862 -35.396862
