saved-networks/LongNet_V1.pth (torch_old, 34405 bytes, 19 tensors)

regressor.0.weight f4 [20, 11]
0.017402347 -0.039733846 0.03417772 0.0128273545 0.0052450905 -0.019490873 -0.00988745 0.0070020785
-0.007054043 -0.024951367 -0.016159406 0.0026977763 -0.005948693 -0.0110470895 -0.00044930694 0.016138367
-0.007853794 -0.021517003 0.0037726902 0.0028027028 -0.0008602966 -0.016138054 0.019646004 -0.032048605
0.042315457 0.029597249 0.0044361497 -0.0077495906 -0.01967893 0.010452359 -0.01826121 -0.0076081287
-0.018925028 -4.674306 -0.13600451 -0.18533847 -0.030715419 -0.018863184 0.081306435 0.28026715
-0.030263966 1.0258329 0.05559159 0.13388568 -0.0043580667 0.0010909501 0.005422444 0.0031475949
-0.021898523 0.012988383 0.015534202 -0.012307357 -0.0072805253 0.016301896 0.020103954 0.00631687
-0.0032217419 -0.009471956 -0.0032682174 0.018582607 -0.0054704146 -0.02202308 0.015440498 -0.008804359
-0.003688725 -0.021393431 0.0038754006 -0.023392638 0.020928847 0.00048675836 0.018780118 -0.026452586
-0.01137546 0.0036855894 0.01586229 -0.03878824 -0.024311567 0.007623629 -0.030096332 0.03930724
0.009120576 0.021791507 -0.03659056 -0.010059337 -0.0034774323 0.024694476 -0.044713393 -0.01960997
0.009267708 -0.038665306 0.03681485 0.003277631 0.010893602 -0.017181726 -0.008312615 0.010188686
-0.004283797 -0.028326193 -0.019847874 0.018552983 -0.016018558 0.031443294 0.032759447 0.0024065522
0.0021464555 -0.017858008 0.01728515 -0.017245788 0.002017185 -0.016835425 2.1538682 -0.12244422
0.07545079 0.028738406 -0.042280965 -0.007693783 0.31844983 -0.04851861 1.1163192 0.09561478
0.4020336 -0.41990322 0.9109128 0.40095025 0.082489334 -0.08105543 0.018949777 0.7023325
-1.0770178 -0.9909131 -0.21693082 0.4243465 -0.119247146 -0.2552555 0.08333079 0.073100984
-0.4778084 -0.08131336 -0.24033932 0.06169298 -0.011912172 -0.08736361 -0.25698793 0.459464
1.8957046 -0.04304284 0.04556879 -0.051942747 0.15478955 0.28751588 -0.14426808 -1.2703358
-0.08982891 0.07015304 0.0067265946 -0.02589688 0.031497195 0.0029562437 0.011534374 -0.027698308
-0.004569429 -0.0080661485 0.024453748 -0.03511311 -0.012796029 -0.46655354 -0.3687694 0.06320125
0.025603944 0.017299943 0.2973995 -0.034879036 -0.1374931 -2.146112 -0.18954785 -0.35072953
0.08170849 -0.37226745 -0.510132 0.04879573 -0.11099 -0.3852174 -0.96838266 0.617117
-0.049506597 -0.32827878 -0.9299273 0.0049968576 0.0071994346 0.0035477993 -0.0014153499 -0.001536756
0.007140172 -0.0058706985 0.0074952045 -0.017676985 0.008209627 -0.00468586 0.010041813 -0.025209535
0.02621299 0.004077707 0.004036154 -0.017373282 -0.012697977 0.000547854 -0.0047976417 -0.01542243
-0.010860168 0.010614012 -0.0012249614 0.009500475 0.0066896616 0.0035178591 0.008057464 -0.013997783
0.005432173 -0.017448865 0.0046320003 -0.01760873
00000000: 5e8f 8e3c f5bf 22bd f0fd 0b3d d329 523c
00000010: 02df ab3b 53ab 9fbc f9fe 21bc b171 e53b
00000020: 9a25 e7bb cf66 ccbc bb60 84bc 2dcd 303b
00000030: 41ed c2bb dafe 34bc f590 ebb9 9c34 843c
00000040: 33ad 00bc 6d44 b0bc 3d3f 773b 8dad 373b
00000050: 8785 61ba f433 84bc a8f0 a03c 6645 03bd
00000060: f952 2d3d ee75 f23c 1f5d 913b 47f0 fdbb
00000070: b535 a1bc 5f40 2b3c 8898 95bc 9c4d f9bb
00000080: a908 9bbc ea93 95c0 c444 0bbe 5ec9 3dbe
00000090: e79e fbbc f786 9abc fd83 a63d 2d7f 8f3e
000000a0: 23ec f7bc 7e4e 833f 02b4 633d 5419 093e
000000b0: 1dce 8ebb 36fe 8e3a c2ae b13b e147 4e3b
000000c0: 8864 b3bc 3acd 543c 2a83 7e3c cca4 49bc
000000d0: 7991 eebb 8e8b 853c 0cb1 a43c bffd ce3b
000000e0: dc23 53bb 4330 1bbc 972f 56bb 8d3a 983c
000000f0: 2a41 b3bb bf69 b4bc 24fa 7c3c 2840 10bc
00000100: 89be 71bb 4741 afbc 6ffa 7d3b eba1 bfbc
00000110: f972 ab3c 9a33 ff39 c3d8 993c 18b3 d8bc
00000120: 2360 3abc ee89 713b a2f1 813c 6be0 1ebd
00000130: 0d29 c7bc a3cf f93b 958c f6bc a100 213d
00000140: 786e 153c 1a84 b23c fcdf 15bd ebcf 24bc
00000150: a2e5 63bb 124c ca3c 6425 37bd 16a5 a0bc
00000160: 96d7 173c 835f 1ebd 2bcb 163d 86cd 563b
00000170: 147b 323c b1c0 8cbc a231 08bc 72ee 263c
00000180: 185f 8cbb 550c e8bc 0298 a2bc 6dfc 973c
00000190: 5a39 83bc afca 003d c52e 063d 3fb7 1d3b
000001a0: 8cab 0c3b f54a 92bc 9699 8d3c 0a47 8dbc
000001b0: c032 043b 72ea 89bc fad8 0940 09c4 fabd
000001c0: f285 9a3d ce6c eb3c ce2e 2dbd 211c fcbb
000001d0: db0b a33e 73bb 46bd 8ce3 8e3f afd1 c33d
000001e0: 59d7 cd3e 8efd d6be 9531 693f 5a49 cd3e
000001f0: 2bf0 a83d 6400 a6bd 903c 9b3c 10cc 333f
00000200: b8db 89bf 7bac 7dbf 1d23 5ebe f243 d93e
00000210: d937 f4bd d9b0 82be 55a9 aa3d f8b5 953d
00000220: 4da3 f4be 9e87 a6bd 831b 76be c7b1 7c3d
00000230: 452b 43bc b1eb b2bd ec93 83be de3e eb3e
00000240: 73a6 f23f b04d 30bd 57a6 3a3d ebc1 54bd
00000250: 2781 1e3e 4835 933e 03bb 13be 5d9a a2bf
00000260: 38f8 b7bd 66ac 8f3d c46a dc3b b225 d4bc
00000270: 3403 013d 8abd 413b acfa 3c3c 90e7 e2bc
00000280: 26bb 95bb e127 04bc 3a53 c83c c4d2 0fbd
00000290: 70a6 51bc 1be0 eebe 58cf bcbe a86f 813d
000002a0: 5dbf d13c 9cb8 8d3c bf44 983e 52dd 0ebd
000002b0: feca 0cbe e659 09c0 d518 42be d292 b3be
000002c0: c856 a73d d799 bebe 0398 02bf 08de 473d
000002d0: ba4e e3bd 373b c5be ede7 77bf 61fb 1d3f
000002e0: 6ec7 4abd 2814 a8be b70f 6ebf aebc a33b
000002f0: 3ce9 eb3b 3282 683b 4383 b9ba fa6c c9ba
00000300: 1bf8 e93b fd5e c0bb 559a f53b 53cf 90bc
00000310: ac81 063c d88b 99bb 6b86 243c 3a84 cebc
00000320: a0bc d63c 499e 853b b741 843b 6a52 8ebc
00000330: 2d0b 50bc dc9d 0f3a 8935 9dbb 5cae 7cbc
00000340: d9ee 31bc 65e6 2d3c e28e a0ba e1a7 1b3c
00000350: f334 db3b e28b 663b 7403 043c f556 65bc
00000360: 5f00 b23b ecf0 8ebc 09c8 973b 2f40 90bc

regressor.0.bias f4 [20]
-0.012797914 -0.0033165452 -0.015870525 -0.71817505 0.0029371327 -0.011524817 -0.000827173 -0.0032005804
-0.0140788695 -0.015783012 -0.87713367 -0.49880582 -0.14621708 0.6914097 0.0024425103 1.6866363
0.29940808 -0.0026476437 -0.004583639 -0.0043832236
00000000: 58ae 51bc 655a 59bb e702 82bc 52da 37bf
00000010: e97c 403b 96d2 3cbc a4d6 58ba d4c0 51bb
00000020: 0fab 66bc 604b 81bc d58b 60bf 7a63 ffbe
00000030: eeb9 15be 3a00 313f 8612 203b b3e3 d73f
00000040: 044c 993e 1784 2dbb 5a32 96bb 25a1 8fbb

regressor.2.weight f4 [20, 20]
-0.01599222 -0.013433139 -0.011281821 -1.7637079 0.0128794545 -0.01709425 -0.023104066 -0.024132274
-0.020798307 -0.006784361 0.2125928 -0.47260466 -0.255687 0.20626964 -0.017293481 0.059974983
0.71253073 -0.0016680332 -0.014077228 -0.0055223936 0.019707741 -0.014386672 0.03281008 -0.33595
0.02531863 -0.017228413 -0.020553999 -0.017353922 0.009754485 0.026956856 -0.15919732 -0.7496277
-0.027920948 -0.4247611 -0.009339873 0.34343907 0.773987 0.0026100983 0.0073495274 0.003264305
-0.008494712 -0.004863864 -0.006564695 0.0021302165 0.0057237563 -0.00854162 -0.007482308 -0.007626175
-0.008214427 -0.0043860027 0.0011490014 -0.02008472 0.0047737374 0.0006190737 -0.0050985427 0.0012526857
-0.031532142 -0.0016246793 -0.0072827353 -0.0024891405 0.007937216 0.013193289 -0.004784998 1.2929888
-0.008983583 0.006437646 0.009044387 0.025114784 -0.008518616 -0.008317983 -0.93637097 -0.30591983
-0.12582137 -0.513049 0.009981665 -1.0166172 -0.14327908 0.0023930867 0.006719395 0.011419358
0.007722927 0.0052445866 0.00699058 -0.0030302457 -0.0070514544 0.009322801 0.007484583 0.006773564
0.0083946595 0.0051507 0.0025639692 0.011657485 -0.0124193365 0.0060755797 0.0047673527 0.0059187007
0.031324018 0.0009685625 0.006934631 0.0022271099 -0.0002709325 -0.00022165389 7.8126584e-05 0.0025967686
0.0005712006 -0.00031276778 -0.00070536224 -0.0008717428 -0.00027309323 0.00028009195 0.0006654177 -0.0036699758
-0.0034968606 -0.00024196695 -0.0007645286 -2.903509e-06 -0.001535628 -2.5226354e-05 -0.00040701005 8.538607e-05
-0.011460574 -0.0039379816 -0.011566231 0.007571337 0.0032271752 -0.007885871 -0.0059414003 -0.006524028
-0.009432354 -0.009609686 -0.0012508532 -0.026580572 0.014801821 0.008835036 -0.0040230663 -0.0011753493
-0.04247077 -0.0016458054 -0.008754344 -0.0034548366 0.0015889576 -0.0013023949 -0.000754011 -0.0043290635
0.0034119643 -0.0021809922 -0.0024644267 -0.0021610784 -1.6783546e-05 -0.00033495924 -0.003450147 0.0045257458
0.0009190208 -0.006462656 -0.001654682 -0.0024348334 0.004633317 -0.00015860406 -0.00057845464 0.00043983557
0.0068489555 -0.0046621454 0.009445356 -0.014743625 0.013798414 -0.0043631443 -0.007942425 -0.004506173
6.98379e-05 0.012262775 -0.0027861928 0.0050946507 -0.038908403 -0.04028317 -0.0048063975 0.0053135236
0.024990479 0.0005112067 0.0019796658 0.0019961402 -0.016629025 -0.00085359527 -0.016448863 0.005234877
-0.0046653133 -0.0049195644 -0.003493222 -0.006237628 -0.010571646 -0.016118458 0.0018008108 0.0039365008
0.022633279 0.025080768 -0.004023368 -0.005679161 -0.027164228 -0.0015337113 -0.008797356 -0.00618708
-0.0055227047 -0.0033280768 0.0012432635 2.2318513 0.006255671 0.0023100304 -0.010291338 -0.024002265
0.0009981219 0.010819628 -1.7006978 0.4142176 -0.038029384 -1.0442125 -0.015353312 -1.4808313
-0.25187737 -0.0018305483 -0.0062557547 -0.0061464948 -0.005286413 -0.0018617847 0.0055452855 -0.5140248
0.0047468436 -0.004858672 -0.009402505 -0.0072895503 -0.015122491 0.017128563 0.58039194 -0.52266616
-0.04813434 1.1478095 -0.010258909 -0.61243093 -0.772558 0.0033138725 -0.009187367 0.005566487
-0.011487557 -0.0042721946 -0.01137742 0.0071213283 0.003930931 -0.008305849 -0.00645905 -0.006926777
-0.009695723 -0.009285261 -0.0013240022 -0.027992165 0.014713408 0.007982081 -0.00431405 -0.0008018356
00000000: 1e02 83bc ab16 5cbc 63d7 38bc 2ec1 e1bf
00000010: 5904 533c 3e09 8cbc bd44 bdbc 0cb1 c5bc
00000020: 3661 aabc 584f debb edb1 593e 3df9 f1be
00000030: 68e9 82be 5938 533e 0fab 8dbc 54a8 753d
00000040: 6a68 363f e8a1 daba 2ca4 66bc 32f5 b4bb
00000050: 2172 a13c 13b6 6bbc dd63 063d a301 acbe
00000060: 0469 cf3c 9a22 8dbc dc60 a8bc d029 8ebc
00000070: 47d1 1f3c a0d4 dc3c 9f04 23be 9ae7 3fbf
00000080: 79ba e4bc 497a d9be 4406 19bc 3fd7 af3e
00000090: 0324 463f 2f0e 2b3b 4ed4 f03b f3ed 553b
000000a0: 682d 0bbc 0c61 9fbb a71c d7bb 1a9b 0b3b
000000b0: 598e bb3b 27f2 0bbc 262e f5bb fee4 f9bb
000000c0: ce95 06bc 75b8 8fbb 179a 963a b688 a4bc
000000d0: 036d 9c3b 5549 223a ad11 a7bb 2831 a43a
000000e0: d927 01bd 31f3 d4ba 03a4 eebb d920 23bb
000000f0: 190b 023c aa28 583c 79cb 9cbb a880 a53f
00000100: e12f 13bc e4f2 d23b e92e 143c 85bd cd3c
00000110: aa91 0bbc 2648 08bc 02b6 6fbf 86a1 9cbe
00000120: 51d7 00be 2e57 03bf 238a 233c 8320 82bf
00000130: c0b7 12be 55d5 1c3b 5f2e dc3b 4218 3b3c
00000140: 9b10 fd3b c8da ab3b 3c11 e53b 1697 46bb
00000150: e30f e7bb a9be 183c 3c41 f53b c6f4 dd3b
00000160: c189 093c 34c7 a83b 4408 283b 09ff 3e3c
00000170: 797a 4bbc a815 c73b 7437 9c3b a9f1 c13b
00000180: 9d4d 003d 21e7 7d3a e73b e33b b4f4 113b
00000190: f20b 8eb9 c36b 68b9 e4d7 a338 8c2e 2a3b
000001a0: a0bc 153a fbfa a3b9 0fe8 38ba ab85 64ba
000001b0: f42d 8fb9 4ed9 9239 6d6f 2e3a fa83 70bb
000001c0: 962b 65bb 82b8 7db9 a56a 48ba e8d9 42b6
000001d0: 2047 c9ba 2f9d d3b7 f763 d5b9 4c11 b338
000001e0: 22c5 3bbc 2f0a 81bb 4a80 3dbc fa18 f83b
000001f0: 047f 533b be33 01bc 14b0 c2bb 83c7 d5bb
00000200: 298a 1abc f271 1dbc abf3 a3ba 80bf d9bc
00000210: 5683 723c d4c0 103c edd3 83bb 2e0e 9aba
00000220: d5f5 2dbd 11b8 d7ba 616e 0fbc 8a6a 62bb
00000230: 9244 d03a 1fb5 aaba d2a8 45ba d1da 8dbb
00000240: 439b 5f3b faee 0ebb 3882 21bb e1a0 0dbb
00000250: 64ca 8cb7 789d afb9 dd1b 62bb b54c 943b
00000260: 71ea 703a b0c4 d3bb eae1 d8ba ba91 1fbb
00000270: 14d3 973b f44e 26b9 6fa3 17ba bb99 e639
00000280: 346d e03b e9c4 98bb b2c0 1a3c 3f8f 71bc
00000290: be12 623c b5f8 8ebb f220 02bc 85a8 93bb
000002a0: f075 9238 cee9 483c 8f98 36bb 07f1 a63b
000002b0: 6b5e 1fbd f7ff 24bd fc7e 9dbb 111d ae3b
000002c0: d5b8 cc3c 8002 063a 48bd 013b add1 023b
000002d0: 9839 88bc cfc3 5fba c4bf 86bc 5589 ab3b
000002e0: 7cdf 98bb 4c34 a1bb 8aee 64bb 0465 ccbb
000002f0: b234 2dbc db0a 84bc 2f09 ec3a c3fd 803b
00000300: 6d69 b93c 2f76 cd3c 75d6 83bb 4118 babb
00000310: 8487 debc d006 c9ba c922 10bc fdbc cabb
00000320: cef7 b4bb dd1b 5abb 00f5 a23a a7d6 0e40
00000330: 5ffc cc3b e163 173b 009d 28bc 66a0 c4bc
00000340: 6ad3 823a cf44 313c 77b0 d9bf 5414 d43e
00000350: b3c4 1bbd c1a8 85bf 758c 7bbc e18b bdbf
00000360: 12f6 80be 02ef efba 13fd ccbb 8968 c9bb
00000370: a539 adbb 2107 f4ba 3ab5 b53b 2197 03bf
00000380: 698b 9b3b 7f35 9fbb f70c 1abc 2edd eebb
00000390: 53c4 77bc 3351 8c3c 9194 143f 73cd 05bf
000003a0: 8428 45bd 6ceb 923f fc14 28bc 46c8 1cbf
000003b0: 5cc6 45bf 8e2d 593b 9c86 16bc 1467 b63b
000003c0: 4e36 3cbc c4fd 8bbb 5c68 3abc 085a e93b
000003d0: 0acf 803b 4115 08bc 70a6 d3bb 04fa e2bb
000003e0: cfda 1ebc 3521 18bc 248a adba d34f e5bc
000003f0: 8210 713c 46c7 023c e05c 8dbb 4732 52ba

regressor.2.bias f4 [20]
0.74341214 0.099346034 -0.0029634333 -0.5111091 -0.004798497 -0.0014394156 -0.005068548 0.0059971907
-0.0019567246 0.0046741725 -1.4254893 0.21088982 -0.0052261045 0.0017871 -0.0019381896 1.0422946
-0.000815681 -0.005686489 -0.004334726 0.0023605225
00000000: 4250 3e3f ef75 cb3d 2936 42bb 0cd8 02bf
00000010: b63c 9dbb c6aa bcba 1016 a6bb 1584 c43b
00000020: 643c 00bb cd29 993b 6f76 b6bf 80f3 573e
00000030: be3f abbb 203d ea3a da0a feba e969 853f
00000040: 6dd3 55ba ba55 babb 510a 8ebb ffb2 1a3b

regressor.4.weight f4 [30, 20]
-0.002727386 0.0013987424 2.0542964e-05 0.0016741204 9.095695e-06 2.7361443e-07 6.568518e-05 2.5574882e-05
0.00012498349 0.00034090175 -0.003732631 0.0009772538 6.8983805e-05 0.000108396 -1.1082122e-05 -0.0013865856
7.1417244e-06 6.374483e-05 0.000105937426 7.018422e-05 -0.0027725154 0.0014050506 -0.00023307845 0.0011583073
0.00014534661 5.2612708e-05 -0.000579068 0.00028220002 0.0009651147 -0.0006653328 0.0006480005 0.008383476
-0.0005651838 0.0012631274 -7.187616e-05 -0.0024674716 0.00014082603 -0.0005358032 -0.00083721144 -0.00072242616
0.0103960885 -0.0048723253 -0.00020909935 -0.0014742228 0.000157529 -0.00012102947 4.796529e-05 -0.0003337238
-0.0011852783 4.0796047e-05 -0.005977305 -0.009836625 2.0479714e-05 -0.0014094585 3.491072e-05 0.0030804565
-0.00024957847 2.4806719e-05 0.00022548792 0.00014883111 0.009699916 -0.0042656446 -9.127697e-05 -0.0016363211
-6.242208e-07 -0.00010211847 0.00014358963 -0.00032844214 -0.0010819692 5.2731775e-05 -0.0037018852 -0.008809455
0.00012155914 -0.0013057124 1.6234499e-05 0.0031340956 -0.00019772915 0.00012213274 0.0003608641 0.0003455002
-0.0014956847 0.0008100071 1.2672915e-05 0.001573118 1.9195011e-05 -4.1712383e-06 4.8734117e-05 -2.7755448e-06
3.093591e-05 0.00023791284 -0.0028462114 7.6663106e-05 5.0713985e-05 -8.151945e-06 -4.998261e-06 -0.00095897313
-5.4116117e-06 4.3834436e-05 9.404935e-05 7.334189e-05 -0.00031958806 0.00021389194 -2.0689295e-05 0.0012070565
2.765839e-05 -1.0596658e-05 4.8319347e-05 -1.14241975e-05 1.7259988e-05 0.00010295974 -0.0011518833 -0.00064427283
4.7827536e-05 -7.2291274e-05 -1.3713616e-05 -0.00034476756 -1.1221275e-05 4.3435626e-05 7.481153e-05 4.2711603e-05
0.38212794 -0.1810033 -0.031049723 1.2518971 0.01627393 -0.009052547 -0.032559853 0.008805031
0.024673454 -0.017956326 2.9335017 -0.29739147 -0.033742122 0.01873013 -0.0105229085 -0.88915646
-0.0084372 -0.032688558 -0.037529662 -0.027634274 0.0065689604 -0.26177818 0.009627123 0.5007506
0.009747863 0.015421792 0.003767856 -0.012538373 0.0058112475 0.002321119 1.0459166 -0.25149032
0.0039097387 0.002331223 0.015595549 -0.102385156 0.015302146 0.0033668545 0.0047374354 0.0074296547
0.008672525 -0.0037342336 -5.644045e-05 -0.0016664341 -1.8452352e-05 -9.241742e-05 0.00017025115 -0.00029601075
-0.0009709263 5.0170514e-05 -0.0033635823 -0.007759373 0.00015114553 -0.0011913466 1.2688115e-05 0.002794274
-0.00017663282 0.0001485975 0.00036515458 0.00034356085 0.00084941083 -0.00040085748 4.5437544e-05 -0.00027531415
-5.0301427e-05 -1.6444941e-05 0.00019174175 -5.871671e-05 -0.00015391102 0.00016891249 -0.0009183308 -0.002178343
0.00019011782 -0.00031366467 -5.623124e-07 0.00061752344 -2.9492458e-05 0.00018022287 0.00026503875 0.00022230529
0.0009195625 0.00029833813 -2.8067188e-06 -0.0032728738 -2.7391332e-05 1.9894522e-05 -3.50612e-05 3.5139252e-05
7.177127e-05 -7.596768e-05 0.002319518 0.0027401375 -3.6787933e-05 5.6182256e-05 -2.2796107e-06 0.00030927837
4.1613763e-05 -3.298613e-05 -8.682882e-05 -6.243225e-05 0.0011677603 -0.00018651946 0.0003273473 -0.00073758746
-0.00033571402 -2.1542628e-05 0.00054519554 -4.0239644e-05 -0.00044198733 0.000361952 -0.0018052979 -0.0014098117
0.00057259103 -0.00019109348 3.669411e-05 0.0009859685 -4.987148e-05 0.00054901355 0.0005817023 0.00059656636
-0.2852872 -0.90258485 -0.004752711 0.8816506 -0.001686732 -0.0053256056 -0.00090333377 0.0053060325
-0.0046606245 0.0041369363 1.1785487 -0.8017172 -0.0010988071 -0.0026188355 -0.0051930663 0.08148921
00000000: f2bd 32bb 0256 b73a ae53 ac37 296e db3a
00000010: b699 1837 48e5 9234 76c0 8938 a489 d637
00000020: 000e 0339 0fbb b239 289f 74bb 3217 803a
00000030: 66ab 9038 a952 e338 5aed 39b7 18be b5ba
00000040: f2a2 ef36 bfae 8538 b92a de38 de2f 9338
00000050: 17b3 35bb ad29 b83a 8566 74b9 58d2 973a
00000060: 2f68 1839 77ac 5c38 98cc 17ba 3ff4 9339
00000070: c0ff 7c3a ba69 2eba 94de 293a d95a 093c
00000080: d828 14ba 868f a53a 38bc 96b8 4eb5 21bb
00000090: b3aa 1339 2575 0cba 4f78 5bba 3361 3dba
000000a0: 5b54 2a3c 07a8 9fbb ae41 5bb9 b53a c1ba
000000b0: 5e2e 2539 34d1 fdb8 572e 4938 a6f7 aeb9
000000c0: 575b 9bba 6c1c 2b38 45dd c3bb cc29 21bc
000000d0: dacb ab37 94bd b8ba 1a6d 1238 7ce1 493b
000000e0: dbd9 82b9 0618 d037 f470 6c39 8c0f 1c39
000000f0: 65ec 1e3c d2c6 8bbb f36b bfb8 d379 d6ba
00000100: 2090 27b5 7028 d6b8 8c90 1639 c232 acb9
00000110: ddd0 8dba 502c 5d38 549b 72bb 8855 10bc
00000120: 91ed fe38 7024 abba 522f 8837 6665 4d3b
00000130: 8455 4fb9 c210 0039 5c32 bd39 4024 b539
00000140: da0a c4ba a856 543a c19d 5437 1531 ce3a
00000150: f904 a137 aaf6 8bb6 dc67 4c38 7f43 3ab6
00000160: 2ec1 0138 3e78 7939 8187 3abb 31c6 a038
00000170: bab5 5438 56c4 08b7 bcb6 a7b6 9963 7bba
00000180: 6495 b5b6 deda 3738 5c3c c538 21cf 9938
00000190: 628e a7b9 2e48 6039 ec8d adb7 1836 9e3a
000001a0: f103 e837 4dc8 31b7 81aa 4a38 8eaa 3fb7
000001b0: 8bc9 9037 17ec d738 cafa 96ba 6be4 28ba
000001c0: 6d9a 4838 159b 97b8 8813 66b7 ebc1 b4b9
000001d0: 0243 3cb7 a62e 3638 22e4 9c38 3c25 3338
000001e0: 46a6 c33e ee58 39be fd5b febc 2a3e a03f
000001f0: e850 853c 2251 14bc 7b5d 05bd fa42 103c
00000200: fc1f ca3c 2519 93bc 7ebe 3b40 b243 98be
00000210: 2e35 0abd ee6f 993c 4768 2cbc c29f 63bf
00000220: 2f3c 0abc 70e4 05bd b4b8 19bd 4661 e2bc
00000230: 6f40 d73b ca07 86be 15bb 1d3c 3131 003f
00000240: 80b5 1f3c afab 7c3c 22ee 763b bf6d 4dbc
00000250: 476c be3b ea1d 183b 98e0 853f 57c3 80be
00000260: 441d 803b 6fc7 183b 7984 7f3c 4faf d1bd
00000270: dab5 7a3c 72a6 5c3b 7d3c 9b3b 7674 f33b
00000280: 3517 0e3c 0bba 74bb 79ba 6cb8 406c daba
00000290: 20ca 9ab7 39d0 c1b8 7285 3239 e431 9bb9
000002a0: c385 7eba 2e6e 5238 8c6f 5cbb 5742 febb
000002b0: d27c 1e39 f526 9cba 0adf 5437 2320 373b
000002c0: 8336 39b9 d6d0 1b39 3872 bf39 f51f b439
000002d0: ffaa 5e3a 2e2a d2b9 3194 3e38 0a58 90b9
000002e0: bffa 52b8 3ef3 89b7 490e 4939 9646 76b8
000002f0: 2d63 21b9 1a1e 3139 23bc 70ba 88c2 0ebb
00000300: 5d5a 4739 5c73 a4b9 d0f1 16b5 4ce1 213a
00000310: 9266 f7b7 35fa 3c39 e6f4 8a39 9f1a 6939
00000320: cb0e 713a 446a 9c39 105b 3cb6 b67d 56bb
00000330: 70c6 e5b7 29e3 a637 ad0e 13b8 7c62 1338
00000340: e883 9638 d650 9fb8 0e03 183b e193 333b
00000350: be4c 1ab8 3da5 6b38 6afb 18b6 a426 a239
00000360: 708a 2e38 965a 0ab8 de17 b6b8 0fee 82b8
00000370: 890f 993a 7094 43b9 d09f ab39 a85a 41ba
00000380: c602 b0b9 71b6 b4b7 74eb 0e3a fdc6 28b8
00000390: 89ba e7b9 60c4 bd39 bf9f ecba 6ec9 b8ba
000003a0: ef19 163a 4460 48b9 00e8 1938 9d3b 813a
000003b0: 182d 51b8 adeb 0f3a 617d 183a e462 1c3a
000003c0: 2a11 92be cd0f 67bf a1bc 9bbb dbb3 613f
000003d0: 5615 ddba 6b82 aebb b4cd 6cba 3ade ad3b
000003e0: 27b8 98bb 238f 873b afda 963f 573d 4dbf
000003f0: d905 90ba c5a0 2bbb 992a aabb d1e3 a63d

regressor.4.bias f4 [30]
-0.00070487073 0.0005006663 -0.0011474425 -0.0006531446 -0.00046124402 -2.6180147e-05 -1.4856105 -0.11662481
-0.00066704856 -0.00019517008 -0.00021696644 -0.00010565186 0.5853106 -0.0007683466 0.0003787272 -0.00070498063
-2.6526433e-05 -0.00066480786 -0.00064287684 -0.00073076825 0.00024424563 -0.00018524792 0.001245833 -0.065735534
-0.0005962213 -0.00024198063 0.00015890709 -0.00043050866 -0.000651219 0.36978194
00000000: 13c7 38ba 263f 033a c865 96ba cb37 2bba
00000010: 20d3 f1b9 709d dbb7 7c28 bebf fdd8 eebd
00000020: dfdc 2eba 92a6 4cb9 7c81 63b9 6991 ddb8
00000030: ead6 153f de6a 49ba e88f c639 73ce 38ba
00000040: 1585 deb7 8046 2eba bc86 28ba 0791 3fba
00000050: 180e 8039 1c3f 42b9 384b a33a 5aa0 86bd
00000060: bc4b 1cba 2ebc 7db9 4ca0 2639 e5b5 e1b9
00000070: 91b6 2aba 0f54 bd3e

regressor.6.weight f4 [30, 30]
-0.0010671688 -0.00024083548 0.0032014856 0.0032526485 -0.00069103227 -0.00010194566 -0.23334292 0.16482416
0.0027435368 0.00027507427 -0.00028701144 0.0016145508 0.24170183 0.0013447227 -0.0025898379 0.0015822363
-0.00022750723 0.003162392 0.00089555624 -0.006333599 0.0014604209 -0.00050554576 -0.0006529351 0.17815296
0.00072853325 -0.0008705134 0.0004892504 0.00055647665 0.0032903533 1.1586868 -0.00020693506 0.0015052861
0.0015285204 0.0005843148 -0.00026128738 -0.00052375183 2.6498458 0.86802757 0.0006186266 -0.0003320574
0.0013743645 0.0005584102 0.6785365 0.00040287722 0.00037155065 0.00039429145 -0.00057723635 0.0006249527
-0.0006020931 -0.00096645986 0.001134472 -0.000626712 0.00021594147 0.77141964 8.964103e-05 0.0005380969
0.0005754565 -2.4769544e-05 0.00048555306 0.04224114 -4.727046e-06 -0.00027637978 0.0008724249 0.00088006264
4.2199248e-05 0.00014249173 1.6156068 0.47025076 0.0006801891 4.303267e-06 -0.0005185531 -0.00050805113
1.524139 0.00045081633 -0.0012102032 0.0003136184 0.00017667221 0.0008423139 8.863021e-05 -0.0020982083
-7.315278e-05 0.00018777288 -0.0005349103 0.39509386 0.00025356867 -6.693193e-05 4.485496e-05 -0.00016770125
0.00091422553 -0.99283475 -1.7533205e-06 -6.4321095e-05 1.6615779e-05 2.9322195e-05 -6.170244e-07 4.698259e-06
-0.0034689957 -0.0020736845 2.6204281e-05 1.6031154e-05 -2.3955588e-05 4.388847e-05 -0.0020284147 1.8356666e-05
-3.227354e-05 2.5087747e-05 4.4856978e-07 2.7724998e-05 5.324373e-05 -1.1882463e-05 7.524548e-06 -2.6504163e-06
-4.7571084e-05 -0.0018344184 1.8006855e-05 -4.3659675e-05 -2.714448e-05 9.505209e-06 3.2632128e-05 0.0033923904
1.6782706e-05 0.00010561676 -0.00034919695 -7.487864e-05 1.0946176e-05 2.7350303e-05 0.00049363833 -0.0039095315
-9.256288e-05 -2.6220561e-05 -6.43665e-05 -0.0003836812 0.0014966371 -0.00015612507 -2.0433334e-05 -0.00012270121
4.0655763e-05 -7.9383964e-05 -9.492734e-05 -0.00024440806 -0.0003487092 4.9996623e-05 0.0005936505 -0.0039590714
-0.00014092126 2.8477963e-05 -0.00021581397 4.3680193e-05 -7.325538e-05 -0.0067311036 1.553274e-07 2.8855743e-06
7.3733963e-07 1.4412109e-07 -1.2419794e-07 -1.222913e-06 -2.8187453e-05 6.8473346e-05 1.9465631e-07 -8.962001e-07
2.7247202e-06 2.9812522e-06 -2.396495e-05 3.0467085e-08 3.354059e-06 -1.2478768e-06 -7.2258086e-07 2.0050618e-07
-2.0934294e-06 6.546959e-06 8.796207e-06 -6.046303e-07 2.2486934e-06 5.916478e-05 1.809866e-09 -2.483147e-07
3.253396e-06 -2.3454625e-06 2.0751486e-07 0.00018267569 4.6555953e-05 0.0002778817 -0.00034221483 -0.00029679033
1.9365614e-05 -5.3164626e-06 -0.0026004608 -0.00338735 -0.00028814675 -8.152947e-05 2.8293825e-06 -0.00022394255
0.00013509548 -0.00022741755 0.00031649866 -0.00025723188 1.9911224e-05 -0.00029453143 -0.00023258237 0.00028901192
-0.00024586226 5.5873268e-05 0.00043836073 -0.003247537 -0.00017699448 3.5204477e-05 -9.098015e-05 -7.51903e-05
-0.00030299474 -0.0013388961 -5.779713e-05 -0.00064990146 0.00064875267 0.0005648105 -7.703474e-06 -3.3980273e-06
0.0059451456 0.0022586053 0.0005391605 0.00013534706 4.724016e-05 0.00054709625 -0.0050085154 0.00045188534
-0.0007614641 0.00050810305 -5.1744984e-05 0.00056081626 0.00047180394 -0.0006039004 0.0007960489 -0.000111104244
-0.0011345174 0.0016477911 0.00035123908 -5.7890105e-05 0.00032601765 -0.00016784223 0.00057266274 0.0043701907
-2.3883144e-06 5.0208797e-05 1.0468464e-05 -4.1363714e-06 -1.3645881e-06 -4.5343813e-06 0.0036618744 0.0010183707
-2.904996e-06 -1.052623e-05 2.4500338e-05 -2.8231836e-05 0.0036210082 -2.3886168e-06 1.2028753e-05 -6.3862117e-06
00000000: 3ee0 8bba c888 7cb9 04d0 513b 632a 553b
00000010: 6426 35ba a9cb d5b8 72f1 6ebe aac7 283e
00000020: e9cc 333b d837 9039 067a 96b9 569f d33a
00000030: af80 773e 6841 b03a 45ba 29bb 0a63 cf3a
00000040: 028f 6eb9 2240 4f3b c3c3 6a3a 148a cfbb
00000050: 986b bf3a 9a86 04ba bc29 2bba bb6d 363e
00000060: 0afb 3e3a 2a33 64ba 0a41 003a 84e0 113a
00000070: f8a2 573b d94f 943f b5fc 58b9 054d c53a
00000080: a258 c83a b42c 193a 66fd 88b9 644c 09ba
00000090: 1397 2940 0e37 5e3f 542b 223a fd17 aeb9
000000a0: 0524 b43a 4662 123a 91b4 2d3f 4439 d339
000000b0: afcc c239 e7b8 ce39 ad51 17ba ded3 233a
000000c0: c9d5 1dba 065a 7dba 90b2 943a ee49 24ba
000000d0: 596e 6239 c27b 453f a9fd bb38 120f 0d3a
000000e0: 3bda 163a 31c8 cfb7 d491 fe39 0c05 2d3d
000000f0: 049d 9eb6 11e7 90b9 72b3 643a 01b4 663a
00000100: 19ff 3038 d569 1539 34cc ce3f b5c4 f03e
00000110: b84e 323a c864 9036 82ef 07ba bc2e 05ba
00000120: fd16 c33f 8b5b ec39 ae9f 9eba 266d a439
00000130: 1641 3939 bbce 5c3a fbde b938 1882 09bb
00000140: 9a69 99b8 e6e4 4439 3939 0cba be49 ca3e
00000150: 69f1 8439 ce5d 8cb8 a622 3c38 f6d8 2fb9
00000160: a3a8 6f3a 6b2a 7ebf a253 ebb5 20e4 86b8
00000170: 1d62 8b37 eff8 f537 98a1 25b5 bda5 9d36
00000180: 1758 63bb a7e6 07bb 44d1 db37 a47a 8637
00000190: 3cf4 c8b7 e314 3838 27ef 04bb a4fc 9937
000001a0: 735d 07b8 8773 d237 f6d2 f034 fb92 e837
000001b0: 0552 5f38 ca5a 47b7 607b fc36 cedd 31b6
000001c0: 1087 47b8 de70 f0ba 6d0d 9737 381f 37b8
000001d0: 54b4 e3b7 9078 1f37 7bde 0838 de52 5e3b
000001e0: 96c8 8c37 917e dd38 6c14 b7b9 2a08 9db8
000001f0: 78a5 3737 546e e537 8267 013a 871b 80bb
00000200: 511e c2b8 3af4 dbb7 80fc 86b8 d228 c9b9
00000210: cf2a c43a 81b5 23b9 4068 abb7 5ba9 00b9
00000220: cb85 2a38 f17a a6b8 ba13 c7b8 e523 80b9
00000230: f5d2 b6b9 77b3 5138 369f 1b3a 19bb 81bb
00000240: 43c4 13b9 f6e3 ee37 1f4c 62b9 4035 3738
00000250: afa0 99b8 9790 dcbb 12c8 2634 caa5 4136
00000260: 98ed 4535 b4bf 1a34 455b 05b4 f922 a4b5
00000270: 1874 ecb7 5999 8f38 b802 5134 6792 70b5
00000280: 56da 3636 8611 4836 5708 c9b7 eada 0233
00000290: 4b16 6136 b87c a7b5 61f7 41b5 b84a 5734
000002a0: d87c 0cb6 f3ad db36 6c93 1337 e14d 22b5
000002b0: 42e8 1636 b327 7838 00bf f830 1d50 85b4
000002c0: eb54 5a36 bd66 1db6 40d1 5e34 a28c 3f39
000002d0: 1345 4338 a7b0 9139 4c6b b3b9 869a 9bb9
000002e0: 5773 a237 1164 b2b6 7e6c 2abb 4dfe 5dbb
000002f0: 6712 97b9 cdfa aab8 6ce0 3d36 1fd2 6ab9
00000300: 6ba8 0d39 ef76 6eb9 bbef a539 14dd 86b9
00000310: 0707 a737 576b 9ab9 5be1 73b9 8686 9739
00000320: 13e7 80b9 7759 6a38 c8d3 e539 a1d4 54bb
00000330: 9897 39b9 85a8 1338 99cc beb8 7caf 9db8
00000340: 44db 9eb9 e67d afba 326b 72b8 265e 2aba
00000350: 0e11 2a3a cb0f 143a 2b3e 01b7 aa09 64b6
00000360: 7fcf c23b 1c05 143b 7356 0d3a f3eb 0d39
00000370: bc23 4638 026b 0f3a 791e a4bb 06eb ec39
00000380: fe9c 47ba 3832 053a c108 59b8 be03 133a
00000390: 745c f739 124f 1eba f0ad 503a a300 e9b8
000003a0: 16b4 94ba b2fa d73a 8326 b839 07cf 72b8
000003b0: 59ed aa39 cefe 2fb9 bf1e 163a d133 8f3b
000003c0: ee46 20b6 4997 5238 b6a1 2f37 29cb 8ab6
000003d0: e426 b7b5 0a26 98b6 0ffc 6f3b da7a 853a
000003e0: 74f3 42b6 d099 30b7 1386 cd37 68d3 ecb7
000003f0: 704e 6d3b 204c 20b6 1acf 4937 2449 d6b6

regressor.6.bias f4 [30]
-0.16938248 -0.6121613 0.7353804 -0.0029830781 0.0036716172 6.5438694e-06 -0.00080463756 0.00101
0.0024680123 -0.0004737573 0.0022901602 1.751097e-05 -0.00031147836 0.0030665786 -0.0015649312 0.0010985896
1.323763e-05 0.0028439953 0.0017296546 -0.0040736864 -0.002666402 0.00027203312 0.0015028996 -0.002263803
-0.4448253 -0.00042300572 5.029337e-05 0.0068781297 0.00010533495 0.0004404941
00000000: 9a72 2dbe 9ab6 1cbf e441 3c3f bf7f 43bb
00000010: 849f 703b 6993 db36 50ee 52ba fa61 843a
00000020: 60be 213b a162 f8b9 8316 163b 86e4 9237
00000030: eb4d a3b9 a7f8 483b 611e cdba 8dfe 8f3a
00000040: 3017 5e37 5362 3a3b 94b5 e23a 8f7c 85bb
00000050: cdbe 2ebb ab9f 8e39 f1fc c43a 505c 14bb
00000060: 24c0 e3be dec6 ddb9 18f2 5238 ef61 e13b
00000070: 45e7 dc38 1ef2 e639

regressor.8.weight f4 [40, 30]
0.38823667 -0.018255109 -0.009330032 -0.0012820704 0.0009089227 -7.039411e-05 0.002322031 -0.0023177406
0.00061160256 -0.0003026258 -0.0017585087 -1.1540186e-05 -0.0015677193 0.0007506412 0.006224606 -0.0032870967
8.618579e-05 0.00017214837 -0.0019312726 0.008371927 -0.0006021727 -0.0024819802 -0.0014876283 0.001641855
0.0021713078 0.0044069258 4.2887864e-06 -0.0059495308 1.1319925e-05 -0.0003677011 -0.007253734 0.0031731573
0.0056815916 0.00056008535 -0.0008003748 -1.5171838e-05 -0.00022700304 0.0006366043 0.00012489065 5.239242e-05
-0.00044788487 -1.5228402e-06 2.3197705e-05 -0.000811823 -0.00010226667 -2.28355e-05 -1.3697056e-06 0.00053241284
0.0002403416 0.00035108923 0.00053473207 -7.188932e-05 0.0003047169 0.0002955231 0.0026001104 -0.00029441898
-1.3661922e-06 -0.0014252211 2.0263697e-05 -8.066208e-05 -0.0038338692 0.0015164829 -0.012663099 0.0006691934
0.00079268287 2.8956718e-05 0.0012775664 -0.0008946993 -0.00065926445 -6.393968e-05 4.6754514e-05 -5.437063e-07
0.00021042032 0.00082573603 0.00065667764 -0.00013373866 3.3341398e-06 -0.0037504176 -0.0005708962 -0.00021229046
-0.0008269588 6.7176545e-05 -0.0015290485 -0.00034205857 -0.0012347207 0.002204189 2.8707532e-06 1.7796649e-05
8.9068735e-06 2.4425372e-05 -0.0012482754 0.00084085454 -0.00052369526 -6.437009e-05 -6.0766062e-05 -8.262786e-07
-8.02419e-05 1.2849531e-05 1.6014452e-05 4.3022655e-07 2.017171e-05 1.0351587e-07 -1.152893e-05 -1.1827442e-05
0.000192763 -9.70465e-06 -6.9810875e-07 0.0002605994 9.563562e-05 -3.6968544e-05 3.457102e-05 -0.00011368557
0.00012294723 -3.5485486e-06 0.0010490017 -5.7498128e-05 -2.4728477e-08 6.7820765e-05 3.0710646e-07 3.9093884e-06
0.0066897795 0.0022944561 -0.0016034964 -0.00035042426 0.00054804835 5.7270536e-06 0.00017800523 -0.00033869434
3.677359e-05 -5.6410696e-05 0.00021491069 6.383556e-07 -6.161035e-05 0.00057289086 -0.0003321461 2.0967595e-06
4.160484e-06 -0.0004062496 -0.00013523136 -1.8293777e-05 -0.0004205247 4.176654e-05 -0.00019827514 -0.00019757463
0.00016574559 0.0001871142 1.6577079e-06 0.00070604205 -1.6042844e-05 3.412836e-05 -0.0016497191 -0.001992231
-0.02121845 0.0010030981 -0.00069362257 -3.125672e-05 0.0005549615 0.0004954365 -0.0005179007 1.8457979e-05
-0.00037356679 -1.9442425e-06 0.0004155113 -0.00035025022 -0.000106014166 -0.0006634778 8.342323e-06 -0.0018828663
-0.0009820175 -0.0008587811 0.00043851882 -0.0008730483 -0.0012550859 0.00013240108 -0.0028198934 6.1063205e-05
-3.842304e-06 -0.0012288025 -1.1267828e-05 -6.526707e-05 0.0018938984 0.0005299062 -0.026370907 0.00088646606
-0.0003139335 3.9450817e-05 0.0012711397 -0.0011155716 -0.000772113 -3.801884e-05 -0.00015575142 -1.4363616e-06
0.00037397578 0.00056461035 -0.00019513567 -0.00044768097 9.719428e-06 -0.0046714838 -0.0015618529 -0.0016084075
-0.00021244248 -0.00034896898 -0.0020243514 -0.00021369084 -0.0007151827 0.0012087373 -1.3142275e-06 -0.0005804462
4.16995e-06 -1.7012466e-05 0.0022152846 0.007302836 0.021577213 0.00029889174 -0.0017188956 1.4390711e-05
-0.0002023291 0.00074469193 -6.124923e-06 3.675876e-05 -7.422404e-05 -3.446606e-06 0.00022896742 -0.0014704174
-3.8439826e-05 -0.00065383303 -5.7586262e-06 0.0011887469 -0.0008399536 0.0013713636 0.0012677615 -0.00053868414
0.00026123325 0.0007496162 0.0077075157 -0.0004323925 -4.6307346e-06 -5.387119e-05 -1.3342669e-05 -2.5097506e-05
-0.7919011 1.2748612 1.1449548 0.00039865845 -0.0032434722 6.108696e-05 0.0024879002 -0.0049602203
-0.000907025 -0.00010546286 -3.544087e-05 2.2957634e-06 -0.00028912313 -0.0028161646 0.0023959223 -0.0013670637
00000000: f5c6 c63e bd8b 95bc fedc 18bc 250b a8ba
00000010: c544 6e3a 8da0 93b8 372d 183b 3ce5 17bb
00000020: f453 203a bfa9 9eb9 c37d e6ba b99c 41b7
00000030: ee7b cdba aec6 443a c8f7 cb3b 556c 57bb
00000040: a5be b438 ba82 3439 c122 fdba 682a 093c
00000050: 20db 1dba b8a8 22bb 86fc c2ba 8333 d73a
00000060: 804c 0e3b f967 903b 65e8 8f36 48f4 c2bb
00000070: b5ea 3d37 02c8 c0b9 bbb0 edbb bff4 4f3b
00000080: a52c ba3b b1d2 123a 3ed0 51ba 8c8a 7eb7
00000090: aa07 6eb9 cbe1 263a 14f5 0239 efbf 5b38
000000a0: 17d2 eab9 6464 ccb5 b198 c237 85d0 54ba
000000b0: 0078 d6b8 dd8e bfb7 bad6 b7b5 9f91 0b3a
000000c0: 3504 7c39 6612 b839 432d 0c3a 49c3 96b8
000000d0: 69c2 9f39 70f0 9a39 9d66 2a3b 3f5c 9ab9
000000e0: 025e b7b5 7cce baba f5fb a937 2029 a9b8
000000f0: a741 7bbb b9c4 c63a e378 4fbc cf6c 2f3a
00000100: 0ccc 4f3a 14e8 f237 0474 a73a 418a 6aba
00000110: 7dd2 2cba 5b17 86b8 471a 4438 36f3 11b5
00000120: 46a4 5c39 3576 583a e424 2c3a 333c 0cb9
00000130: 16c0 5f36 91c9 75bb 32a8 15ba 499a 5eb9
00000140: 44c8 58ba 22e1 8c38 5b6a c8ba 5356 b3b9
00000150: 5ad6 a1ba 2874 103b 2aa7 4036 034a 9537
00000160: bb6e 1537 16e5 cc37 2c9d a3ba cb6c 5c3a
00000170: 9848 09ba 6efe 86b8 10df 7eb8 6fcd 5db5
00000180: 8b47 a8b8 5194 5737 c656 8637 e3f9 e634
00000190: 6b36 a937 744c de33 616c 41b7 7a6e 46b7
000001a0: 6c20 4a39 28d1 22b7 ab65 3bb5 0fa1 8839
000001b0: fc8f c838 ac0e 1bb8 5a00 1138 7a6a eeb8
000001c0: 65eb 0039 9a23 6eb6 a87e 893a 252a 71b8
000001d0: 7f6a d4b2 ff3a 8e38 64e0 a434 642d 8336
000001e0: f035 db3b 965e 163b 692c d2ba 26b9 b7b9
000001f0: e7aa 0f3a 042b c036 eaa6 3a39 c992 b1b9
00000200: 573d 1a38 869a 6cb8 a659 6139 765b 2b35
00000210: ce34 81b8 0e2e 163a e523 aeb9 0eb6 0c36
00000220: 499a 8b36 e6fd d4b9 e4cc 0db9 9675 99b7
00000230: df79 dcb9 7b2e 2f38 14e8 4fb9 092c 4fb9
00000240: fecb 2d39 1634 4439 697e de35 ae15 393a
00000250: bf93 86b7 0c25 0f38 633b d8ba 1790 02bb
00000260: 51d2 adbc 637a 833a 39d4 35ba a619 03b8
00000270: d67a 113a 2ee0 013a bac3 07ba 35d6 9a37
00000280: 49db c3b9 d579 02b6 fcd8 d939 caa1 b7b9
00000290: ec53 deb8 3eed 2dba 01f6 0b37 82ca f6ba
000002a0: 0ab7 80ba d31f 61ba 00e9 e539 48dd 64ba
000002b0: b281 a4ba 25d5 0a39 f6cd 38bb 0f0f 8038
000002c0: 24ed 80b6 c50f a1ba f40a 3db7 fedf 88b8
000002d0: af3c f83a 67e9 0a3a cd07 d8bc bb61 683a
000002e0: 7197 a4b9 fe77 2538 5f9c a63a 5f38 92ba
000002f0: a067 4aba 6b76 1fb8 3451 23b9 02c9 c0b5
00000300: 2e12 c439 5c02 143a 559d 4cb9 b9b6 eab9
00000310: a010 2337 3f13 99bb 16b7 ccba 33d1 d2ba
00000320: 18c3 5eb9 d3f5 b6b9 fbaa 04bb 3312 60b9
00000330: 197b 3bba 7e6e 9e3a 8364 b0b5 1629 18ba
00000340: 99eb 8b36 feb5 8eb7 4f2e 113b a14c ef3b
00000350: b2c2 b03c 92b4 9c39 914c e1ba a26f 7137
00000360: 4e28 54b9 6e37 433a b084 cdb6 6b2d 1a38
00000370: baa8 9bb8 3d4c 67b6 f916 7039 05bb c0ba
00000380: 733a 21b8 fe65 2bba 393a c1b6 bacf 9b3a
00000390: 5530 5cba 54bf b33a 042b a63a 7b36 0dba
000003a0: 22f6 8839 e481 443a 548f fc3b bdb2 e2b9
000003b0: b561 9bb6 c0f3 61b8 54da 5fb7 7c88 d2b7
000003c0: 08ba 4abf a72e a33f e18d 923f 0803 d139
000003d0: 6f90 54bb d01b 8038 0a0c 233b 5889 a2bb
000003e0: 6bc5 6dba f12b ddb8 58a6 14b8 ea10 1a36
000003f0: 7395 97b9 678f 38bb e804 1d3b 0c2f b3ba

regressor.8.bias f4 [40]
-0.042215403 0.0016229197 0.0018898633 0.0005313335 0.00029095018 0.0028155413 0.00091135094 0.0010807236
0.72901976 0.0013142441 -0.0013609799 0.0028280173 -0.00044049788 0.00094269845 0.00017025268 -0.00052734104
0.00074291753 -0.0020565686 -0.0015628934 0.15948446 -0.0003020718 0.00019223323 0.0019293119 0.010286214
0.0028061632 -0.0004279644 0.00092980335 0.002030638 0.0032288698 0.00089841813 0.0006049851 -0.00043220812
-7.0209295e-05 0.0019918329 -0.007120348 0.0021465463 -0.00046330757 -0.0020072642 2.7538961e-05 0.00089430244
00000000: 0fea 2cbd 26b8 d43a 4ab5 f73a 3049 0b3a
00000010: ac8a 9839 f284 383b bae7 6e3a 11a7 8d3a
00000020: 0aa1 3a3f b742 ac3a e862 b2ba 4256 393b
00000030: a0f2 e6b9 6c1f 773a db85 3239 423d 0aba
00000040: 5ac0 423a 7fc7 06bb 00da ccba e54f 233e
00000050: 645f 9eb9 3792 4939 f7e0 fc3a 8287 283c
00000060: 9be7 373b 6960 e0b9 0cbe 733a 7414 053b
00000070: 729b 533b d283 6b3a dd97 1e3a fe99 e2b9
00000080: 543d 93b8 6989 023b cf51 e9bb 12ad 0c3b
00000090: 17e8 f2b9 4e8c 03bb 7803 e737 9f6f 6a3a

regressor.10.weight f4 [40, 40]
2.2823972e-06 -5.0258564e-08 -2.6985795e-06 5.2310824e-08 4.4012086e-07 -2.1918263e-06 -3.0233346e-06 1.1721773e-06
-6.277857e-06 1.0877911e-06 -1.9356125e-07 3.988665e-07 -3.6069963e-09 1.4077242e-06 -1.3656853e-06 -3.977124e-06
-1.4958204e-08 4.8831896e-07 -1.6888298e-06 5.079615e-06 5.965837e-07 1.2774935e-08 -2.693621e-06 -4.343331e-07
-3.9306147e-07 3.076665e-09 6.9691197e-07 2.7166998e-08 -6.9946327e-07 1.3738098e-06 4.2774317e-08 -6.424382e-10
-4.470217e-08 -1.16369534e-07 2.1587462e-06 -1.909779e-06 1.7394091e-06 -4.4996705e-07 -6.758864e-08 8.366854e-07
-3.3772725e-05 -6.7248504e-05 -0.0005984468 1.7289794e-05 -3.257659e-05 -0.00068158767 -0.0010196925 -2.9554452e-05
0.0022965109 -5.0273975e-06 3.0099744e-05 -0.00021071358 -2.6283478e-06 -3.6516094e-06 -1.3516226e-05 -0.00085880497
-2.6132437e-05 0.000514818 -0.00028757408 0.0011087386 -1.3282497e-05 -1.766138e-05 -0.0006002432 -0.00042935487
2.0956968e-05 -3.0614467e-07 4.530695e-06 -2.2967957e-05 -0.0001516057 -1.9604217e-05 -2.2417637e-05 -2.8495876e-07
2.739504e-06 -0.00011491041 0.00096762914 -0.00036292974 0.00025263213 9.474899e-06 -3.9984276e-05 0.0001053468
9.262085e-06 3.6141187e-06 2.9297395e-05 -2.4276222e-08 -2.6801772e-06 1.655063e-05 2.2164659e-05 -2.5689205e-06
-6.886759e-05 -1.0597921e-06 -9.978243e-06 1.829552e-05 3.9766977e-08 -1.2698122e-06 1.0151337e-05 2.051753e-05
5.019971e-06 -1.6603342e-05 -3.9586757e-07 -0.000110608366 -8.666532e-07 -8.219594e-08 2.8311935e-05 2.8273145e-05
-6.140586e-06 2.586185e-08 -1.4509498e-06 1.1731013e-06 1.1477594e-05 -2.546941e-06 1.335911e-06 2.6451179e-08
-2.6703165e-07 -9.214422e-07 -1.36623585e-05 3.4763423e-05 -1.2378831e-05 -7.258651e-06 1.1563455e-06 1.1980135e-06
-0.0028771162 5.791655e-05 0.00033403764 -6.1695323e-06 3.306155e-05 0.00047657936 0.00016056787 0.0004711568
0.0034989612 0.0004699153 -0.0004895077 0.00073530246 1.2648335e-08 0.00052115024 0.0005211002 0.0002004627
1.5390528e-05 -3.9704675e-05 0.00010992358 0.001137475 -0.00033403817 -2.4036983e-05 0.00033660288 0.0010989294
-0.00035178752 -4.974173e-08 -3.1681735e-05 0.00019331103 0.0005562148 0.0004594348 -8.372605e-05 -1.6320175e-07
4.85667e-06 0.00020238629 -0.0009348133 0.00024979434 2.3312958e-05 -0.000603859 4.7788144e-05 -0.00016617811
-0.15056634 0.003563422 0.004090847 0.0017585931 -0.0032353117 0.005955102 0.008064391 0.005322214
1.1333163 0.004628363 0.00070742413 0.004235783 -0.00018910778 0.005594012 -0.00228269 0.013093135
0.0014897567 0.0016415966 0.004478164 1.9525738 0.001780067 0.00081594085 0.0041459645 -0.008035615
-0.0031624988 -8.031292e-05 -0.002147657 0.0029121717 -0.00026880682 0.005394486 -0.0010190323 -7.742391e-05
0.00014476496 0.00010147064 -0.0034255795 0.0014264863 -0.00010175609 0.0011217281 -0.001330523 -0.0023580114
0.0006959591 -0.000112538226 0.000997543 3.6291417e-06 5.6239507e-05 0.00064623315 0.0012327128 -0.00020555405
0.005334701 -0.00021710496 0.0002627291 2.3873212e-05 -3.342623e-06 -0.00021090207 0.000451782 0.0015102099
-0.0004883045 0.0004328994 0.0004314039 0.012337829 -0.00044738184 2.1371761e-05 0.00097569334 0.0005837993
1.8832043e-05 -1.3325154e-06 0.00043353555 -0.00010584447 0.00032264576 -0.00019534456 -0.00015390238 -1.6572659e-06
1.7285307e-05 -9.059359e-05 -0.00044093045 0.0009071319 -0.00013005018 0.00043964596 -2.4709385e-05 0.0005743069
-1.7523373e-05 0.00040420663 -0.00113046 -5.277556e-06 -8.298171e-05 -0.00071630103 -0.0012950961 0.0008897176
0.0042956313 0.00079280004 9.333527e-05 0.0006219875 5.433081e-07 0.0009702962 0.0002382395 -0.0020103818
00000000: 492b 1936 e0db 57b3 3e19 35b6 5cac 6033
00000010: c049 ec34 4a17 13b6 7ee4 4ab6 b553 9d35
00000020: 62a6 d2b6 3800 9235 b6d5 4fb4 cb23 d634
00000030: f3de 77b1 09f1 bc35 974c b7b5 3c73 85b6
00000040: 707d 80b2 0615 0335 c0ab e2b5 9071 aa36
00000050: eb24 2035 c278 5b32 0ec4 34b6 492e e9b4
00000060: f505 d3b4 436d 5331 6d13 3b35 dc5c e932
00000070: c0c2 3bb5 bf63 b835 dcb6 3733 9297 30b0
00000080: 8efe 3fb3 d4e6 f9b3 fade 1036 c129 00b6
00000090: a475 e935 0093 f1b4 3f25 91b3 9598 6035
000000a0: 30a7 0db8 c407 8db8 16e1 1cba 8d09 9137
000000b0: d9a2 08b8 93ac 32ba 34a7 85ba b4eb f7b7
000000c0: 0f81 163b 04b1 a8b6 b57e fc37 fff2 5cb9
000000d0: ac62 30b6 2c0e 75b6 c0c3 62b7 6d21 61ba
000000e0: fb36 dbb7 daf4 063a 8ac5 96b9 1853 913a
000000f0: e4d7 5eb7 8627 94b7 a459 1dba 091b e1b9
00000100: bfcc af37 345c a4b4 6006 9836 50ab c0b7
00000110: 58f8 1eb9 bc73 a4b7 820d bcb7 6ffc 98b4
00000120: 52d8 3736 0efc f0b8 7ea8 7d3a 9b47 beb9
00000130: b673 8439 62f6 1e37 cab4 27b8 a2ed dc38
00000140: 5a64 1b37 168a 7236 adc3 f537 fa87 d0b2
00000150: 18dd 33b6 35d6 8a37 3eee b937 b865 2cb6
00000160: 016d 90b8 2e3e 8eb5 3a68 27b7 5479 9937
00000170: 41cc 2a33 6a6e aab5 a94f 2a37 0f1d ac37
00000180: 3971 a836 6847 8bb7 a087 d4b4 6af6 e7b8
00000190: f4a3 68b5 b283 b0b3 6b7f ed37 1e2c ed37
000001a0: 3b0b ceb6 cf26 de32 41be c2b5 7473 9d35
000001b0: e48f 4037 1dec 2ab6 8d4d b335 c236 e332
000001c0: 8d5c 8fb4 0759 77b5 6237 65b7 f1ce 1138
000001d0: adae 4fb7 568f f3b6 bb33 9b35 6ecb a035
000001e0: 008e 3cbb 6ceb 7238 c621 af39 e103 cfb6
000001f0: 92ab 0a38 66dd f939 1c5e 2839 9805 f739
00000200: d44e 653b f75e f639 4e52 00ba 50c1 403a
00000210: f74b 5932 cd9d 083a 719a 083a 4c33 5239
00000220: e81a 8137 9288 26b8 c686 e638 5417 953a
00000230: d821 afb9 07a3 c9b7 137a b039 f409 903a
00000240: 1f70 b8b9 9ca3 55b3 01e2 04b8 89b3 4a39
00000250: f2ce 113a 4ce0 f039 1596 afb8 8e3c 2fb4
00000260: 7af6 a236 a837 5439 420e 75ba d4f6 8239
00000270: 3290 c337 4b4c 1eba 2170 4838 1940 2eb9
00000280: 102e 1abe 4d88 693b 830c 863b 9880 e63a
00000290: 8607 54bb 0423 c33b 8220 043c f865 ae3b
000002a0: 8210 913f 86a9 973b 6e72 393a 53cc 8a3b
000002b0: 3c4b 46b9 f94d b73b 2f99 15bb 9784 563c
000002c0: f143 c33a d72a d73a 90bd 923b f0ed f93f
000002d0: 2351 e93a dde4 553a dfda 873b d0a7 03bc
000002e0: ed41 4fbb ac6d a8b8 b5bf 0cbb 22da 3e3b
000002f0: a4ee 8cb9 3ac4 b03b 0d91 85ba a55e a2b8
00000300: 0ccc 1739 a3cc d438 b07f 60bb f0f8 ba3a
00000310: e365 d5b8 f306 933a f264 aeba de88 1abb
00000320: 0671 363a 8002 ecb8 fdbf 823a 2e8c 7336
00000330: b6e2 6b38 f967 293a fa92 a13a ff89 57b9
00000340: b7ce ae3b aba6 63b9 e7be 8939 5543 c837
00000350: d351 60b6 9825 5db9 27dd ec39 3cf2 c53a
00000360: 8f01 00ba c6f6 e239 0d2e e239 9b24 4a3c
00000370: 938e eab9 8247 b337 acc5 7f3a 1c0a 193a
00000380: 81f9 9d37 e1d8 b2b5 284c e339 d1f8 ddb8
00000390: c828 a939 68d5 4cb9 db60 21b9 396f deb5
000003a0: eaff 9037 10fd bdb8 af2c e7b9 97cc 6d3a
000003b0: 145e 08b9 4880 e639 0047 cfb7 158d 163a
000003c0: 28ff 92b7 b2eb d339 f12b 94ba dc15 b1b6
000003d0: 7706 aeb8 26c6 3bba 37c0 a9ba f03b 693a
000003e0: 5ec2 8c3b e9d3 4f3a febc c338 e00c 233a
000003f0: d9d7 1135 7a5b 7e3a eecf 7939 9cc0 03bb

regressor.10.bias f4 [40]
9.892198e-07 -0.00013744298 -2.9965084e-05 -0.0025240383 0.40326858 0.0017292936 0.001406688 0.00023522018
-0.010391588 0.0013652464 0.0007527274 1.4278538e-05 -1.7057232e-08 2.7432445e-06 0.0038909083 -8.136246e-05
0.00108681 0.00045111845 0.0014223361 -8.954961e-06 0.002451792 -6.350223e-05 0.33598676 0.00017766055
7.888821e-05 0.007460541 0.00071492523 0.32207286 -1.4114878e-05 7.535645e-05 -0.010190517 0.00060705934
7.429253e-05 -9.080582e-06 1.3870489e-06 0.013725694 -0.00041829882 -4.9378314e-06 0.00048317405 0.0044208844
00000000: 55c5 8435 921e 10b9 875d fbb7 566a 25bb
00000010: 3879 ce3e 77a9 e23a 9e60 b83a 70a5 7639
00000020: 7b41 2abc 11f2 b23a ae52 453a db8d 6f37
00000030: 4085 92b2 9518 3836 9cfe 7e3b 23a1 aab8
00000040: 4b73 8e3a 1884 ec39 ae6d ba3a 443d 16b7
00000050: 3eae 203b 802c 85b8 7506 ac3e 644a 3a39
00000060: c970 a538 8e77 f43b d269 3b3a bce6 a43e
00000070: f0ce 6cb7 b008 9e38 20f6 26bc 1023 1f3a
00000080: 80cd 9b38 cd58 18b7 a32a ba35 bce1 603c
00000090: 1e4f dbb9 a6af a5b6 8652 fd39 11dd 903b
