saved-networks/SixLayerNet_V3.pth (torch_old, 126099 bytes, 11 tensors)

regressor.0.weight f4 [50, 11]
000000 8e 00 d1 be 3d 2a 27 3f 19 87 a8 3e fb c8 9e bf
       -0.40820736 0.65298826 0.3291557 -1.2405084
000010 21 56 4b bf f0 be 83 be bc f9 03 bf 8a 8e 22 3e
       -0.794283 -0.2573161 -0.5155294 0.15874687
000020 e9 a4 b8 be 73 35 0e 3e bf 24 19 be 11 90 31 bd
       -0.36063316 0.13887577 -0.14955424 -0.043350283
000030 75 9d f5 bc 89 af 45 3d f5 a4 3b bd c3 db 05 bd
       -0.029982308 0.048263106 -0.045811612 -0.032680284
000040 0f 86 e0 3c fe fe 48 bb 0b 0a b4 bc 29 bc 1b bd
       0.027407674 -0.0030669565 -0.021977445 -0.03802124
000050 aa f8 28 3d a5 c6 5a 3c 4d 71 d8 bf f8 91 ab be
       0.04125277 0.013353025 -1.6909577 -0.33509803
000060 5e b9 7f 3e 26 1b 5e 3e d2 95 16 3e 7d 11 fe 3d
       0.24973056 0.21690044 0.1470559 0.124056794
000070 32 0b 4b bf 6b 80 08 be 00 2b 37 c0 2a e3 1b bd
       -0.7931396 -0.13330238 -2.8619995 -0.038058437
000080 6f 8d 3b bf 33 ea 0c bd be ff 15 bd 11 94 ea 3c
       -0.73262686 -0.034403037 -0.036620848 0.028635057
000090 a2 47 1b bd 45 d6 23 bd d9 cb c3 3c 88 32 48 bc
       -0.03791011 -0.039999265 0.023900913 -0.012219079
0000a0 29 4b 8b bc 32 6b 09 bd fc 17 15 3d 77 34 48 3b
       -0.017003613 -0.033549495 0.036399826 0.003054885
0000b0 b7 7c 3e 3c 8c ea 5c 3d 92 30 73 bd 51 0e 1d 3d
       0.011626414 0.05393462 -0.059372492 0.03834373
0000c0 bd 08 88 3d bd cf 8b 3a 46 4d 89 bb 62 93 24 3d
       0.06642292 0.0010666769 -0.00419012 0.040179618
0000d0 8e fb 07 3c 8e ae ad bb 90 22 3a bc 1a d3 14 40
       0.008299721 -0.0053003496 -0.011360779 2.3253846
0000e0 22 85 32 c0 28 f7 a3 be 33 ea 9b 3e e5 c6 c8 3e
       -2.7893758 -0.32024503 0.30452117 0.39214244
0000f0 90 40 6f be 09 ac 9b bf 66 07 a0 3e fc 47 a2 3b
       -0.23364472 -1.2161876 0.31255645 0.004952429
000100 f0 ea 4b be 54 82 7b bf ca 2d 0f bd 54 66 f8 bc
       -0.1991384 -0.9824574 -0.034955777 -0.030322231
000110 8a 25 28 3d a1 d1 15 bd a4 a3 1b bd b6 79 d5 3c
       0.041051425 -0.03657687 -0.037997857 0.026059013
000120 ea 10 f6 bb b5 08 a8 bc 87 be 14 bd c2 26 15 3d
       -0.0075093405 -0.020511964 -0.036314514 0.036413915
000130 c2 bc ad 3b 52 44 ae bf 80 67 fd bd 72 6a 04 bc
       0.0053020427 -1.36146 -0.12373257 -0.008082019
000140 42 b0 10 3e 66 53 58 bd 45 08 e5 3e 49 2f 7f 3d
       0.14129737 -0.05281391 0.44732872 0.062300954
000150 10 18 84 be ea 8e 86 c0 36 6d 07 bf 29 89 06 bf
       -0.25799608 -4.2049456 -0.5290102 -0.5255304
000160 a0 58 63 bd 10 27 ca bc 31 ee 70 3d 6b ac 43 bd
       -0.05550444 -0.02467683 0.058820907 -0.047771852
000170 3a 19 dc bc c4 19 c8 3c 4e 23 52 bb fa 61 cd bc
       -0.026867498 0.024426349 -0.00320645 -0.025071133
000180 0f 25 02 bd 4a ed 24 3d b1 a8 79 3c 44 25 18 bf
       -0.031773623 0.04026536 0.015237973 -0.5943186
000190 38 fa 27 3f 50 5f 03 3f 38 3c ca be 03 70 33 be
       0.6561618 0.5131731 -0.39499068 -0.17523198
0001a0 5d 85 09 bf 1e 95 1b 3f 50 7b a8 bf 97 0a 6d bf
       -0.5371912 0.6077441 -1.3162632 -0.92594284
0001b0 f6 38 14 bf 49 25 ea 3e 22 2c a0 40 41 44 96 3e
       -0.57899415 0.4573157 5.0053873 0.2934895
0001c0 08 d9 ac bc 53 11 50 bd 13 8a 48 3e b6 20 24 be
       -0.021099582 -0.05079777 0.19583921 -0.16028103
0001d0 5b b3 3a bf 53 d6 5f 3e 86 10 aa bf c6 45 4e 3e
       -0.72929925 0.21859102 -1.3286293 0.20143804
0001e0 b6 c3 95 be 32 65 3c 3c ca 00 82 3d f0 32 53 bd
       -0.29250878 0.011498736 0.06347807 -0.05156225
0001f0 25 ec 41 3d a5 14 95 3d af 45 25 bb 65 f3 5a bc
       0.047344346 0.07279328 -0.0025218537 -0.013363694
000200 77 fc 74 3d 1f e1 de 3b d4 82 27 bc ec 6a b5 bc
       0.05981108 0.006801739 -0.010224063 -0.02214571
000210 e8 4f 19 bd a9 12 df bc 89 bc 62 3d 53 31 1f bd
       -0.03742972 -0.027230578 0.055355582 -0.0388654
000220 1a e2 2a bd 15 e8 90 3c 7a 04 03 bc 16 5f df bc
       -0.041719534 0.01768879 -0.007996673 -0.02726702
000230 fc f9 08 bd e8 2d 02 3d be 40 1e 3c af ec 94 bc
       -0.03344153 0.03178206 0.00965899 -0.018179266
000240 1e 7d d4 3c 47 de 3d bd a7 39 b9 3c 99 eb eb 3c
       0.025938567 -0.04635456 0.022610499 0.028798865
000250 c1 7f 26 3c 10 5b e0 bc 4c 95 88 3c 7f 00 cc bc
       0.010162295 -0.027387172 0.016672753 -0.02490258
000260 a7 a4 8d 3c 72 ad 8b bc 59 9f 7a 3f a0 f0 82 bf
       0.017290426 -0.017050479 0.97899395 -1.0229683
000270 55 a9 f5 be 4f 0b bc bd 41 01 f7 bc d2 dc 65 bf
       -0.47980753 -0.091818444 -0.030151965 -0.8979007
000280 18 ec 13 c0 57 40 8a 3f 18 22 a8 3f 39 7f 21 bf
       -2.311285 1.0800885 1.3135405 -0.6308475
000290 22 c0 05 c0 3a c3 15 bc b2 74 7e 3c f7 f8 a0 bc
       -2.0898519 -0.009140784 0.015530752 -0.019649966
0002a0 26 70 df 3b f2 4a ab bb a8 fb 98 bb d3 0d 01 bd
       0.006818789 -0.00522744 -0.0046686716 -0.031507324
0002b0 5c e7 ef 3c be 85 27 bb 6c 85 87 3b 82 64 a4 bc
       0.029285125 -0.0025561894 0.004135778 -0.020067457
0002c0 de 0a 48 bc d0 2c 9c bc 71 9d 13 3d 52 e9 3c 3c
       -0.012209622 -0.019064337 0.03603882 0.011530237
0002d0 26 b6 8c bc 8c 17 0b bc 43 2d 55 3c 03 0f 07 bd
       -0.017176699 -0.008489501 0.0130112795 -0.0329733
0002e0 64 28 13 3c 9c 37 0c bc 53 a1 7e 3c 30 9f b5 40
       0.008981798 -0.00855818 0.015541392 5.675682
0002f0 89 fa b6 be ec 65 13 3f 97 55 80 3d e4 70 6b bd
       -0.35738018 0.57577395 0.06266325 -0.057480708
000300 0a 0f 0a bd 40 a6 df 3e 4e c6 5b be 7d ad a7 3f
       -0.03370575 0.43681526 -0.21462366 1.309982
000310 c3 d2 64 3e 93 00 52 3f 39 ce 61 bd 54 72 e7 bc
       0.22346024 0.82032126 -0.05512831 -0.028252758
000320 68 93 56 3d 49 22 4f bd 53 6d c0 bc 0e b8 e6 3c
       0.05238667 -0.050569806 -0.02348963 0.028163936
000330 0a 20 62 bb a8 1f c3 bc 07 28 04 bd 11 ae 38 3d
       -0.003450396 -0.023818806 -0.032264736 0.045087878
000340 8e 13 82 3c ab 67 51 3c 31 1d 79 3d 4d d0 5e bd
       0.015878465 0.012781064 0.060818855 -0.05439787
000350 a9 1d 39 3d 31 fa 94 3d 33 53 d0 3b cc 15 44 bc
       0.0451943 0.07274283 0.0063575744 -0.011968087
000360 0f 3e 46 3d 30 8f 6e 3b 4f 5d 13 bb f7 37 b2 bc
       0.048399027 0.0036401264 -0.0022486036 -0.021755202
000370 34 bb 25 3c 4f 60 db 3c 19 14 3f bd ea 20 80 3c
       0.0101154335 0.026779322 -0.046650026 0.015640695
000380 37 1d 57 3d ae c7 e9 3b 24 0a 4f 3b 0c 24 1f 3d
       0.052518096 0.0071343994 0.0031591738 0.038852736
000390 7a c8 81 3c 77 e0 4f bb db 7f d1 bb 92 83 71 3a
       0.015842665 -0.0031719485 -0.0063934154 0.0009213026
0003a0 bc a5 68 3d 51 1f 2c bd 8a 68 d2 3c 22 fa 89 3d
       0.05679868 -0.042022053 0.025684614 0.06737162
0003b0 88 a2 f0 3b dc ca ca bb 82 96 09 3d 0f 51 2e 3b
       0.007343594 -0.0061887335 0.0335908 0.0026598608
0003c0 e0 b9 d6 3b f4 3f de bb dc f2 13 40 77 c8 a4 40
       0.0065529197 -0.006782526 2.311698 5.149471
0003d0 59 e7 86 3e 38 cc 38 be ca d8 d9 3d 73 cb a4 bb
       0.2634838 -0.18046653 0.10637052 -0.005029136
0003e0 60 06 ee 3e 86 e5 42 3e e3 fa b2 be 97 81 7a be
       0.4648924 0.19032869 -0.34957036 -0.24463497
0003f0 57 16 47 3e 6e 02 b6 bc df f0 2e bb 46 b3 57 3c
       0.19442116 -0.022217955 -0.0026693863 0.013165301

regressor.0.bias f4 [50]
000000 c9 30 e6 bc 34 87 ae b9 12 bc ae 3f fc 39 6a bb
       -0.028099434 -0.000332886 1.3651145 -0.0035740128
000010 92 d3 56 bb a3 c9 c0 3f 4c 2b 97 bb 13 dd 62 40
       -0.0032779914 1.5061535 -0.0046133157 3.5447433
000020 74 f6 8d 3a bb 8f 5f 3e 30 64 80 40 bc fa e0 bb
       0.0010830895 0.21832173 4.01223 -0.0068658274
000030 db 52 78 ba 4a 45 de 3a 2f cd 7a be 64 25 9f bb
       -0.00094727956 0.0016957906 -0.24492334 -0.004856752
000040 a0 1a cd bb bc 52 e1 bd 65 5f 32 3a 39 e4 53 bc
       -0.0062592775 -0.110021085 0.0006804376 -0.0129328305
000050 a0 43 52 bb dc f1 18 bc 89 9a 0d be d9 11 ac bb
       -0.0032083765 -0.0093350075 -0.13828482 -0.005251151
000060 9a 63 43 bb 7f 4d 02 bc ab 96 24 c0 0a d4 fd bb
       -0.0029814006 -0.007953047 -2.571696 -0.0077462243
000070 52 fc d4 bb d0 dc 8b 39 93 4d d3 3b 9e 29 c9 3f
       -0.0064998055 0.00026676664 0.0064484566 1.5715826
000080 0c ea 9e 3b f2 75 ec ba 1f 68 81 bf b1 ea 88 bb
       0.004849678 -0.0018040522 -1.01099 -0.004178368
000090 4d 5d 96 bb 52 67 14 3a 0f 55 9c bf 27 33 70 be
       -0.004588759 0.0005661148 -1.2213458 -0.23457013
0000a0 16 49 33 bc 08 e0 47 ba 5a c6 8e be e9 c3 64 bb
       -0.010942718 -0.0007624631 -0.27885705 -0.003490681
0000b0 5f 48 a0 bb 7e 6b cc 3b 16 d3 d3 bb 33 16 34 bb
       -0.00489144 0.0062384 -0.0064643724 -0.0027479052
0000c0 a2 58 4c bc be f4 87 bf
       -0.012472304 -1.0621564

regressor.2.weight f4 [100, 50]
000000 09 db 61 3d b0 7b 97 bb b3 a5 25 3d 48 61 90 bb
       0.05514053 -0.004622899 0.040441226 -0.004406128
000010 76 c2 17 3a 2f 88 f0 bc 55 a6 5f bb d2 94 34 bb
       0.000578917 -0.029361812 -0.0034126241 -0.0027554524
000020 56 d9 d0 bb 1f 98 a8 3d 96 b0 4f bd e0 26 9d 3a
       -0.0063735647 0.0823214 -0.050705515 0.0011989735
000030 af fa 9f bb b4 96 4d bb 76 b3 41 3d c2 08 27 bb
       -0.0048821787 -0.0031370344 0.047290288 -0.0025487398
000040 68 1a 46 ba a5 3c b2 bc 21 29 b6 bb 19 bc 3d 3a
       -0.00075570354 -0.021757433 -0.005559102 0.00072378066
000050 d6 0c 26 ba 14 55 fb b9 26 a7 23 bc 9f 20 54 bb
       -0.000633431 -0.0004793784 -0.009988582 -0.0032368076
000060 05 58 68 bb e6 f3 57 3b ee d9 b4 bc 02 2a 56 ba
       -0.0035452854 0.0032951771 -0.022076573 -0.0008169712
000070 4e ae 1e 3b d1 09 ad bb 0a 48 68 3a 8e 38 c7 bb
       0.002421278 -0.005280711 0.00088608323 -0.00607974
000080 4c e2 ff 3a e2 a2 c1 ba 3d 82 de 3c 6e f4 32 ba
       0.0019522398 -0.0014773274 0.027161712 -0.0006826584
000090 24 ec 83 3a f0 5d 31 bb 60 2d a4 3c 4b cd 79 3d
       0.0010064882 -0.0027064048 0.020041168 0.0609868
0000a0 3c 57 45 3a 89 83 92 bb 5b d9 90 bd 40 80 8d bb
       0.00075279525 -0.0044712466 -0.07072707 -0.004318267
0000b0 14 e3 46 bb 4d 9c 55 3a 58 aa 88 ba 93 e0 d0 3a
       -0.0030347751 0.0008148596 -0.0010426743 0.0015936069
0000c0 da b6 01 ba 50 0a 5d 3d c8 36 98 3c 5a f1 e0 3b
       -0.00049482065 0.053964913 0.01858081 0.006864709
0000d0 ce 7c d7 bc c0 1e 51 3b ab 1b d9 bb 71 a6 2e 3b
       -0.026304629 0.0031909198 -0.0066256127 0.00266495
0000e0 c9 10 a3 3b f7 fa e1 bc b7 0e cd 3b f8 9a 8a 3c
       0.004976366 -0.02758549 0.0062578577 0.016919598
0000f0 43 b2 a6 bc b0 a7 0f bc 51 54 cf 3b b9 64 05 bc
       -0.020348674 -0.008768007 0.00632719 -0.00814169
000100 a2 80 bb 3c e9 8d 2b bc 8e c6 d2 3b 88 38 5e bd
       0.022888485 -0.010470846 0.006432361 -0.05425313
000110 23 a7 cb 3b 02 36 d9 bb f4 44 35 bb 41 41 3b bb
       0.0062149926 -0.0066287527 -0.0027659507 -0.002857283
000120 33 3d 69 bd 73 4c 19 bc f3 3f 1d bb ef d2 10 bc
       -0.05694313 -0.009356606 -0.0023994416 -0.008839353
000130 38 84 a6 3c b4 e7 09 bc 2e 00 01 bc 06 d1 dc 3b
       0.020326719 -0.008417059 -0.007873578 0.0067387847
000140 64 50 e8 bb ae 61 03 bd 71 a5 d6 bb 6b 9a 1b bc
       -0.0070896614 -0.032075576 -0.006550484 -0.009497265
000150 ad 0e 19 bd 10 45 85 bb 98 81 20 bc 44 9d 81 3a
       -0.03736751 -0.004067071 -0.009796523 0.0009888788
000160 79 bc 0e 3d c0 cc b4 3a 60 69 ac bb 65 e3 dd 3b
       0.03484771 0.001379393 -0.005261585 0.0067714923
000170 3c c8 c7 ba 78 74 6d 3b 52 3c 32 bc 06 57 e7 bb
       -0.001524217 0.003623275 -0.010878639 -0.0070599345
000180 c1 44 53 bb 60 87 db bb 0e 00 8d 3b 88 28 88 3c
       -0.0032237025 -0.0066994876 0.004302985 0.01662089
000190 40 43 5a bc ac 6d 80 3b 38 94 36 bc 23 b0 27 3b
       -0.013321698 0.003919324 -0.011143737 0.0025587163
0001a0 76 61 b0 ba a8 64 09 bd da c5 73 3b 75 3e ad bd
       -0.001345678 -0.03354326 0.0037196786 -0.08459178
0001b0 3d 13 30 3a d4 dc a5 3c 42 e4 59 bd 53 08 86 bb
       0.0006716734 0.0202469 -0.0531962 -0.004090348
0001c0 f0 2b 7c 3b a4 7a bc 3a 1f 2e 91 ba 83 ba b7 bb
       0.0038478337 0.0014379811 -0.0011076367 -0.0056069507
0001d0 cf 36 f6 3b e5 c0 56 bd ae 34 70 3a 72 a8 8e bb
       0.007513858 -0.052430052 0.00091631233 -0.0043535763
0001e0 25 f8 72 bb 92 27 20 3a d7 84 34 3b 24 a5 8e bb
       -0.0037074175 0.0006109412 0.0027545 -0.0043531824
0001f0 30 af 9e ba 57 10 f5 bb 78 9d 4d bc 06 26 34 bb
       -0.0012106653 -0.0074787545 -0.0125497505 -0.0027488484
000200 fb 9c ea bb 8e 81 4c 3b a7 03 6c 3b f4 22 de 3a
       -0.007159827 0.003120515 0.003601292 0.0016947673
000210 fd f2 6a 3b 70 10 69 bb c7 4a 19 bd cc a5 07 3a
       0.0035850399 -0.0035562776 -0.03742483 0.0005174547
000220 01 d6 da bb b1 78 1c 3a 50 f8 37 bc b8 5d 13 3d
       -0.0066783433 0.0005968912 -0.011228636 0.03597805
000230 bc 16 c5 b9 16 91 87 3b fe ce 09 bd 18 c9 33 3b
       -0.00037591706 0.0041371686 -0.03364467 0.0027433094
000240 8f 7f bb bb c5 5e 64 3b 6a 98 e0 39 c7 a7 f8 3a
       -0.0057219933 0.0034846526 0.00042838167 0.00189709
000250 48 02 e5 3b 8a 71 8f 3d f8 f0 4d bc f1 a2 88 3b
       0.0069887973 0.07004078 -0.012569658 0.0041698148
000260 b6 59 14 3b 10 07 27 3b 86 b7 86 ba 58 6e e4 bc
       0.002263648 0.0025486387 -0.0010278083 -0.027884647
000270 f5 04 70 3b f2 f4 29 bd 4c 66 0b 3b 6a ec c5 3c
       0.0036624048 -0.041493364 0.002127069 0.024160583
000280 54 23 b1 bc 3b 8b 73 bb 33 8f 73 3b fe e8 f0 39
       -0.021623291 -0.0037161845 0.003716421 0.0004594996
000290 f3 4a cf ba 68 9c a4 bb d6 83 ba 3b 3c 65 6b bd
       -0.0015815183 -0.005023528 0.0056919856 -0.05746959
0002a0 0f 3d 13 3b f6 a6 95 bb 9a cc b1 bb 7a 4b 97 39
       0.0022466814 -0.0045670224 -0.0054260017 0.000288572
0002b0 b3 e8 31 bc e0 49 6a bb 1a 7d ea ba 6a 08 e8 bb
       -0.0108587025 -0.00357496 -0.0017890066 -0.007081081
0002c0 a8 c3 1c bd e3 4f 03 bb e5 b0 ef bb 5e 39 4b 3b
       -0.03827253 -0.002003663 -0.0073147886 0.0031009535
0002d0 ea af fd 3a 6f 11 88 3b b2 74 3f 3b 60 dc 49 bb
       0.0019354795 0.004152469 0.0029213843 -0.003080152
0002e0 54 c9 50 bd 26 11 24 3a 2a 86 c8 bb e7 f5 09 3a
       -0.05097325 0.0006258659 -0.006119509 0.00052627776
0002f0 50 d8 dc bc 7d b7 7d 3d 82 34 1e ba 19 1a 8a 3b
       -0.026958615 0.061942566 -0.0006035046 0.004214537
000300 ec 79 05 bd 2d 91 2d 3b a9 81 a8 bb 46 cf fe 3a
       -0.032586977 0.0026484237 -0.00514241 0.0019440434
000310 c4 88 bd 39 d1 cd f9 3a 17 22 c5 3b 74 e1 8f 3d
       0.00036150787 0.001905853 0.0060160267 0.07025424
000320 df 67 44 bd 99 78 3b bb dc 9f 8a bc 54 38 b2 b8
       -0.04795062 -0.0028605817 -0.01692193 -8.498193e-05
000330 3b 87 05 3b 1b 90 59 bd dd 88 f1 ba 86 74 48 bd
       0.0020374793 -0.053115945 -0.0018427629 -0.04893925
000340 6a ba 5f bb 35 3e 4c bd 4a e3 3c bd f3 bc 4a 3b
       -0.003413821 -0.049864013 -0.046115197 0.0030935376
000350 9d 99 2b bb 65 56 ed 3b 62 32 52 bc 87 15 cb 3b
       -0.002618409 0.007242965 -0.012829395 0.0061976346
000360 bc df 93 bb 77 d8 ad bd a7 d0 56 bb 01 1d a9 3a
       -0.004512755 -0.08488553 -0.0032778175 0.0012902321
000370 7b e2 e8 ba 34 ff 0e bb 1c 6a bd bc 21 9e be 3b
       -0.0017767692 -0.0021819593 -0.023121886 0.0058171903
000380 59 d4 8a bb b5 ac 22 3a 80 7a a6 bd f3 8b 23 3b
       -0.0042367396 0.0006205545 -0.08128834 0.0024955242
000390 22 4c 54 39 88 50 29 bb de 58 0c 3c 7c 65 f4 3b
       0.00020246257 -0.0025835354 0.008566109 0.007458387
0003a0 b3 97 e0 3b 0a 64 cf 3b 6f af 80 bc 4d b6 14 ba
       0.0068540215 0.0063290643 -0.015708653 -0.0005672917
0003b0 bc 6d 96 3b 2c d0 97 3a cc c4 5c bc c1 86 82 bd
       0.004590718 0.0011582426 -0.013474654 -0.063733585
0003c0 56 3e c6 39 e7 41 39 bb d9 97 60 bd 1a 1c fd b9
       0.00037811947 -0.002826804 -0.054832313 -0.00048276858
0003d0 86 c2 dc 3b 0c 42 08 3c 5b 4b 04 bb 22 25 68 3b
       0.006737056 0.008316528 -0.0020186517 0.0035422524
0003e0 fd c8 fe bb ad 33 34 bd fb 45 96 bc f5 7d 9d 3b
       -0.0077754245 -0.043994594 -0.018343916 0.004806275
0003f0 80 bd f6 bb e1 e8 44 3b 54 7a 24 bb c8 76 e8 bc
       -0.0075299144 0.0030046033 -0.0025097327 -0.028376952

regressor.2.bias f4 [100]
000000 8d 4e 5f bd 66 94 f1 bc 18 83 7a bb d8 3e 73 3b
       -0.05451827 -0.029489707 -0.003822511 0.0037116315
000010 f1 c4 13 3c 5a c9 0f 3c ef 06 1a bd 1b ac cb bc
       0.009019122 0.008776033 -0.03760427 -0.02486234
000020 65 97 ce 3a 97 95 9f bd 3a c1 a1 bd ef 2e 84 3c
       0.0015761672 -0.07792204 -0.07898183 0.016135661
000030 aa 7d 9e bd 06 fd 91 bc 6c 1c fe bc 10 e6 80 be
       -0.07738812 -0.017820846 -0.031019412 -0.25175524
000040 ad f7 84 bc f7 5b bf bb bd c9 4a be bf fd b6 ba
       -0.016231382 -0.0058398205 -0.1980352 -0.001396112
000050 9f 93 00 bf 60 1c 17 3d f3 ee ef bc 5d 1c 9a bd
       -0.5022525 0.036892295 -0.029288745 -0.07524941
000060 c8 e9 45 bd 2c 18 16 3c 16 04 17 bd 70 7f b4 bd
       -0.048318654 0.009161036 -0.03686913 -0.08813369
000070 17 f3 9e bd aa 9a aa 3f ab ff 33 bc 7d 64 ac bd
       -0.077612095 1.332845 -0.010986249 -0.08417604
000080 dd 92 07 bc ad 43 89 bc 01 cb c7 bd c7 76 de bc
       -0.008274761 -0.016755903 -0.09755517 -0.027156247
000090 ca 5d 84 bd 1e ab 3f bc 05 28 8c 3b f6 4d aa 3c
       -0.06463201 -0.011698512 0.0042772316 0.020789128
0000a0 d4 9c dc bb 10 66 43 be c8 6d 78 be 5c 6d 8d bd
       -0.0067325626 -0.19081903 -0.24260628 -0.06905624
0000b0 89 61 9a bd bd 90 af 3f 73 19 81 bd 20 eb 16 bd
       -0.075381346 1.3716046 -0.06303682 -0.036845326
0000c0 3d d3 7f ba c6 b4 80 3c 6e c5 69 bc 6f eb 1a 3c
       -0.0009758955 0.0157112 -0.014268262 0.009455546
0000d0 f8 3b b3 bd a5 96 55 3e 8c 5c 8d 3c 7f 43 c7 3c
       -0.087516725 0.20858248 0.017256044 0.024324177
0000e0 c6 93 86 bd 92 56 94 bd c4 f4 12 3e 15 de 0b 3d
       -0.06571154 -0.072430745 0.14351183 0.03414734
0000f0 b7 dd 88 bd 96 c8 8e bd 54 74 0e 3e 62 f2 d3 bc
       -0.06682914 -0.069718525 0.13911563 -0.025872413
000100 f7 80 7e bd a7 24 3c be 8f b4 5f be 69 4f 74 be
       -0.06213471 -0.18373357 -0.21846221 -0.23858418
000110 65 21 20 be c1 c5 09 bd d6 1c 89 3c 06 8a 40 be
       -0.15637739 -0.03363586 0.016737383 -0.18802652
000120 d3 31 09 be 93 d6 0a bc 84 cf 0a 3c e8 4d 12 40
       -0.13397913 -0.00847401 0.008472327 2.286005
000130 63 8c 99 3b ad 56 57 be 59 fd 9f 3c 3f 65 13 bc
       0.004685925 -0.21029158 0.019529985 -0.008996307
000140 68 ef 57 3c 2e 2a 4d bd d8 44 6e bb 9e 0e 76 be
       0.0131796375 -0.050089054 -0.0036356952 -0.24029014
000150 41 ea 5d be 0c c5 96 bd 27 64 ec ba 9e 8d 94 bd
       -0.21671392 -0.073618025 -0.0018035219 -0.07253574
000160 d5 d3 c7 3c 47 0d 8c 3c dd b1 1f 3c f7 d5 e9 3b
       0.024393002 0.017096175 0.009746996 0.0071361023
000170 5d 4e fd bc 88 0e 81 3e c6 f7 82 be 3e 89 e0 bb
       -0.030921156 0.252064 -0.2557966 -0.006852298
000180 5a 96 82 bc ba 07 7d bd 8d 5d 07 3c 3f 8c 4f be
       -0.015940834 -0.061774947 0.00826205 -0.20268343

regressor.4.weight f4 [100, 100]
000000 72 ee 9c bc 99 a5 b7 3c 90 e3 41 3c 90 17 3b 3c
       -0.019156668 0.02241783 0.01183404 0.011419192
000010 5a fd 5a 3c 7b 71 46 3c 99 68 f4 bc b1 89 ac bc
       0.013366068 0.012112017 -0.029835032 -0.02106175
000020 0f 40 81 3b 23 07 9b 3b f3 96 59 bd 16 0b 94 ba
       0.003944404 0.0047310754 -0.053122472 -0.0011294808
000030 9c de 6e bd fa f3 9f 3c 1d 26 cc ba d6 cc 2d 3e
       -0.058317766 0.019525517 -0.0015575323 0.1697267
000040 6f dc 74 3b 56 05 3b 3c e2 31 88 3e fc 38 9c bc
       0.0037362834 0.011414846 0.26600558 -0.019070141
000050 85 47 58 3e 82 a3 0c bb 3b 77 e1 bc 51 55 28 3b
       0.21121033 -0.0021459763 -0.027522674 0.0025685618
000060 a1 1d 21 bc 3a c8 ef bb 60 42 03 bd 4e 13 41 3c
       -0.009833724 -0.00731757 -0.032045722 0.011784388
000070 6f 7a 05 bb c4 2c 63 3d 1f df 92 bb 4d 9d 88 3c
       -0.0020367166 0.055462614 -0.0044821645 0.01667657
000080 75 c4 7e 3c c6 dc 01 3c 08 20 df 3b 7d 54 ab bc
       0.015549769 0.007926172 0.0068092383 -0.02091431
000090 7a c1 2b bd 79 ca 9e 3c ab 0d 44 3c e1 0a 3b bb
       -0.04193256 0.019383656 0.011966149 -0.002854042
0000a0 0a a1 5e bb 8e 27 11 3e 77 bd 29 3e b2 9d 21 bd
       -0.0033970498 0.14175245 0.16576181 -0.03945703
0000b0 29 d5 80 bd f5 d7 f1 be 33 9e a1 bc 46 41 09 3b
       -0.06290657 -0.47235075 -0.019728756 0.0020943447
0000c0 a3 3e 3e 3c 23 7e 49 3c bb 9e 3c 3b b1 12 11 b9
       0.011611613 0.01229814 0.0028781134 -0.0001383524
0000d0 8a 9e f2 bb 73 7f 48 bc 47 1d 51 3a e0 e1 45 3c
       -0.0074041532 -0.0122374175 0.000797708 0.012077779
0000e0 00 e9 2a bd 97 2c 80 bd 1a 6c b2 3d ac 83 24 bb
       -0.041726112 -0.06258505 0.08712025 -0.0025102897
0000f0 68 9e 93 bd f9 e9 ee bc c6 e6 1f 3e 9f f1 98 3c
       -0.07207948 -0.029164301 0.15615377 0.018669901
000100 47 cc c1 bc 80 47 0d 3e 1e da 1e 3e 62 f4 27 3e
       -0.023656977 0.13796806 0.15512893 0.16401818
000110 20 ca f9 3d ee 7b eb bc 63 84 2b b8 1c a5 0f 3e
       0.121967554 -0.028745618 -4.089287e-05 0.14027828
000120 24 46 da 3d 75 61 39 3c fd e3 3f 3c 50 71 fb bd
       0.106579095 0.0113147395 0.0117120715 -0.12277472
000130 a6 ab 48 3c 11 03 1b 3e b0 9b f3 39 ad 5b 5c 3c
       0.012247955 0.15137888 0.00046464568 0.013449592
000140 df 6b bb 3b cf 07 a6 bc 7e ad bf 3b 17 b6 28 3e
       0.0057196463 -0.020267395 0.0058495393 0.16475712
000150 b1 09 1e 3e 8f 7d 60 bd 86 4c 3d 3c a1 9d 0c bc
       0.15433384 -0.054807242 0.011553889 -0.008582504
000160 81 c0 48 3c f6 cc 15 3c 83 a2 5e 3a 21 d9 9f bc
       0.012252928 0.009143105 0.0008492844 -0.019512715
000170 d5 d7 fc bc 0a e6 d4 bb c3 95 2f 3e fb 71 ee bc
       -0.030864635 -0.0064971494 0.17146973 -0.029107084
000180 8d 9d c1 bc 07 b7 17 bd 61 3e 16 3b 8f 4c 17 3e
       -0.023634696 -0.037039783 0.0022925364 0.14775299
000190 27 f2 9c bc b6 ab b7 3c 64 e5 41 3c 53 19 3b 3c
       -0.019158436 0.022420745 0.011834476 0.011419612
0001a0 ea fe 5a 3c d0 72 46 3c dc 76 f4 bc 19 95 ac bc
       0.01336644 0.012112334 -0.029841833 -0.021067189
0001b0 36 43 81 3b 72 01 9b 3b 71 a0 59 bd b3 0a 94 ba
       0.0039447797 0.004730397 -0.053131524 -0.0011294693
0001c0 09 e8 6e bd 56 f4 9f 3c 9e 5c cc ba 97 ce 2d 3e
       -0.058326755 0.019525688 -0.0015591567 0.16973339
0001d0 3c c5 74 3b b2 07 3b 3c af 33 88 3e 0f 40 9c bc
       0.0037349006 0.011415409 0.2660193 -0.019073514
0001e0 9d 49 58 3e 9c a1 0c bb 82 85 e1 bc a9 50 28 3b
       0.21121831 -0.0021458631 -0.027529482 0.0025682843
0001f0 cb 23 21 bc 14 f1 ef bb 7b 49 03 bd d1 16 41 3c
       -0.009835194 -0.00732244 -0.0320525 0.011785225
000200 02 7e 05 bb 71 2c 63 3d fa e3 92 bb 64 9f 88 3c
       -0.0020369296 0.055462305 -0.0044827433 0.016677566
000210 0d cd 7e 3c 1d df 01 3c 8f 20 df 3b 1e 60 ab bc
       0.015551818 0.0079267295 0.006809301 -0.020919856
000220 dd ca 2b bd da ca 9e 3c 58 0f 44 3c 54 0b 3b bb
       -0.041941512 0.019383837 0.011966549 -0.0028540688
000230 44 b0 5e bb f4 28 11 3e 22 bf 29 3e 27 a7 21 bd
       -0.0033979574 0.14175779 0.16576818 -0.03946605
000240 2f da 80 bd be d9 f1 be 03 af a1 bc 47 32 09 3b
       -0.06291615 -0.47236437 -0.019736772 0.0020934509
000250 a6 40 3e 3c f1 7e 49 3c f5 93 3c 3b a7 28 11 b9
       0.011612093 0.012298332 0.0028774713 -0.00013843422
000260 b4 c2 f2 bb 45 8c 48 bc bd 1c 51 3a 7b e2 45 3c
       -0.0074084643 -0.012240474 0.00079769996 0.012077923
000270 5b f2 2a bd 70 31 80 bd fd 6e b2 3d e4 7f 24 bb
       -0.041735034 -0.062594295 0.087125756 -0.0025100643
000280 83 a3 93 bd fb fb ee bc f0 e7 1f 3e 26 f2 98 3c
       -0.07208922 -0.029172888 0.15615821 0.018670153
000290 52 db c1 bc d4 48 0d 3e a9 db 1e 3e 13 f6 27 3e
       -0.02366415 0.13797313 0.15513481 0.16402464
0002a0 73 cc f9 3d bf 87 eb bc ea c8 28 b8 78 a6 0f 3e
       0.12197199 -0.028751252 -4.0241437e-05 0.14028347
0002b0 25 48 da 3d 00 64 39 3c 8d e5 3f 3c d5 72 fb bd
       0.10658292 0.011315346 0.011712444 -0.12277762
0002c0 6a ad 48 3c 8c 04 1b 3e 09 da f3 39 ff 5d 5c 3c
       0.012248376 0.15138453 0.0004651102 0.013450145
0002d0 d4 73 bb 3b 17 0c a6 bc b8 ac bf 3b cd b7 28 3e
       0.005720595 -0.020269437 0.005849447 0.16476364
0002e0 40 0b 1e 3e 8e 87 60 bd 8e 4e 3d 3c f8 9f 0c bc
       0.15433979 -0.054816775 0.011554373 -0.008583061
0002f0 e2 c0 48 3c a1 c9 15 3c 39 a2 5e 3a 6e e3 9f bc
       0.012253018 0.00914231 0.0008492801 -0.019517627
000300 2a e3 fc bc 35 d0 d4 bb 86 97 2f 3e a1 7c ee bc
       -0.030870039 -0.006494547 0.17147645 -0.029112162
000310 a1 a8 c1 bc 24 c0 17 bd 42 41 16 3b 09 4e 17 3e
       -0.023639979 -0.037048474 0.002292708 0.14775862
000320 83 d5 9c bc ce 4a b7 3c 9a c1 41 3c 43 fa 3a 3c
       -0.01914478 0.022374537 0.011825943 0.011412206
000330 48 db 5a 3c fc 58 46 3c 5b c2 f3 bc 2e 04 ac bc
       0.013357945 0.0121061765 -0.029755762 -0.020998087
000340 08 11 81 3b 89 f8 9a 3b c7 23 59 bd 5c dc 93 ba
       0.003938798 0.0047293347 -0.053012636 -0.0011280882
000350 f4 6a 6e bd e1 e4 9f 3c 43 74 ca ba 6f ad 2d 3e
       -0.058207467 0.019518318 -0.0015446026 0.16960691
000360 40 04 76 3b 1d dd 3a 3c 05 13 88 3e ec ef 9b bc
       0.0037539154 0.011405257 0.2657701 -0.019035302
000370 3f 21 58 3e c7 bf 0c bb 62 cf e0 bc 5e e3 27 3b
       0.21106432 -0.0021476613 -0.027442638 0.00256177
000380 5e ee 20 bc 57 fa ed bb 27 f0 02 bd 9c a3 40 3c
       -0.009822456 -0.007262509 -0.03196731 0.0117577575
000390 41 f9 05 bb e9 2f 63 3d c4 92 92 bb 39 65 88 3c
       -0.0020442756 0.055465613 -0.004473062 0.01664983
0003a0 a9 43 7e 3c fe b7 01 3c 66 b3 de 3b d1 cb aa bc
       0.015519061 0.007917402 0.0067962883 -0.02084914
0003b0 e0 52 2b bd 5b bc 9e 3c 6a f0 43 3c b0 c0 3a bb
       -0.041827083 0.019376924 0.011959175 -0.0028496198
0003c0 93 ec 5d bb 15 0e 11 3e e4 9e 29 3e 00 2e 21 bd
       -0.0033862933 0.14165528 0.16564518 -0.03935051
0003d0 88 97 80 bd 17 b8 f1 be 23 dd a0 bc 46 ef 09 3b
       -0.06278902 -0.47210762 -0.019636696 0.002104716
0003e0 c1 1b 3e 3c 3d 6d 49 3c bc 11 3d 3b 15 74 0e b9
       0.011603297 0.012294111 0.0028849682 -0.00013585419
0003f0 63 11 f1 bb 21 9a 47 bc 4e 6c 51 3a a9 d6 45 3c
       -0.007356809 -0.012182743 0.0007988856 0.012075105

regressor.4.bias f4 [100]
000000 89 52 95 bd 30 53 95 bd 13 49 95 bd c4 52 95 bd
       -0.07291133 -0.072912574 -0.072893284 -0.07291177
000010 ad 52 95 bd 97 48 95 bd 69 52 95 bd 37 49 95 bd
       -0.0729116 -0.07289236 -0.07291109 -0.07289355
000020 4e 52 95 bd 62 52 95 bd 59 4d 95 bd f1 51 95 bd
       -0.07291089 -0.07291104 -0.072901435 -0.0729102
000030 67 52 95 bd 77 53 95 bd 8b 4c 95 bd 6f 52 95 bd
       -0.072911076 -0.0729131 -0.0728999 -0.072911136
000040 61 52 95 bd 66 52 95 bd 71 c4 08 3d 8e 52 95 bd
       -0.07291103 -0.07291107 0.033390466 -0.07291137
000050 4a 49 95 bd f3 48 95 bd c5 48 95 bd 5f 52 95 bd
       -0.072893694 -0.072893046 -0.0728927 -0.07291102
000060 2b 52 95 bd 73 4f 95 bd 50 52 95 bd c2 48 95 bd
       -0.07291063 -0.07290544 -0.072910905 -0.07289268
000070 25 49 95 bd c6 49 95 bd 5c 52 95 bd c6 48 95 bd
       -0.07289342 -0.07289462 -0.072910994 -0.07289271
000080 66 52 95 bd 5b 52 95 bd 2a 52 95 bd ad 4f 95 bd
       -0.07291107 -0.07291099 -0.07291062 -0.072905876
000090 7d 52 95 bd d1 48 95 bd 4f 52 95 bd 8c 46 95 bd
       -0.07291124 -0.07289279 -0.0729109 -0.072888464
0000a0 c0 4c 95 bd 9a 48 95 bd df 48 95 bd e7 25 95 bd
       -0.072900295 -0.07289238 -0.0728929 -0.0728262
0000b0 4a 52 95 bd 04 49 95 bd b4 4c 95 bd 90 52 95 bd
       -0.07291086 -0.07289317 -0.072900206 -0.07291138
0000c0 ce 52 95 bd c5 48 95 bd 8e 52 95 bd 50 48 95 bd
       -0.07291184 -0.0728927 -0.07291137 -0.07289183
0000d0 2f 52 95 bd 15 20 98 bd ca 48 95 bd 99 48 95 bd
       -0.07291066 -0.07427994 -0.07289274 -0.072892375
0000e0 d3 33 95 bd 13 4a 95 bd 67 52 95 bd 8c 52 95 bd
       -0.07285275 -0.07289519 -0.072911076 -0.07291135
0000f0 e4 48 95 bd 14 1c 3b 3f 5c 52 95 bd cd 52 95 bd
       -0.072892934 0.7308972 -0.072910994 -0.072911836
000100 c7 48 95 bd f4 a5 35 bd a6 4f 95 bd f5 2a ad 3d
       -0.07289272 -0.04434772 -0.07290582 0.08455459
000110 84 32 95 bd c5 48 95 bd 28 d6 97 bd 8d 52 95 bd
       -0.07285026 -0.0728927 -0.07413894 -0.07291136
000120 ac 29 95 bd 5c 52 95 bd 80 52 95 bd 22 52 95 bd
       -0.07283339 -0.072910994 -0.07291126 -0.07291056
000130 6e 52 95 bd 7c 7c fa bd 7e 2c 95 bd a2 49 95 bd
       -0.07291113 -0.12230775 -0.07283877 -0.07289435
000140 67 50 95 bd 0c 49 95 bd f7 48 95 bd 20 52 95 bd
       -0.07290726 -0.07289323 -0.072893076 -0.07291055
000150 60 52 95 bd 2e 49 95 bd 4a 49 95 bd c5 51 95 bd
       -0.072911024 -0.072893485 -0.072893694 -0.07290987
000160 8d 52 95 bd 97 41 0c be 03 52 95 bd 4e 52 95 bd
       -0.07291136 -0.13696896 -0.07291033 -0.07291089
000170 8e 52 95 bd 93 52 95 bd 1b c7 b1 3e 5c 52 95 bd
       -0.07291137 -0.072911404 0.34722218 -0.072910994
000180 40 54 95 bd 88 52 95 bd 8a 52 95 bd ea 51 95 bd
       -0.0729146 -0.07291132 -0.07291134 -0.072910145

regressor.6.weight f4 [100, 100]
000000 a5 5e 5b 3d 4b 61 5b 3d 99 31 5b 3d 8f 5f 5b 3d
       0.053557057 0.053559583 0.053514097 0.05355793
000010 23 5f 5b 3d 7d 2f 5b 3d c1 5d 5b 3d 4c 32 5b 3d
       0.053557526 0.053512085 0.053556208 0.053514764
000020 2b 5d 5b 3d ef 5d 5b 3d 3c 46 5b 3d e1 5b 5b 3d
       0.05355565 0.05355638 0.053533778 0.05355442
000030 f7 5d 5b 3d dd 62 5b 3d 43 42 5b 3d d4 5d 5b 3d
       0.05355641 0.05356108 0.05352999 0.05355628
000040 b6 5d 5b 3d 9d 5d 5b 3d 1a 89 91 3e db 5e 5b 3d
       0.053556167 0.053556073 0.28424913 0.053557258
000050 32 33 5b 3d 42 31 5b 3d 37 30 5b 3d 81 5d 5b 3d
       0.05351562 0.053513773 0.053512778 0.05355597
000060 e2 5c 5b 3d 15 50 5b 3d 2f 5d 5b 3d 3e 30 5b 3d
       0.053555377 0.05354317 0.053555664 0.053512804
000070 73 32 5b 3d 11 35 5b 3d 6d 5d 5b 3d 24 30 5b 3d
       0.05351491 0.053517405 0.053555895 0.053512707
000080 bf 5d 5b 3d f2 5d 5b 3d de 5c 5b 3d f5 50 5b 3d
       0.0535562 0.05355639 0.053555362 0.053544004
000090 37 5e 5b 3d 5f 30 5b 3d 32 5d 5b 3d 97 42 5b 3d
       0.053556647 0.053512927 0.053555675 0.053530302
0000a0 ad 43 5b 3d 24 2f 5b 3d dd 30 5b 3d 36 90 5a 3d
       0.053531338 0.053511754 0.053513397 0.053360187
0000b0 34 5d 5b 3d 9c 31 5b 3d 5b 43 5b 3d 9c 5e 5b 3d
       0.053555682 0.053514108 0.053531032 0.053557023
0000c0 98 5f 5b 3d 43 30 5b 3d 92 5e 5b 3d cb 2d 5b 3d
       0.053557962 0.053512823 0.053556986 0.05351047
0000d0 7c 5c 5b 3d af 78 6d 3d 55 30 5b 3d 72 2f 5b 3d
       0.053554997 0.05797642 0.05351289 0.053512044
0000e0 99 cd 5a 3d 50 36 5b 3d b3 5d 5b 3d 4a 5e 5b 3d
       0.05341873 0.053518593 0.053556155 0.053556718
0000f0 fe 30 5b 3d d7 45 92 be 66 5d 5b 3d e5 5f 5b 3d
       0.05351352 -0.2856891 0.05355587 0.05355825
000100 2c 30 5b 3d 83 fb f0 3c 04 51 5b 3d 21 e8 5e be
       0.053512737 0.029416805 0.05354406 -0.21768238
000110 57 c7 5a 3d 39 30 5b 3d 9e 4d 6e 3d 9d 5e 5b 3d
       0.05341276 0.053512786 0.05817949 0.053557027
000120 df a0 5a 3d 93 5d 5b 3d 4d 5e 5b 3d d2 5c 5b 3d
       0.053376075 0.053556036 0.05355673 0.053555317
000130 cb 5d 5b 3d 1a a3 47 3e 23 ac 5a 3d 0f 34 5b 3d
       0.053556245 0.19495812 0.05338682 0.053516444
000140 1d 54 5b 3d 9d 31 5b 3d 4b 31 5b 3d 8b 5c 5b 3d
       0.053547014 0.05351411 0.053513806 0.053555053
000150 a4 5d 5b 3d 27 32 5b 3d 32 33 5b 3d e9 5a 5b 3d
       0.0535561 0.053514626 0.05351562 0.053553496
000160 6b 5e 5b 3d 2a f3 d8 3e 82 5c 5b 3d 31 5d 5b 3d
       0.05355684 0.4237302 0.05355502 0.05355567
000170 53 5e 5b 3d dd 5e 5b 3d ab 1b c5 3d 85 5d 5b 3d
       0.05355675 0.053557266 0.09624418 0.053555984
000180 3c 66 5b 3d a0 5e 5b 3d 5c 5e 5b 3d ee 5b 5b 3d
       0.053564295 0.05355704 0.053556785 0.053554468
000190 c3 27 59 3d 61 2a 59 3d 19 fb 58 3d b5 28 59 3d
       0.053016435 0.05301893 0.05297384 0.053017337
0001a0 3c 28 59 3d 06 f9 58 3d e5 26 59 3d d0 fb 58 3d
       0.053016886 0.052971862 0.05301561 0.052974522
0001b0 4d 26 59 3d 11 27 59 3d 94 0f 59 3d 08 25 59 3d
       0.053015042 0.053015772 0.052993372 0.05301383
0001c0 1d 27 59 3d f4 2b 59 3d 9f 0b 59 3d f6 26 59 3d
       0.053015817 0.053020433 0.0529896 0.05301567
0001d0 d4 26 59 3d bd 26 59 3d 15 af 8f 3e f5 27 59 3d
       0.053015545 0.05301546 0.28063264 0.05301662
0001e0 af fc 58 3d d1 fa 58 3d bb f9 58 3d 9d 26 59 3d
       0.052975353 0.052973572 0.052972537 0.05301534
0001f0 01 26 59 3d 56 19 59 3d 54 26 59 3d c2 f9 58 3d
       0.05301476 0.053002678 0.05301507 0.052972563
000200 fa fb 58 3d 8d fe 58 3d 8f 26 59 3d ac f9 58 3d
       0.05297468 0.052977134 0.053015288 0.05297248
000210 db 26 59 3d 0b 27 59 3d fb 25 59 3d 36 1a 59 3d
       0.05301557 0.05301575 0.053014737 0.053003512
000220 55 27 59 3d e5 f9 58 3d 59 26 59 3d e5 0b 59 3d
       0.053016026 0.052972693 0.053015087 0.05298986
000230 08 0d 59 3d ab f8 58 3d 65 fa 58 3d 29 5b 58 3d
       0.052990943 0.052971523 0.05297317 0.052821312
000240 5a 26 59 3d 1e fb 58 3d b5 0c 59 3d bc 27 59 3d
       0.05301509 0.05297386 0.052990634 0.05301641
000250 b4 28 59 3d c4 f9 58 3d ad 27 59 3d 5a f7 58 3d
       0.053017333 0.05297257 0.053016353 0.052970268
000260 a1 25 59 3d 3d 15 6b 3d d9 f9 58 3d fb f8 58 3d
       0.0530144 0.0573933 0.05297265 0.05297182
000270 f8 97 58 3d ce ff 58 3d d2 26 59 3d 68 27 59 3d
       0.052879304 0.05297833 0.053015538 0.053016096
000280 82 fa 58 3d 4f a9 91 be 83 26 59 3d 04 29 59 3d
       0.052973278 -0.28449485 0.053015243 0.05301763
000290 b3 f9 58 3d af be ee 3c 40 1a 59 3d 7a ac 5f be
       0.052972507 0.02914366 0.05300355 -0.21843138
0002a0 ce 91 58 3d c0 f9 58 3d 53 e7 6b 3d b7 27 59 3d
       0.052873425 0.052972555 0.057593655 0.05301639
0002b0 b2 6b 58 3d b1 26 59 3d 6f 27 59 3d f5 25 59 3d
       0.05283708 0.053015415 0.053016122 0.053014714
0002c0 f1 26 59 3d ac c0 45 3e d0 76 58 3d 8f fd 58 3d
       0.053015653 0.1931178 0.052847683 0.052976187
0002d0 4f 1d 59 3d 1c fb 58 3d d9 fa 58 3d a7 25 59 3d
       0.053006466 0.05297385 0.052973602 0.053014424
0002e0 c1 26 59 3d a7 fb 58 3d b4 fc 58 3d 0c 24 59 3d
       0.053015474 0.05297437 0.05297537 0.053012893
0002f0 8a 27 59 3d 18 f6 d6 3e a8 25 59 3d 55 26 59 3d
       0.053016223 0.4198463 0.053014427 0.053015072
000300 70 27 59 3d f8 27 59 3d 4a 81 c2 3d a1 26 59 3d
       0.053016126 0.053016633 0.09497316 0.053015355
000310 45 2f 59 3d bf 27 59 3d 79 27 59 3d 10 25 59 3d
       0.053023595 0.05301642 0.05301616 0.05301386
000320 cd ce 50 3d 52 d1 50 3d bc a3 50 3d b2 cf 50 3d
       0.05097847 0.050980873 0.0509374 0.050979324
000330 41 cf 50 3d b1 a1 50 3d f0 cd 50 3d 5c a4 50 3d
       0.050978903 0.05093545 0.050977647 0.050937995
000340 61 cd 50 3d 16 ce 50 3d 74 b7 50 3d 23 cc 50 3d
       0.050977115 0.05097779 0.050956205 0.05097593
000350 26 ce 50 3d da d2 50 3d a3 b3 50 3d 08 ce 50 3d
       0.05097785 0.050982334 0.050952565 0.050977737
000360 e2 cd 50 3d cf cd 50 3d ff b5 88 3e f6 ce 50 3d
       0.050977595 0.050977524 0.26701352 0.050978623
000370 3b a5 50 3d 65 a3 50 3d 61 a2 50 3d b3 cd 50 3d
       0.050938826 0.050937075 0.050936107 0.05097742
000380 18 cd 50 3d df c0 50 3d 66 cd 50 3d 68 a2 50 3d
       0.050976843 0.050965186 0.050977133 0.050936133
000390 83 a4 50 3d 07 a7 50 3d a2 cd 50 3d 51 a2 50 3d
       0.05093814 0.05094054 0.050977357 0.050936047
0003a0 ee cd 50 3d 15 ce 50 3d 0d cd 50 3d b4 c1 50 3d
       0.05097764 0.050977785 0.0509768 0.05096598
0003b0 62 ce 50 3d 88 a2 50 3d 65 cd 50 3d bd b3 50 3d
       0.050978072 0.050936252 0.05097713 0.05095266
0003c0 f8 b4 50 3d 61 a1 50 3d ff a2 50 3d 4e 09 50 3d
       0.050953835 0.050935153 0.050936695 0.050790124
0003d0 6c cd 50 3d be a3 50 3d ae b4 50 3d c5 ce 50 3d
       0.050977156 0.050937407 0.05095356 0.05097844
0003e0 ba cf 50 3d 6b a2 50 3d b6 ce 50 3d 10 a0 50 3d
       0.050979353 0.050936144 0.050978385 0.050933897
0003f0 ba cc 50 3d 08 0d 62 3d 7e a2 50 3d a3 a1 50 3d
       0.050976492 0.05518821 0.050936215 0.0509354

regressor.6.bias f4 [100]
000000 5e 0e 11 bd 4a f5 0d bd 3e 6c 02 bd 54 f7 90 bd
       -0.035414092 -0.034657754 -0.03184151 -0.07078424
000010 a7 94 03 bd 05 b9 9d bd 58 6f 02 bd 59 85 02 bd
       -0.032124188 -0.07701305 -0.031844467 -0.03186545
000020 d4 1d 42 bd 9e b6 ea 3c f4 0e 11 bd 42 70 02 bd
       -0.047391728 0.028651532 -0.03541465 -0.03184534
000030 3a 83 02 bd ea 71 02 bd 1b 3f 0a bd ff 6a 02 bd
       -0.03186343 -0.03184692 -0.03375159 -0.03184032
000040 02 6d 03 bd 39 9c 03 bd 1b 82 fe bc 6b 6a 02 bd
       -0.03208638 -0.032131407 -0.031067898 -0.03183977
000050 5e fd 01 bd b9 87 fc bc 61 6f 02 bd 35 0e 11 bd
       -0.03173577 -0.030826436 -0.0318445 -0.03541394
000060 81 67 02 bd f4 30 09 bd ef 6f 02 bd 7d 7d 10 bd
       -0.03183699 -0.03349395 -0.03184503 -0.035275925
000070 05 6c 02 bd 79 ce 03 bd a6 67 02 bd 1f 9d 07 bd
       -0.031841297 -0.03217933 -0.031837128 -0.033108827
000080 7d e4 03 bd bf ba 01 bd c8 a1 ff bc 42 fd bc 3e
       -0.032200325 -0.031672236 -0.031205073 0.3691197
000090 66 8f 03 bd d1 68 02 bd 74 90 03 bd 1d 6e 02 bd
       -0.032119177 -0.031838242 -0.032120183 -0.031843293
0000a0 10 78 03 bd f0 0e 11 bd 99 66 02 bd db 6c 03 bd
       -0.032096922 -0.035414636 -0.031836126 -0.032086235
0000b0 1a 69 02 bd 9e 64 02 bd 88 b8 0f bd 48 1d 06 bd
       -0.031838514 -0.031834237 -0.035088092 -0.03274277
0000c0 49 92 03 bd a2 8a 03 bd 20 71 20 3d 6c 6f 02 bd
       -0.03212193 -0.032114632 0.039170384 -0.03184454
0000d0 50 62 14 bd ae 6a 39 bd 4e 6e 02 bd 95 90 02 bd
       -0.03622657 -0.045267753 -0.031843476 -0.031876165
0000e0 20 63 02 bd 8a 39 71 bd 8c 66 02 bd 4b 04 05 bd
       -0.031832814 -0.058892764 -0.031836078 -0.032474797
0000f0 d2 86 02 bd 13 fe 10 bd e5 d9 01 bd d2 32 91 bd
       -0.031866856 -0.035398554 -0.03170194 -0.07089771
000100 ce 47 5b bd d2 36 fc bc e7 6d 03 bd c2 76 02 bd
       -0.053535275 -0.03078786 -0.032087233 -0.031851538
000110 2b 6d 02 bd d4 30 ff bc 54 a0 fe bc 38 63 02 bd
       -0.031842392 -0.031151213 -0.03108231 -0.031832904
000120 bc 0e 11 bd 1b 6e 03 bd ad b1 1b bc ca 5c 0e bd
       -0.035414442 -0.032087427 -0.00950281 -0.03475646
000130 98 e5 9a bc d4 63 02 bd 9f 5b 85 bd c7 94 03 bd
       -0.018908307 -0.031833485 -0.06511616 -0.032124307
000140 26 49 01 bd 1f 9a 03 bd 7a 78 02 bd ae f9 fb bc
       -0.0315639 -0.032129403 -0.031853177 -0.030758705
000150 13 74 8a be c8 0e 11 bd 2c f5 01 bd e5 68 02 bd
       -0.27041683 -0.035414487 -0.031727955 -0.031838316
000160 64 9e fc bc e1 6e 02 bd 3b 73 02 bd 7c 6d 02 bd
       -0.030837245 -0.031844024 -0.031848174 -0.031842694
000170 60 f6 0d bd 85 94 03 bd 35 f0 87 bd 74 9e fc bc
       -0.03465879 -0.03212406 -0.06637613 -0.030837275
000180 8b 67 02 bd ca 6c 02 bd 22 09 44 3b 9a 71 02 bd
       -0.031837028 -0.03184203 0.002991267 -0.03184662

regressor.8.weight f4 [50, 100]
000000 00 89 6e 3e a4 b5 6c 3e ec 8f 65 3e c6 c8 a4 3f
       0.23294449 0.23116165 0.22418183 1.2873771
000010 37 4e 66 3e 2f a7 84 be ed 91 65 3e fe 9f 65 3e
       0.22490774 -0.259088 0.22418948 0.22424313
000020 e2 d5 8d 3e 1d ad 83 3c 48 89 6e 3e 71 92 65 3e
       0.27702242 0.016073758 0.23294556 0.22419144
000030 7c 9e 65 3e 6d 93 65 3e c5 78 6a 3e 2c 8f 65 3e
       0.22423738 0.2241952 0.22897632 0.22417897
000040 f4 34 66 3e 18 53 66 3e e5 7c 63 3e 98 8e 65 3e
       0.22481138 0.22492635 0.22215612 0.22417676
000050 3a 48 65 3e e7 d3 62 3e e4 91 65 3e cf 88 6e 3e
       0.22390833 0.22151147 0.22418934 0.23294376
000060 ab 8c 65 3e f5 d2 69 3e 34 92 65 3e 70 34 6e 3e
       0.22416942 0.2283438 0.22419053 0.23262191
000070 df 8f 65 3e 29 73 66 3e b8 8c 65 3e 3f d9 68 3e
       0.22418164 0.22504868 0.22416961 0.22739123
000080 4f 81 66 3e d2 1c 65 3e f9 db 63 3e a9 31 4b be
       0.22510265 0.22374275 0.22251882 -0.19843163
000090 d3 4a 66 3e 89 8d 65 3e 6e 4b 66 3e 20 91 65 3e
       0.2248948 0.22417273 0.22489712 0.22418642
0000a0 d9 3b 66 3e 3b 89 6e 3e 1c 8c 65 3e cd 34 66 3e
       0.22483768 0.23294537 0.22416729 0.2248108
0000b0 b0 8d 65 3e f2 8a 65 3e 62 e5 83 3e 61 e9 67 3e
       0.2241733 0.22416285 0.25760943 0.2264762
0000c0 bf 4c 66 3e db 47 66 3e 5d c2 74 3d fd 91 65 3e
       0.22490214 0.22488348 0.05975567 0.22418971
0000d0 27 74 70 3e 5b 11 84 3e 40 91 65 3e 2c a7 65 3e
       0.23481809 0.2579449 0.2241869 0.22427052
0000e0 fd 89 65 3e c5 f4 09 3f 1d 8c 65 3e 4a 38 67 3e
       0.2241592 0.53889114 0.2241673 0.22580066
0000f0 e7 a0 65 3e 70 7f 6e 3e 25 31 65 3e f1 03 0f 3f
       0.2242466 0.23290801 0.22382028 0.5586539
000100 6c c5 93 3e 9e b8 62 3e 65 35 66 3e a9 96 65 3e
       0.28861558 0.22140738 0.22481306 0.22420754
000110 79 90 65 3e d4 b6 63 3e bb 86 63 3e 05 8a 65 3e
       0.22418393 0.22237712 0.22219364 0.22415932
000120 37 89 6e 3e 7f 35 66 3e 1c 7a 3a 3a 38 f3 6c 3e
       0.23294531 0.22481345 0.00071135326 0.23139656
000130 a6 0a cb 3b 60 8a 65 3e 4e d7 9c 3f 46 4e 66 3e
       0.0061963378 0.22416067 1.2253206 0.22490796
000140 f8 d2 64 3e a7 51 66 3e b4 97 65 3e 0e a4 62 3e
       0.22346103 0.22492085 0.22421151 0.22132894
000150 17 7f 75 3f 27 89 6e 3e ae 42 65 3e 98 8d 65 3e
       0.9589705 0.23294507 0.22388718 0.22417295
000160 84 db 62 3e b7 91 65 3e 4a 94 65 3e 9c 90 65 3e
       0.22154051 0.22418867 0.22419849 0.22418445
000170 3d b6 6c 3e 3b 4e 66 3e ea 66 8c 3f 86 db 62 3e
       0.23116393 0.2249078 1.0968907 0.22154054
000180 b5 8c 65 3e 29 90 65 3e 34 92 9b 3b 31 93 65 3e
       0.22416957 0.22418274 0.0047476534 0.2241943
000190 02 17 60 bc 85 90 60 bc f1 00 62 bc 0a c5 2b ba
       -0.0136773605 -0.013706331 -0.01379417 -0.00065524934
0001a0 59 e1 61 bc 46 c2 89 be 99 00 62 bc 45 fe 61 bc
       -0.013786637 -0.2690603 -0.013794088 -0.013793533
0001b0 44 2c e1 bb c7 cf 8e bb e8 16 60 bc 6f 00 62 bc
       -0.006871732 -0.004358265 -0.013677336 -0.013794049
0001c0 6f fe 61 bc 57 00 62 bc f5 14 61 bc 08 01 62 bc
       -0.013793572 -0.013794026 -0.013737907 -0.013794191
0001d0 b2 e5 61 bc 92 e0 61 bc 70 51 62 bc 0f 01 62 bc
       -0.013787674 -0.013786452 -0.0138133615 -0.013794198
0001e0 60 0c 62 bc cc 68 62 bc 96 00 62 bc 03 17 60 bc
       -0.013796896 -0.013818931 -0.013794085 -0.013677361
0001f0 54 01 62 bc ec 37 61 bc 78 00 62 bc f7 2d 60 bc
       -0.013794262 -0.013746243 -0.013794057 -0.013682834
000200 eb 00 62 bc 1f db 61 bc 5c 01 62 bc 6e 6a 61 bc
       -0.013794164 -0.013785153 -0.013794269 -0.013758285
000210 a4 d8 61 bc 3b 13 62 bc a2 43 62 bc b0 b8 e3 bd
       -0.013784561 -0.01379853 -0.01381007 -0.11119211
000220 ec e1 61 bc 3f 01 62 bc d7 e1 61 bc a8 00 62 bc
       -0.013786774 -0.013794242 -0.013786755 -0.013794102
000230 70 e4 61 bc df 16 60 bc 70 01 62 bc af e5 61 bc
       -0.013787374 -0.013677328 -0.013794288 -0.013787671
000240 26 01 62 bc b2 01 62 bc 7c 8c e7 bb 52 98 61 bc
       -0.013794219 -0.0137943495 -0.0070663076 -0.013769226
000250 9f e1 61 bc 80 e2 61 bc be b5 b2 bb 96 00 62 bc
       -0.013786702 -0.013786912 -0.0054537943 -0.013794085
000260 3e 88 5f bc 3c 19 0d bc ba 00 62 bc 18 fd 61 bc
       -0.0136433225 -0.008611973 -0.013794119 -0.013793252
000270 ee 01 62 bc b5 8a 4e bc 75 01 62 bc ab b8 61 bc
       -0.013794405 -0.0126063125 -0.013794293 -0.013776938
000280 18 fe 61 bc a2 19 60 bc 14 10 62 bc c3 7b 30 bc
       -0.013793491 -0.013677986 -0.013797779 -0.010771695
000290 4c 9c 22 bc 6f 6c 62 bc 8c e5 61 bc bf ff 61 bc
       -0.009924959 -0.013819798 -0.013787638 -0.013793885
0002a0 d3 00 62 bc 06 49 62 bc e3 4f 62 bc e0 01 62 bc
       -0.013794142 -0.013811355 -0.013812992 -0.013794392
0002b0 ed 16 60 bc 83 e5 61 bc a6 1c e1 b9 45 81 60 bc
       -0.013677341 -0.01378763 -0.0004293669 -0.013702695
0002c0 24 bb 03 bc b9 01 62 bc 29 80 ef bb 57 e1 61 bc
       -0.008040223 -0.013794356 -0.007308979 -0.013786635
0002d0 bf 1e 62 bc cc e0 61 bc 9d ff 61 bc 11 6f 62 bc
       -0.013801276 -0.013786506 -0.013793853 -0.013820426
0002e0 4c 35 2e bd e3 16 60 bc 29 0d 62 bc 23 01 62 bc
       -0.042531297 -0.013677332 -0.013797083 -0.013794216
0002f0 bc 67 62 bc a5 00 62 bc 29 00 62 bc ba 00 62 bc
       -0.0138186775 -0.013794099 -0.0137939835 -0.013794119
000300 55 90 60 bc 65 e1 61 bc 3e b1 04 bc b6 67 62 bc
       -0.013706286 -0.013786648 -0.008098898 -0.013818672
000310 60 01 62 bc df 00 62 bc 3b 44 f1 ba 48 00 62 bc
       -0.013794273 -0.013794153 -0.0018407175 -0.013794012
000320 f5 16 60 bc 85 90 60 bc dc 00 62 bc c4 c5 2b ba
       -0.013677348 -0.013706331 -0.01379415 -0.00065526017
000330 51 e1 61 bc 48 c2 89 be 92 00 62 bc 3f fe 61 bc
       -0.01378663 -0.26906037 -0.013794081 -0.013793527
000340 44 2c e1 bb ac cf 8e bb cd 16 60 bc 6a 00 62 bc
       -0.006871732 -0.0043582525 -0.013677311 -0.013794044
000350 5c fe 61 bc 4c 00 62 bc eb 14 61 bc fe 00 62 bc
       -0.013793554 -0.013794016 -0.013737897 -0.013794182
000360 a9 e5 61 bc 8e e0 61 bc 56 51 62 bc 0c 01 62 bc
       -0.013787665 -0.013786448 -0.013813337 -0.013794195
000370 5f 0c 62 bc ad 68 62 bc 8b 00 62 bc f5 16 60 bc
       -0.013796895 -0.013818902 -0.013794075 -0.013677348
000380 47 01 62 bc e8 37 61 bc 73 00 62 bc f5 2d 60 bc
       -0.01379425 -0.013746239 -0.013794052 -0.013682832
000390 dc 00 62 bc 0f db 61 bc 45 01 62 bc 69 6a 61 bc
       -0.01379415 -0.013785138 -0.013794248 -0.01375828
0003a0 98 d8 61 bc 3f 13 62 bc 99 43 62 bc a6 b8 e3 bd
       -0.01378455 -0.013798534 -0.013810062 -0.11119203
0003b0 e8 e1 61 bc 31 01 62 bc d0 e1 61 bc a5 00 62 bc
       -0.01378677 -0.013794229 -0.013786748 -0.013794099
0003c0 6b e4 61 bc d2 16 60 bc 66 01 62 bc a7 e5 61 bc
       -0.013787369 -0.013677316 -0.013794279 -0.013787664
0003d0 15 01 62 bc 9d 01 62 bc 70 8c e7 bb 3a 98 61 bc
       -0.013794203 -0.01379433 -0.007066302 -0.013769204
0003e0 9a e1 61 bc 69 e2 61 bc a1 b5 b2 bb 8b 00 62 bc
       -0.013786698 -0.013786891 -0.0054537808 -0.013794075
0003f0 33 88 5f bc 36 19 0d bc a9 00 62 bc 05 fd 61 bc
       -0.013643312 -0.008611968 -0.013794103 -0.013793235

regressor.8.bias f4 [50]
000000 9b 54 7b bd 45 fe b6 3b 55 fe b6 3b 62 fe b6 3b
       -0.061359983 0.0055845105 0.005584518 0.005584524
000010 89 fe b6 3b 0e d1 12 bd 3c 9a 14 bd 60 fe b6 3b
       0.005584542 -0.0358439 -0.0362799 0.005584523
000020 ca 55 c3 bd f6 f9 1b bd 9a fe b6 3b 85 fe b6 3b
       -0.09537847 -0.03808018 0.00558455 0.0055845403
000030 62 fe b6 3b e0 72 de bd 6c fe b6 3b 47 fe b6 3b
       0.005584524 -0.108617544 0.0055845287 0.0055845114
000040 5d fe b6 3b 82 fe b6 3b 64 fe b6 3b cd 80 4d bd
       0.0055845217 0.005584539 0.005584525 -0.050171662
000050 8a fe b6 3b 6a fe b6 3b 97 fe b6 3b 9b 8d 71 bd
       0.0055845426 0.0055845277 0.0055845487 -0.058972936
000060 76 fe b6 3b 55 86 1b bd 8c fe b6 3b 7e 70 14 bd
       0.0055845333 -0.037969906 0.0055845436 -0.036240093
000070 3e fe b6 3b c5 80 64 bd 89 fe b6 3b 2b a8 9c bd
       0.0055845072 -0.055786867 0.005584542 -0.07649263
000080 bd fb b8 bd 51 fe b6 3b 27 fe b6 3b 68 fe b6 3b
       -0.0903239 0.005584516 0.0055844965 0.005584527
000090 37 e8 1c 3f ae fe b6 3b 80 fe b6 3b 5e fe b6 3b
       0.6129183 0.0055845594 0.005584538 0.005584522
0000a0 ed 6e 1b bd 46 fe b6 3b b4 fe b6 3b 8d fe b6 3b
       -0.037947584 0.005584511 0.005584562 0.005584544
0000b0 ac 84 93 bd 76 fe b6 3b 9f fe b6 3b 4e fe b6 3b
       -0.072030395 0.0055845333 0.0055845524 0.0055845147
0000c0 1b d8 b5 be 37 fe b6 3b
       -0.35516438 0.005584504

regressor.10.weight f4 [1, 50]
000000 4b 86 40 40 bf 2f df bd ad 2f df bd b0 2f df bd
       3.0081966 -0.10897779 -0.10897765 -0.108977675
000010 a4 2f df bd ea 45 1d 40 67 1f 1c 40 9a 2f df bd
       -0.108977586 2.4573922 2.4394166 -0.10897751
000020 70 f2 5e 40 60 91 0e 40 9a 2f df bd a1 2f df bd
       3.4835472 2.227623 -0.10897751 -0.10897756
000030 ad 2f df bd cf bc 30 40 a2 2f df bd b8 2f df bd
       -0.10897765 2.761524 -0.10897757 -0.108977735
000040 b2 2f df bd aa 2f df bd a4 2f df bd 10 99 47 40
       -0.10897769 -0.10897763 -0.108977586 3.1187172
000050 ad 2f df bd b3 2f df bd 98 2f df bd 26 df 97 3f
       -0.10897765 -0.1089777 -0.1089775 1.1864974
000060 ac 2f df bd 18 88 14 40 9d 2f df bd 03 3d 1c 40
       -0.108977646 2.3208065 -0.108977534 2.4412239
000070 ac 2f df bd e9 5f 64 40 9e 2f df bd f2 b9 89 40
       -0.108977646 3.568354 -0.10897754 4.3039484
000080 1c d2 2d 40 aa 2f df bd c3 2f df bd b6 2f df bd
       2.715949 -0.10897763 -0.10897782 -0.10897772
000090 ab e7 46 3f 9a 2f df bd aa 2f df bd a4 2f df bd
       0.7769725 -0.10897751 -0.10897763 -0.108977586
0000a0 12 f3 14 40 b5 2f df bd 9e 2f df bd 9d 2f df bd
       2.3273358 -0.10897771 -0.10897754 -0.108977534
0000b0 43 14 75 40 a5 2f df bd a3 2f df bd b3 2f df bd
       3.8293617 -0.10897759 -0.10897758 -0.1089777
0000c0 8f 10 55 be b8 2f df bd
       -0.20807098 -0.108977735
