saved-networks/SixLayerNet_V2.pth (torch_old, 490072 bytes, 11 tensors)

regressor.0.weight f4 [100, 11]
0	0xbebeffbb	-0.37304482
1	0x3d5d5f10	0.054045737
2	0xbe33681e	-0.17520186
3	0xbd0f60c5	-0.035004396
4	0x3e0d0e66	0.13775024
5	0xbe81bd7b	-0.25339875
6	0x3e930277	0.28712818
7	0x3ed448a8	0.41461682
8	0x3f1582bd	0.58402616
9	0x3e03aa8f	0.12858032
10	0x3e486b6d	0.1957223
11	0xbddfa012	-0.10919203
12	0x3e26746a	0.16255346
13	0xbe329aee	-0.17441913
14	0x3cd110c8	0.025520697
15	0xbe17a961	-0.14810707
16	0x3d855454	0.06510225
17	0x3cd013f9	0.025400149
18	0x3d981b6d	0.07427106
19	0x3eb93056	0.3616969
20	0x3e04adfa	0.12956992
21	0x3e74498b	0.2385618
22	0xbdad015b	-0.08447524
23	0xbdc14a1f	-0.094379656
24	0x3dec7ea5	0.11547593
25	0xbe380ac0	-0.17972851
26	0x3e443169	0.19159473
27	0xbdb105da	-0.08643694
28	0xbd8a695f	-0.06758379
29	0xbe188ecd	-0.14898224
30	0xbe7f4bf4	-0.24931318
31	0x3e669322	0.22517064
32	0xbe0c76fa	-0.13717261
33	0xbe4ec15a	-0.20190945
34	0xbd8162d8	-0.06317681
35	0xbd3a822c	-0.045534298
36	0xbd057571	-0.032582704
37	0xbe84728c	-0.25868642
38	0xbe87d3a7	-0.26528665
39	0x3c936f66	0.017997455
40	0xbd475d54	-0.04867299
41	0xbe059f8d	-0.13049145
42	0xbdf399fc	-0.118946046
43	0x3e26a84f	0.16275142
44	0xbe535c37	-0.20640646
45	0xbe5e09a5	-0.21683367
46	0x3dae6401	0.08515168
47	0xbe317dd1	-0.17333151
48	0x3e53ff76	0.2070292
49	0xbcfa7220	-0.030571997
50	0x3de29253	0.110630654
51	0xb91a8b36	-0.00014738445
52	0x3d4bd2c9	0.049761567
53	0xbcb8c32e	-0.022554006
54	0xbdcfa199	-0.10138244
55	0x3ba806a2	0.005127744
56	0x3eb1255c	0.34598815
57	0xbe9255a2	-0.28580958
58	0x3ba8b459	0.0051484522
59	0xbd8fab00	-0.070150375
60	0xbe22a8bd	-0.15884681
61	0xbe1bdd42	-0.15221122
62	0xbe83197a	-0.25605375
63	0xbefe8d92	-0.49717385
64	0x3dab5ee8	0.08367711
65	0xbe91005a	-0.2832058
66	0xbcbabfe2	-0.022796575
67	0xbdb01474	-0.08597651
68	0x3e0ed0ea	0.13946882
69	0xbe7145b3	-0.23561744
70	0xbd12847b	-0.035770874
71	0xbe5e61a9	-0.21716942
72	0xbe0a8b6e	-0.1352975
73	0xbd9e145c	-0.07718727
74	0x3e5ae1c9	0.21375193
75	0xbdd0c96c	-0.10194668
76	0xbdd766b1	-0.10517634
77	0x3db6df23	0.08929279
78	0x3e614e5f	0.22002552
79	0xbd4eb24d	-0.05046301
80	0x3d411b54	0.047145203
81	0xbe62ea23	-0.22159629
82	0xbe2bcc07	-0.16777049
83	0xbe137c09	-0.14402784
84	0x3d528bdb	0.051402908
85	0x3e0daf6f	0.13836454
86	0x3d63a634	0.055578426
87	0xbe13dbe4	-0.1443935
88	0x3caaf1cd	0.020867253
89	0xbde57812	-0.11204542
90	0xbc917224	-0.017754622
91	0x3e2d6a72	0.16935137
92	0x3e484195	0.19556268
93	0x3e71344e	0.23555109
94	0x3e94c158	0.2905376
95	0xbd378693	-0.044806074
96	0x3e902c8e	0.28158993
97	0x3d8816ac	0.06644949
98	0x3bd10389	0.0063785953
99	0x3e0251e4	0.12726551
100	0xbe2b3b1b	-0.16721766
101	0x3dfa3ed7	0.12219017
102	0xbe6dbc7d	-0.23216434
103	0xbe683985	-0.22678192
104	0xbe532a80	-0.20621681
105	0x3d682b4c	0.056681916
106	0xbc81fb84	-0.015867002
107	0x3d0c4c11	0.03425223
108	0xbe48afa5	-0.19598253
109	0xbe6da50f	-0.23207496
110	0xbe31fc84	-0.17381483
111	0xbd1b242a	-0.037876286
112	0x3e34bd46	0.17650327
113	0xbd86e580	-0.065867424
114	0xbd0890c0	-0.03334117
115	0xbe61ab88	-0.2203809
116	0xbe659a6d	-0.2242219
117	0xbe8b2b0d	-0.27181283
118	0x3dde205c	0.10846016
119	0x3d6ab5bd	0.057302225
120	0xbe85bbb9	-0.26119784
121	0x3d4c0517	0.04980954
122	0x3d155830	0.036461055
123	0x3e0719c8	0.13193429
124	0xbe4cc4d8	-0.19996965
125	0x3dfb5184	0.12271407
126	0xbe545a0e	-0.20737478
127	0x3d9d99f0	0.07695377
128	0x3e05fde3	0.13085131
129	0x3e895753	0.26824436
130	0xbdd1b746	-0.10240035
131	0x3dc9a07e	0.098450646
132	0xbebaf903	-0.36518106
133	0xbe80ed5f	-0.251811
134	0x3e22c46e	0.15895244
135	0x3de897a5	0.11357049
136	0xbe9b3a8d	-0.30318108
137	0xbe9dce62	-0.3082152
138	0x3d893298	0.06699103
139	0x3d465f90	0.04843098
140	0x3d7fbce0	0.062435985
141	0xbe75fe5e	-0.24022815
142	0xbc81c691	-0.015841754
143	0xbb651dbc	-0.003496035
144	0xbdb165d8	-0.08662003
145	0x3da026c4	0.07819894
146	0xbd2e70ba	-0.042587973
147	0xbdf91a87	-0.12163263
148	0x3e6004de	0.21876857
149	0x3da33ecc	0.07970962
150	0x3d780009	0.06054691
151	0x3e1fe70c	0.15615481
152	0xbe4828de	-0.1954684
153	0x3e30c010	0.17260766
154	0x3df2e282	0.11859609
155	0x3d16adb2	0.036786743
156	0xbe56c656	-0.20974097
157	0x3debe101	0.115175255
158	0xbe25d0b7	-0.161929
159	0xbdbba32d	-0.09161983
160	0xbe412906	-0.18863305
161	0xbd11438c	-0.03546481
162	0x3d855347	0.065100245
163	0x3da40bb5	0.080100454
164	0xbe3647a4	-0.17800766
165	0xbc92e980	-0.017933607
166	0xbe0ade5c	-0.13561386
167	0xbe2d0c40	-0.16899204
168	0x3d82ab95	0.06380383
169	0xbe61361e	-0.219933
170	0xbd8974c1	-0.06711722
171	0x3ddbb735	0.10728303
172	0x3e1e141d	0.1543736
173	0x3e9a89f0	0.30183363
174	0xbd0b808f	-0.03405815
175	0xbe207162	-0.15668252
176	0x3e3a4780	0.18191338
177	0xbda0352d	-0.078226425
178	0x3d78d82f	0.060753044
179	0xbd34627a	-0.044039227
180	0x3c8265e9	0.015917735
181	0xbe393e2e	-0.18090126
182	0x3dfd5b03	0.12370875
183	0x3c886228	0.016648367
184	0xbc46897d	-0.012117741
185	0xbe0e9074	-0.13922292
186	0x3e49625d	0.19666429
187	0xbdb86c7a	-0.09005065
188	0x3e0a19a0	0.13486338
189	0xbe0e33d4	-0.13886958
190	0xbe043c2b	-0.12913577
191	0xbdb3ac6a	-0.0877312
192	0xbdd1cb9a	-0.10243912
193	0xbe4feb4d	-0.20304604
194	0x3e1f76f3	0.1557272
195	0x3e334c58	0.17509592
196	0x3e53b661	0.20675041
197	0xbe07f79e	-0.13278052
198	0x3e8d006d	0.27539387
199	0x3e561b85	0.20908935
200	0x3e173279	0.14765348
201	0x3e487f75	0.19579871
202	0xbe5a0dce	-0.21294329
203	0xbe3b8141	-0.18311025
204	0xbd02cdb1	-0.031934444
205	0x3dfbdb05	0.12297634
206	0xbe954821	-0.29156592
207	0xbe38488e	-0.17996427
208	0xbe7f5f35	-0.24938662
209	0x3e76e9f3	0.24112682
210	0xbecb4149	-0.39698246
211	0xbdb3756d	-0.087626316
212	0x3dcddc00	0.10051727
213	0x3e1c8af3	0.1528738
214	0x3bdf77ac	0.006819686
215	0x3de35824	0.11100796
216	0x3e551cc5	0.20811756
217	0xbe72ce5e	-0.23711535
218	0x398e75e1	0.00027172177
219	0x3d187217	0.03721818
220	0x3dc2c7ff	0.095108025
221	0xbb8606d8	-0.0040901713
222	0xbe1e63b5	-0.15467723
223	0xbdfbe85b	-0.12300178
224	0x3e28fe7e	0.16503331
225	0x3dc87fc7	0.097899966
226	0xbe202e36	-0.15642628
227	0xbd96514f	-0.07339727
228	0xbe7f1959	-0.24912013
229	0xbe6a255f	-0.22865818
230	0x3c97b3f5	0.018518427
231	0x3ea1d713	0.316094
232	0xbde31946	-0.11088805
233	0x3e3870b9	0.1801175
234	0x3dd20f5d	0.102568366
235	0xbde50bfe	-0.11183928
236	0x3e89e2bb	0.26930794
237	0x3e7198e7	0.23593484
238	0xbe074584	-0.13210112
239	0xbe5e3145	-0.21698482
240	0xbd9189ff	-0.07106399
241	0xbe0bea96	-0.13663706
242	0x3d988ddf	0.07448935
243	0xbe514ef2	-0.20440271
244	0x3e6d254d	0.2315876
245	0xbd342ff0	-0.04399103
246	0xbd9a5af9	-0.07536883
247	0x3dde0ba1	0.10842062
248	0x3da4bf3f	0.0804429
249	0xbe28e851	-0.16494872
250	0x3c78894c	0.015169453
251	0x3df59d51	0.11992896
252	0xbd0dbfc1	-0.0346067
253	0x3e0ea44a	0.13929859
254	0xbd64b65f	-0.055837985
255	0x3c6f2b99	0.014597797

regressor.0.bias f4 [100]
0	0x3e8d254b	0.27567515
1	0xbe1bc82e	-0.15213081
2	0x3e885e69	0.2663453
3	0xbe1521b5	-0.1456364
4	0xbe666808	-0.22500622
5	0x3e7d84fe	0.24757764
6	0x3df069cd	0.1173893
7	0x3c55972a	0.013036529
8	0x3e37b1bf	0.17938899
9	0x3d54ea98	0.05198154
10	0x3db113e7	0.08646374
11	0x3d0fc145	0.035096426
12	0xbda093e6	-0.078407094
13	0xbe4e0f81	-0.20123102
14	0x3de41aac	0.111379
15	0x3e7690d6	0.24078688
16	0x3baa6cab	0.0052009425
17	0xbda6f1a0	-0.08151555
18	0x3e6cf77c	0.23141283
19	0xbc841326	-0.016122412
20	0xbe0b3dba	-0.13597766
21	0x3db0bef8	0.086301744
22	0xbe41aad5	-0.18912823
23	0x3d98e3f8	0.074653566
24	0xbe7d8731	-0.24758603
25	0x3d8bb8a4	0.06822327
26	0x3e351149	0.17682375
27	0x3e44b3c8	0.19209206
28	0x3b361c9c	0.0027788049
29	0x3e89610a	0.26831847
30	0x3d556ebe	0.052107565
31	0x3e9ef074	0.31042826
32	0xbe206eec	-0.15667313
33	0xbdf31502	-0.11869241
34	0x3e44dd56	0.19225058
35	0x3cdf0ec0	0.027228713
36	0x3d7e0088	0.062012225
37	0xbd21cdda	-0.039502956
38	0x3ce017a5	0.027355025
39	0xbdae4321	-0.085088976
40	0x3e27ab9d	0.16374059
41	0xbe05a0cd	-0.13049622
42	0xba7a2473	-0.00095421745
43	0x3e053a7c	0.13010591
44	0xbe141a3d	-0.14463134
45	0x3ea3ed82	0.32017142
46	0xbdfb8ad1	-0.122823365
47	0x3e08f033	0.13372879
48	0x3d2d6381	0.042331222
49	0xbd04af3b	-0.032393675
50	0x3e1263f0	0.14295936
51	0x3e8eb4da	0.27872354
52	0x3d7b38f4	0.06133361
53	0x3e5168ef	0.20450185
54	0xbde78b58	-0.113058746
55	0xbda0adfc	-0.07845685
56	0xbe72b152	-0.23700455
57	0xbcf3ed63	-0.02977628
58	0xbd764c57	-0.060131397
59	0x3e5f6654	0.21816379
60	0x3e9a7f9f	0.30175492
61	0x3cfcafd2	0.030845556
62	0xbd6ce63c	-0.057836756
63	0x3ea08de2	0.31358248
64	0x3df651fa	0.120273545
65	0x3e53f4e2	0.20698884
66	0x3e8e0573	0.27738532
67	0x3e217b43	0.15769677
68	0x3e7bcbb3	0.24589424
69	0xbe482473	-0.19545154
70	0x3e49a6a4	0.19692475
71	0xbd2493ee	-0.04018014
72	0xbdd47eed	-0.10375772
73	0xbe50e597	-0.20400082
74	0xbd5679e3	-0.052362334
75	0x3e0ae120	0.13562441
76	0x3e5c9ea7	0.21544896
77	0xbc16f203	-0.0092129735
78	0xbe745cec	-0.23863572
79	0xbe14c317	-0.14527546
80	0x3e52f71b	0.20602076
81	0xbd88a9ae	-0.06672989
82	0x3e660383	0.22462277
83	0x3d3a7257	0.0455192
84	0xbd2ad816	-0.04170998
85	0x3e1c3f4c	0.15258521
86	0x3e807400	0.250885
87	0xbe6f1f38	-0.23351753
88	0x3d1f5778	0.038901776
89	0x3db08f8f	0.08621132
90	0x3cfb719f	0.030693827
91	0xbe0443fb	-0.12916557
92	0x3dcd63cb	0.100287996
93	0xbe390437	-0.18068014
94	0x3e3bee7f	0.18352698
95	0x3e020e0d	0.12700672
96	0xbe2959a7	-0.16538106
97	0xbddd7aeb	-0.1081446
98	0xbafdb1e6	-0.0019355386
99	0x3e2c8b4c	0.16850013

regressor.2.weight f4 [200, 100]
0	0xbd6860c8	-0.056732923
1	0x3d912eab	0.07088979
2	0x3cd6d876	0.026226263
3	0x3d81dcf4	0.063409716
4	0x3d4491f0	0.04799074
5	0x3d425d8a	0.047452487
6	0xbd73cb31	-0.05951995
7	0x3cfa37ec	0.030544244
8	0xbd527fc9	-0.051391397
9	0x3be6a69f	0.0070389058
10	0xbcee9bab	-0.029126963
11	0x3d0e93e3	0.034809005
12	0x3d79a2d5	0.060946304
13	0xbd2b75a9	-0.041860256
14	0x3d5e3ad7	0.054255333
15	0xbd8cbf18	-0.06872386
16	0x3c51f74f	0.012815311
17	0xbd8e6a39	-0.06953854
18	0x3d743573	0.059621286
19	0xbd3c12f5	-0.045916516
20	0xbd8ec4df	-0.06971144
21	0xbd84cda3	-0.064845346
22	0x3d662622	0.05618871
23	0x3c0704b7	0.00824087
24	0xbd80ca78	-0.06288618
25	0xbcb2482a	-0.021762926
26	0xbd44ab08	-0.04801467
27	0xbd80c54d	-0.06287632
28	0x3c3435ed	0.010999185
29	0x3b973397	0.0046143043
30	0x3c69995d	0.014257756
31	0x3d22a753	0.039710354
32	0x3d0e86f8	0.034796685
33	0xbc6dad13	-0.014506596
34	0x3d23ae1b	0.03996096
35	0x3c171343	0.009220901
36	0x3cdf7043	0.02727521
37	0xbd893847	-0.06700187
38	0x3d8b183b	0.06791731
39	0x3d5d2414	0.053989485
40	0x3cbd2398	0.023088261
41	0xbd1b28b3	-0.03788061
42	0x3d883c83	0.06652167
43	0x3ce3dbec	0.027814828
44	0xbca22483	-0.0197928
45	0xbd8e1452	-0.069374695
46	0x3d5d3576	0.054006062
47	0x3d7edff9	0.062225316
48	0x3cfc4e1e	0.030798968
49	0xbd64fdc1	-0.05590606
50	0x3bd42d0c	0.0064750966
51	0xbc335bb4	-0.010947157
52	0xbd5bcfc7	-0.05366495
53	0x3c9c619e	0.019089516
54	0x3c929844	0.017894872
55	0x3d464716	0.048407637
56	0xbd7487fb	-0.059699994
57	0x3d65a650	0.05606681
58	0xbd1f4553	-0.038884472
59	0xbd8fc78a	-0.07020481
60	0x3ce082b8	0.027406082
61	0xbda95928	-0.08268958
62	0x3cb93216	0.02260689
63	0xbd404b6d	-0.04694693
64	0x3d90f035	0.07077066
65	0xbd9df1c8	-0.07712132
66	0x3d71806b	0.05896036
67	0x3d9ab731	0.07554472
68	0x3d2fec89	0.042950187
69	0xbd7931e3	-0.06083859
70	0x3d01c4a8	0.031681687
71	0xbd8e7fc9	-0.06957967
72	0x3c6784df	0.0141308
73	0xbd56185f	-0.052269336
74	0xbcbe7997	-0.023251338
75	0xbd59798d	-0.053094435
76	0x3d5499e8	0.05190459
77	0xbd5d161f	-0.053976174
78	0xbd880ee9	-0.06643469
79	0x3cc71cee	0.024305787
80	0xbd8c3d88	-0.06847674
81	0xbda12f9b	-0.07870408
82	0x3d924792	0.07142557
83	0xbd59f890	-0.053215563
84	0x3cc4d65a	0.024027992
85	0xbd0a034f	-0.03369456
86	0x3d0275c0	0.031850576
87	0x3d78f140	0.06077695
88	0x3a694a2c	0.0008899297
89	0xbd3d1a39	-0.046167586
90	0xbd74a95e	-0.059731834
91	0xbba3072c	-0.00497522
92	0xbca842c5	-0.02053965
93	0xbcc2f3f6	-0.02379797
94	0x3d16ef8d	0.036849547
95	0x3d96cd65	0.07363395
96	0xbd0d8455	-0.03455003
97	0xbcbfe40f	-0.023424176
98	0xbd14defa	-0.03634546
99	0x3d34fdc1	0.04418731
100	0x3d50dce4	0.050991908
101	0xbc690200	-0.014221668
102	0xbc5ea475	-0.013589014
103	0x3d50f4da	0.05101476
104	0x3c94db75	0.018171052
105	0xbd9444cd	-0.07239685
106	0x3cd839b0	0.026394695
107	0x3d6dadd7	0.058027115
108	0xbc71c51d	-0.014756468
109	0xbd686e7c	-0.05674599
110	0x3c00874c	0.007844757
111	0x3d82c764	0.06385687
112	0x3d5ccebd	0.0539081
113	0x3d2efdb8	0.042722434
114	0x3d1df948	0.03856781
115	0xbcd9cb3a	-0.026586164
116	0x3cc14032	0.023590181
117	0x3da1d2ac	0.079015106
118	0x3d075c28	0.03304687
119	0xbc204693	-0.009782451
120	0xbb2b2846	-0.0026116534
121	0xbcde8eed	-0.027167762
122	0xbd8818e4	-0.066453725
123	0x3d8f0923	0.069841646
124	0xbc974bb7	-0.01846872
125	0x3d92c609	0.071666785
126	0x3d89f468	0.0673607
127	0x3c6e5226	0.014545953
128	0x3cc586a8	0.02411206
129	0xbd62a7be	-0.055335753
130	0x3d3d2a2e	0.046182804
131	0x3d8280d3	0.063722275
132	0x3d1cc95f	0.03827798
133	0xbd54709d	-0.05186521
134	0xbd111b7f	-0.035426613
135	0xbd94b9c4	-0.072619945
136	0xbca01a51	-0.019543799
137	0xbd5cc591	-0.05389935
138	0x3d0b3c6d	0.033993173
139	0xbd81ce64	-0.06338194
140	0x3c9c1c43	0.019056445
141	0xbd01a2e9	-0.031649504
142	0xbcdd123c	-0.026986234
143	0x3d203949	0.03911713
144	0x3c22696f	0.009912833
145	0xbcfd8fc2	-0.030952338
146	0x3ba6d47f	0.0050912495
147	0x3d0a9e37	0.03384229
148	0xbd9636b3	-0.07334652
149	0xbd5be920	-0.053689122
150	0x3d6273d1	0.055286232
151	0xbc297e6a	-0.010345081
152	0x3cce1306	0.025155555
153	0x3d7e4324	0.06207575
154	0xbbcee994	-0.006314466
155	0xbd8c03fe	-0.06836699
156	0xbd640318	-0.055667013
157	0x3c59924f	0.013279512
158	0x3d7c0991	0.06153256
159	0xbd84003d	-0.06445358
160	0x3cec4a3b	0.02884399
161	0xbd61e91d	-0.055153955
162	0x3cf0e7c0	0.029407382
163	0xbd76567b	-0.060141068
164	0xbd98fa4f	-0.074696176
165	0xbd5bb46f	-0.05363887
166	0xbd3fec28	-0.046856076
167	0x3d1a385e	0.037651412
168	0x3cb7c7d2	0.022434149
169	0xbd48690a	-0.048928298
170	0xbcd80d93	-0.02637366
171	0x3d21c3d7	0.039493408
172	0x3c3e6b2c	0.011622231
173	0x3bb6c265	0.005577373
174	0x3aa66fff	0.0012698172
175	0x3cd35169	0.025795655
176	0x3c911b35	0.017713169
177	0xbd8cfc51	-0.06884063
178	0x3d97e4cd	0.07416687
179	0x3d7fc617	0.062444773
180	0x3d327e94	0.043577746
181	0xbcfa9b1f	-0.030591546
182	0xbd827b29	-0.06371147
183	0xbd87a076	-0.06622402
184	0xbd65e986	-0.05613091
185	0x3c955c1c	0.018232398
186	0xbc459c90	-0.012061253
187	0xbc0553ed	-0.008137685
188	0xbd66a8f3	-0.056313466
189	0x3cf84610	0.030306846
190	0xbcb1e873	-0.021717286
191	0xbcbe48ce	-0.023228075
192	0x3d2be583	0.041966926
193	0x3c3ca0e1	0.011512966
194	0x3d90b496	0.07065694
195	0xbd983370	-0.07431686
196	0x3d106e44	0.035261407
197	0xbd84151a	-0.06449337
198	0xbc2fbdde	-0.01072642
199	0x3d9eb094	0.07748523
200	0x3e5e3a4b	0.21701925
201	0x3d14a26f	0.03628772
202	0xbdad2756	-0.08454768
203	0x3d829b62	0.06377293
204	0x3cbd7b23	0.023130005
205	0xbe1dc509	-0.15407194
206	0x3da0da88	0.078541815
207	0xbd9386fb	-0.0720348
208	0xbcb7c607	-0.022433294
209	0xbd848261	-0.0647018
210	0x3d2c6169	0.042085085
211	0xb906330e	-0.00012798255
212	0x3d978f17	0.07400339
213	0xbd58e04d	-0.052948285
214	0xbdae9d95	-0.0852615
215	0x3c443291	0.011974947
216	0xbca044a2	-0.019563977
217	0x3d704288	0.0586572
218	0xbe0d9364	-0.13825756
219	0xbd0f44ba	-0.034977652
220	0xbd5470ad	-0.05186527
221	0xbdd2d706	-0.10294919
222	0x3ca5e4e1	0.02025074
223	0xbdb2e476	-0.08734982
224	0xbd8a1bab	-0.067435585
225	0xbcec5158	-0.028847381
226	0x3dbf9f8e	0.093566045
227	0x3dbdc67d	0.09266374
228	0x3cd5036a	0.026002605
229	0xbda1c94d	-0.07899723
230	0xbde95fae	-0.113952026
231	0xbd901412	-0.07035078
232	0x3d952d3a	0.07284017
233	0x3cf91348	0.030404702
234	0x3e0762d5	0.13221295
235	0xbdbed98f	-0.0931884
236	0xbd51ff4e	-0.05126887
237	0x3daa4e93	0.08315768
238	0x3d965eaf	0.07342278
239	0xbd32787c	-0.043571934
240	0x3d330cc1	0.043713335
241	0x3bb08264	0.0053866375
242	0xbdbae8d5	-0.091264404
243	0x3cb620cb	0.022232434
244	0xba69d512	-0.00089199946
245	0x3e8124be	0.25223345
246	0x3c2fdbf9	0.010733598
247	0xbd54655f	-0.051854488
248	0xbdd278ed	-0.10276971
249	0xbcdce52f	-0.026964752
250	0xbe6ce0d5	-0.23132642
251	0x3e3fd7db	0.18734686
252	0xbe07230b	-0.13196962
253	0x3c959c71	0.018263074
254	0xbc2caafa	-0.010538811
255	0xbdaee92f	-0.0854057

regressor.2.bias f4 [200]
0	0x3c8ab933	0.016934013
1	0x3d40df1d	0.047087777
2	0x3e498ff2	0.19683817
3	0xbbb742c4	-0.005592676
4	0xbd7e75e0	-0.062124133
5	0x3dd8c1db	0.1058385
6	0x3d6b1240	0.05739045
7	0xbce027ab	-0.027362665
8	0x3ccf6005	0.02531434
9	0x3d887f83	0.06664946
10	0xbd725890	-0.05916649
11	0xbbfb62a9	-0.0076716733
12	0x3d1da4f2	0.038487382
13	0xbcfb12f6	-0.03064869
14	0x3c6d02f8	0.01446604
15	0xbc3e285e	-0.011606304
16	0x3d23c9ba	0.039987303
17	0x3d9ec809	0.077529974
18	0x3d31db58	0.043422073
19	0x3d486bca	0.04893092
20	0x3dc5e405	0.09662632
21	0xbcd3e290	-0.02586487
22	0xbc2f63e9	-0.010704973
23	0x3d577078	0.052597493
24	0x3c981ca5	0.018568346
25	0x3b9a0213	0.0046999543
26	0xbd72cf42	-0.059279688
27	0xbce6083b	-0.028080096
28	0xbbade14c	-0.0053063985
29	0x3cc6f090	0.024284631
30	0xbb21ac83	-0.0024669475
31	0x3d58ad5d	0.052899707
32	0x3ca5ea59	0.020253347
33	0xbd8ce4a0	-0.06879544
34	0xbd8c5c1a	-0.068535045
35	0x3dde3a0b	0.108509146
36	0x3daa90cc	0.08328399
37	0x3d87546e	0.066079006
38	0x3ca2db66	0.019880008
39	0x3cbff1cd	0.02343073
40	0x3d1db025	0.038498063
41	0xbd9b5b7d	-0.075858094
42	0x3d807a6e	0.062733516
43	0x3d01c6c9	0.031683717
44	0x3d6def64	0.05808963
45	0x3cffa338	0.031205758
46	0xbcac9b38	-0.021070108
47	0x3d2698b0	0.040672958
48	0xbd9dd21a	-0.07706089
49	0x3d98c8ed	0.074601986
50	0x3c417a02	0.011808874
51	0xbd005c39	-0.03133795
52	0xbd00ac6b	-0.03141443
53	0xbd5c970f	-0.053855
54	0x3cb1e713	0.02171663
55	0xbc4ee748	-0.012628384
56	0xbccbcf7c	-0.02487921
57	0xbd209521	-0.03920472
58	0x3d6c41ab	0.057679813
59	0xbd065f9b	-0.03280602
60	0xba86a70b	-0.0010273171
61	0x3d88388d	0.06651411
62	0x3d6f358c	0.058400676
63	0x3d0b7d5b	0.034055095
64	0xbd0150a1	-0.031571034
65	0x3d9f5dea	0.077815846
66	0x3df68e12	0.120388165
67	0xbd15ba16	-0.03655442
68	0xbc79a7aa	-0.015237728
69	0xbd246c1c	-0.040142164
70	0x3be3afe4	0.006948458
71	0x3d5c2e09	0.05375484
72	0x3d859482	0.06522466
73	0xbd8e6640	-0.069530964
74	0x3b3c41e3	0.0028725795
75	0x3e306a40	0.17228031
76	0x3daf4ccd	0.085595705
77	0x3d380f0f	0.044936236
78	0x3c517412	0.012784021
79	0x3d34a75e	0.044104926
80	0xbd7c9dfa	-0.061674096
81	0x3d6f9e41	0.058500532
82	0xbcfad11f	-0.030617295
83	0xbd98948c	-0.07450208
84	0xbd802b68	-0.06258279
85	0x3cfcf3c0	0.030877948
86	0x3d5c49be	0.053781264
87	0x3da80fea	0.0820616
88	0xbd4e543b	-0.050373297
89	0xbd3af20a	-0.045640983
90	0x3bd9931a	0.0066398503
91	0xbc146bdf	-0.009058922
92	0x3c4a7964	0.012358043
93	0x3d275cff	0.040860172
94	0x3c2d9035	0.010593464
95	0x3d353779	0.044242356
96	0x3d1315f7	0.03590962
97	0xbd324172	-0.043519445
98	0x3d1ba38d	0.03799777
99	0x3cf497b2	0.02985749
100	0xbc1ca8ee	-0.00956176
101	0x3d195113	0.037430834
102	0xbd414957	-0.047189083
103	0xb9cadf46	-0.00038694794
104	0xbd3fa7d0	-0.046790898
105	0x3dec06a7	0.11524706
106	0x3e9cdbf4	0.3063656
107	0x3da02a36	0.07820551
108	0x3dafe057	0.08587711
109	0x3ddfbaf9	0.10924334
110	0x3cebf4a1	0.028803172
111	0x3a0a1c0a	0.00052684604
112	0xbd9d2f91	-0.07675088
113	0xbcd32e35	-0.02577887
114	0xbc928dcf	-0.017889885
115	0xbd8d34e7	-0.06894856
116	0xbbe1f496	-0.006895612
117	0xbd06d9aa	-0.032922424
118	0x3d5d25fd	0.053991307
119	0x3c0f0f00	0.008731604
120	0x3dc80556	0.09766643
121	0xbd8f42cb	-0.069951616
122	0xbd32393f	-0.043511625
123	0x3d79c981	0.060983185
124	0xbd6af90f	-0.057366427
125	0x3d75d744	0.060019746
126	0x3d8c4d62	0.06850697
127	0x3d85e08d	0.0653697
128	0x3ce8c6b3	0.02841506
129	0x3d59ac2f	0.053142723
130	0xbcf1d29f	-0.029519377
131	0x3e07ac3f	0.132493
132	0xbd122724	-0.03568186
133	0x3d7f51bf	0.06233382
134	0x3d827736	0.06370394
135	0x3cd64667	0.026156617
136	0xbd4a4c03	-0.049388897
137	0xbcdd482a	-0.02701195
138	0x3d0e2b9e	0.034709565
139	0x3c0d825a	0.008637035
140	0xbd54ffba	-0.052001692
141	0x3dadfb20	0.08495164
142	0x3da04442	0.07825519
143	0xbd450298	-0.048098177
144	0x3dc82f41	0.09774638
145	0x3cbe869b	0.023257544
146	0x3cd6ecfe	0.026236054
147	0xbd4f6c20	-0.050640225
148	0xbc7ea83c	-0.01554304
149	0xbcefc85a	-0.02927034
150	0xbd878f87	-0.066191725
151	0x3d5591cb	0.052140992
152	0x3de70b48	0.112814486
153	0xbd351f01	-0.04421902
154	0xbd8e450c	-0.069467634
155	0xbca1913e	-0.019722577
156	0xbbc948b4	-0.0061427
157	0x3bbf7f9e	0.0058440706
158	0xbd9feb03	-0.07808497
159	0x3d019205	0.031633396
160	0xbcc07e8f	-0.023497848
161	0x3cddc33b	0.027070632
162	0x3d873207	0.06601339
163	0xbce44d13	-0.027868783
164	0x3cb0f232	0.021599863
165	0x3d27eb54	0.04099591
166	0xbd29ebb3	-0.041484546
167	0xbd04e0ef	-0.032441076
168	0x3d8cd005	0.06875614
169	0x3d16a70d	0.036780406
170	0xbd8a2478	-0.06745237
171	0x3d976e89	0.0739413
172	0xbab7369f	-0.001397807
173	0x3d854f6f	0.065092914
174	0x3d9156d4	0.07096639
175	0x3d55bb06	0.052180313
176	0x3de23386	0.110449836
177	0x3d9d4797	0.0767967
178	0x3d9b4e43	0.075832866
179	0xbd2912c6	-0.04127767
180	0xbd488279	-0.048952553
181	0x3c889efa	0.016677368
182	0xbc8b1f64	-0.016982742
183	0x3c8f07e2	0.017459814
184	0x3d5464a5	0.051853795
185	0x3b13615b	0.0022488448
186	0x3c9511c8	0.018196955
187	0xbda22157	-0.07916515
188	0xbd2b3c7d	-0.041805733
189	0x3dd7ffa0	0.105468035
190	0xbd51441b	-0.05109034
191	0xbaf216b9	-0.0018469907
192	0x3d38dccf	0.045132454
193	0x3d813cc0	0.06310415
194	0x3d3b99ef	0.0458011
195	0x3d883bb1	0.0665201
196	0xbd429fbd	-0.04751562
197	0xbd393bd1	-0.04522306
198	0x3d8749fa	0.06605907
199	0x3e2f556d	0.17122431

regressor.4.weight f4 [200, 200]
0	0xbcc82e63	-0.024436181
1	0xbb85e3c7	-0.004085991
2	0x3dc25302	0.09488489
3	0xbd5d7573	-0.054067086
4	0x3b888438	0.0041661523
5	0xbcfb1150	-0.030647904
6	0x3d70fe88	0.05883649
7	0xbd3a5baa	-0.045497574
8	0xbd1bcc62	-0.03803671
9	0x3bc6e558	0.0060698204
10	0xbb4558a0	-0.003011264
11	0x3c6b1395	0.01434793
12	0xbcf31e42	-0.029677514
13	0xbd53b74a	-0.05168847
14	0xbc56e139	-0.013115221
15	0x3c55efac	0.0130576305
16	0x3cc71ab2	0.024304722
17	0xbd00a286	-0.031404994
18	0x3be33265	0.0069334977
19	0x3d10c4c2	0.035343893
20	0xbc7ded3a	-0.015498454
21	0xbcfc4bdf	-0.030797897
22	0x3b0fd8ed	0.0021949366
23	0xbc8ccb61	-0.017186822
24	0x3a8f3a1e	0.0010927354
25	0x3d30a3e1	0.043125037
26	0x3bb5bd72	0.0055462653
27	0x3d354515	0.044255335
28	0xbc8636ba	-0.016383518
29	0xbd43b09d	-0.047775853
30	0x3b8a8b14	0.004228005
31	0x3c4b6ed9	0.012416565
32	0x3ca641b4	0.020295002
33	0x3c368cd8	0.011141978
34	0x3d52d5e2	0.051473506
35	0xbc7cb98c	-0.015425097
36	0xbd09852c	-0.03357427
37	0x3b86dfcf	0.0041160355
38	0x3d317af8	0.043330163
39	0xbd2f42ce	-0.04278832
40	0xbd0698b2	-0.032860465
41	0x3c4d51f7	0.012531749
42	0x3d04902b	0.03236405
43	0xbc6d3b98	-0.01447954
44	0x383dfe11	4.529773e-05
45	0x3ce7eddd	0.028311664
46	0xbd38bca4	-0.045101777
47	0xbc52d8b9	-0.0128690535
48	0x3ba63233	0.005071902
49	0xbca201ba	-0.019776214
50	0x3cd79903	0.026318079
51	0x3cc0e592	0.023546968
52	0x3c518cf8	0.012789957
53	0xbc9a8c99	-0.01886587
54	0x3d49da6c	0.04928057
55	0x3db8e0fb	0.090272866
56	0x3c8e0f06	0.017341148
57	0xbbe6a5cd	-0.007038808
58	0x3cdcd900	0.026958942
59	0x3b7e3600	0.003878951
60	0x3c067cf3	0.008208501
61	0xbd26d400	-0.040729523
62	0x3bd49bb1	0.0064882864
63	0xbca288ed	-0.019840682
64	0x3c8b0756	0.016971271
65	0xbd13c57f	-0.03607702
66	0x3d00d446	0.03145244
67	0x3c19165b	0.009343709
68	0x3d038aa8	0.032114655
69	0xbd0943a8	-0.033511788
70	0x3d5eb2d7	0.054369774
71	0x3bb2ae27	0.0054528895
72	0xbd2c65af	-0.04208916
73	0x3d032e3d	0.032026518
74	0x3d52d1a3	0.051469456
75	0x3ce114f8	0.027475819
76	0x3d15f989	0.03661493
77	0x3d665932	0.056237407
78	0x3cb917b5	0.022594312
79	0xbd34b956	-0.044122063
80	0x3d8f5111	0.06997884
81	0x3d4f97c5	0.050681848
82	0x3d0e1dc6	0.034696363
83	0xbc53f6c0	-0.012937248
84	0x3d5fe40f	0.054660853
85	0x3d3d8137	0.046265807
86	0x3c603f94	0.013687033
87	0xbd4afedd	-0.049559463
88	0x3d0cd7f3	0.034385633
89	0xbc9f856f	-0.019472806
90	0x3cd554ce	0.026041415
91	0x3d45bf94	0.048278406
92	0xbd347b96	-0.044063173
93	0xbd11e347	-0.03561714
94	0xbd3a7372	-0.045520253
95	0x3d1091b4	0.035295203
96	0xbd01e2c8	-0.031710416
97	0x3d750575	0.059819657
98	0xbd02c2fb	-0.03192423
99	0x3af6b694	0.0018822723
100	0x3d20e697	0.039282408
101	0x3d12fdbf	0.035886522
102	0xbb6790f6	-0.0035334206
103	0xbc911f3a	-0.017715085
104	0x3c6968b2	0.014246153
105	0x3cc9e3f6	0.024644833
106	0xbc25b699	-0.010114335
107	0xbcb2f156	-0.021843594
108	0x3cadb1ec	0.021203004
109	0x3ada6bff	0.0016664265
110	0xbc752fc5	-0.014965002
111	0x3c91f1b9	0.017815458
112	0xbd6bc9dd	-0.05756556
113	0xbc4ee045	-0.012626712
114	0x3beef283	0.0072920932
115	0x3cca7432	0.02471361
116	0xbb71e66e	-0.0036911028
117	0x3cd266b9	0.025683748
118	0x3a451198	0.0007517575
119	0x3d2e738b	0.04259066
120	0x3d240236	0.04004117
121	0x3d542956	0.051797234
122	0xbc50a87f	-0.012735485
123	0xbb1889e8	-0.0023275558
124	0x3be97a28	0.007125158
125	0x3b96c4c2	0.004601092
126	0xbc712a03	-0.014719489
127	0x3c407493	0.011746543
128	0xbc3a7195	-0.011379619
129	0xbc801245	-0.015633712
130	0xba3b7b90	-0.0007151896
131	0xbd159179	-0.036515687
132	0x3d260684	0.040533558
133	0x3d08cb0b	0.033396762
134	0xbcc22be3	-0.023702567
135	0xbd169b85	-0.03676941
136	0xbcce6927	-0.025196625
137	0xbd23e14a	-0.040009774
138	0x3d36d2b2	0.04463453
139	0x3c95895d	0.018253976
140	0x3ce772ed	0.028253043
141	0x3ccc1f47	0.024917258
142	0xbbfc377a	-0.007697043
143	0xbd0a33c8	-0.03374079
144	0x3d19f75b	0.037589412
145	0xbd5f52c9	-0.05452231
146	0x3cb6f4ad	0.022333467
147	0xbd1d5ced	-0.0384187
148	0x3cc84520	0.024447024
149	0x3b17ae42	0.0023144637
150	0xbd13bb09	-0.036067042
151	0xbd28e2f2	-0.041232057
152	0x3d0b82e9	0.034060393
153	0xbd036e2e	-0.032087497
154	0xbc02f026	-0.007991826
155	0x3da1c8fe	0.07899664
156	0x3d696cd1	0.05698854
157	0x3bbd4e5d	0.005777164
158	0x3d4542c5	0.04815938
159	0xbaacfe39	-0.0013198323
160	0x3c9aeadb	0.018910816
161	0xbb9c2c2a	-0.004766007
162	0xbc6fc84c	-0.014635157
163	0xbca2ef53	-0.01988951
164	0x3d4fb888	0.050713092
165	0x3a8cac9a	0.0010732592
166	0x3b8bc0b4	0.0042649154
167	0x3c5dc8cb	0.013536642
168	0x3d3a82b1	0.045534793
169	0x3cebe79d	0.028796965
170	0x3d71c74e	0.059027962
171	0x3cb9e608	0.022692695
172	0xbca49fb9	-0.020095693
173	0x3c9e87d2	0.019351874
174	0x3ccfe0d7	0.025375767
175	0x3c1ac04b	0.00944526
176	0x3cf06b44	0.029348023
177	0x3c5570b4	0.013027359
178	0x3c58cc04	0.013232235
179	0x3d248fba	0.04017613
180	0x3d146cf2	0.03623671
181	0x3d7f2f4e	0.062300973
182	0xbd49df05	-0.049284954
183	0x3d68056e	0.056645803
184	0x3cce6553	0.0251948
185	0x3d491d60	0.04910028
186	0xbcd93ee7	-0.026519252
187	0x3ca25620	0.019816458
188	0xbd14c572	-0.03632111
189	0xbd11aee8	-0.035567194
190	0xbc2cbdcb	-0.010543297
191	0x3d39ba05	0.045343418
192	0x3c26bf62	0.010177465
193	0x3d2d059d	0.04224168
194	0x3d4c1827	0.04982772
195	0x3b7f8dab	0.0038994353
196	0xbd17aa8c	-0.03702788
197	0xbc3e99f0	-0.011633381
198	0x39b9e3cc	0.00035455672
199	0xbcf0f867	-0.029415322
200	0x3d01e50f	0.031712588
201	0x3d5c1fbb	0.053741198
202	0xbd4241d1	-0.04742605
203	0x3d590977	0.052987542
204	0x3c9b02c9	0.018922227
205	0xbc9df39d	-0.019281203
206	0x3cac344a	0.021021027
207	0xbc91fb7e	-0.017820116
208	0xbd097a5d	-0.03356396
209	0x3d0baa6a	0.034098066
210	0xbd303239	-0.043016646
211	0xbd2f11f7	-0.042741742
212	0xbccfd583	-0.025370365
213	0x3c14eeef	0.009090169
214	0x3cd5a53d	0.026079768
215	0x3cec33e1	0.028833332
216	0xbceefc01	-0.0291729
217	0xbcab41f2	-0.020905469
218	0x3c60450a	0.013688335
219	0x3c6d6e90	0.014491692
220	0xbcf7081f	-0.03015524
221	0x3d1a4070	0.03765911
222	0xbbd47607	-0.0064837965
223	0x3d45ee5b	0.048323017
224	0xbd580087	-0.052734878
225	0xbc79205e	-0.015205471
226	0xbbf8e915	-0.007596145
227	0xbc00b6d7	-0.007856092
228	0x3c1de021	0.009635956
229	0xbd23f4aa	-0.04002825
230	0x3ba00bee	0.0048842346
231	0xbcb3cbef	-0.021947829
232	0x3c44bc7a	0.012007827
233	0xbccb2188	-0.024796262
234	0x3bfb897b	0.007676301
235	0xbc86b57a	-0.016443957
236	0x3d10d280	0.035357
237	0xbc982d06	-0.018576156
238	0xbbdb18f1	-0.006686323
239	0xbd2aa901	-0.04166508
240	0xbd1e97d6	-0.03871902
241	0xbcbf2aef	-0.023335902
242	0x3aae6c38	0.0013307398
243	0x3c30c438	0.01078897
244	0xbd5111b7	-0.051042285
245	0xbd344fc8	-0.044021398
246	0x3b9fbc5a	0.004874748
247	0xbd469b83	-0.04848815
248	0x3d1d8828	0.038459927
249	0xbcdabccd	-0.026701355
250	0x3cdf1185	0.027230034
251	0xbb9ad9c6	-0.0047256676
252	0xbc8de815	-0.01732258
253	0x3c5ac871	0.013353453
254	0x3d22e2c6	0.03976705
255	0xbd2b05cd	-0.04175358

regressor.4.bias f4 [200]
0	0x3cdd2391	0.026994498
1	0xbc99d5d7	-0.018778725
2	0x3b99821a	0.004684699
3	0x3cae264a	0.021258492
4	0x3d01b0b0	0.031662643
5	0xbbc0cad8	-0.005883556
6	0x3cc286e9	0.02374597
7	0x3d11f0a5	0.035629887
8	0x3d5cc8bc	0.053902373
9	0xbcd79701	-0.026317121
10	0xbc810687	-0.015750183
11	0x3d075085	0.033035774
12	0xbd2e5f3e	-0.0425713
13	0xbd01c58d	-0.03168254
14	0xbcd06e8b	-0.025443336
15	0x3d650f32	0.055922695
16	0x3d1c2938	0.038125247
17	0xbce751df	-0.028237281
18	0x3cab6986	0.020924341
19	0xbc1172a6	-0.008877432
20	0xbd49c928	-0.049264103
21	0x3aed8ff7	0.001812457
22	0x3d135d5e	0.035977714
23	0x3d0b3dcb	0.033994477
24	0x3d3a777e	0.045524113
25	0x3d339837	0.043846335
26	0x3d036071	0.032074396
27	0xbcc8ab9e	-0.024495896
28	0x3b2f6c68	0.0026767496
29	0x3d624fb8	0.055251807
30	0xbd5854ca	-0.052815236
31	0x3d397896	0.045281015
32	0x3d9f806b	0.07788166
33	0xbd16042e	-0.03662508
34	0xbd2ecd5a	-0.042676307
35	0x3d46dd58	0.048550934
36	0x3c973f9c	0.018462949
37	0x3cd83638	0.026393041
38	0x3d333964	0.043755904
39	0x3ca5a8fe	0.020222183
40	0x3b6f5221	0.0036517459
41	0xbb57a343	-0.0032903708
42	0x3d75f4fd	0.060048092
43	0xbd00536a	-0.03132955
44	0x3cd1aebd	0.025596017
45	0x3ca412e3	0.020028537
46	0xbd0833c7	-0.033252504
47	0xba705b3e	-0.00091688696
48	0x3b5cac4e	0.0033672038
49	0x3b742510	0.0037253536
50	0x3d134a8c	0.035959765
51	0xbd03cb94	-0.03217657
52	0x3ce29cb8	0.02766262
53	0xbc81a56a	-0.015825946
54	0xbcdaf7ee	-0.02672955
55	0xbd04c4c2	-0.032414205
56	0xbc679c9f	-0.0141364625
57	0x3cd3c01f	0.025848446
58	0x3bfa92ce	0.007646895
59	0xbb670f6d	-0.0035256997
60	0xbba1b897	-0.004935335
61	0x3d58b154	0.05290349
62	0xbd08916f	-0.03334182
63	0x3cf28dec	0.02960869
64	0x3cc3bd2f	0.02389392
65	0xbc84daca	-0.016217608
66	0x3e0a4dd0	0.13506246
67	0xbc212467	-0.009835339
68	0xbb36b6bc	-0.0027879914
69	0xbc219fbe	-0.009864746
70	0xbcb1a8c9	-0.021686928
71	0x3d56299a	0.052285768
72	0x3d0918d2	0.033470936
73	0x3c8f6284	0.01750303
74	0x3d7e7a9a	0.06212864
75	0x3c9d3e0c	0.019194625
76	0x3cbefc61	0.023313703
77	0x3b025b4d	0.0019890845
78	0x3e233e84	0.15941817
79	0xbb9197e1	-0.004443154
80	0x3d864b4b	0.0655733
81	0x3d01d67e	0.031698696
82	0x3d25d875	0.040489633
83	0x3cb37953	0.021908438
84	0x3cc08439	0.023500549
85	0x3c210408	0.009827621
86	0xbce67620	-0.028132498
87	0x3ba786b1	0.005112492
88	0x3c9df09f	0.019279776
89	0x3d8ba119	0.06817836
90	0xbc78289a	-0.015146399
91	0xbb470b01	-0.003037155
92	0xbc1258e1	-0.008932323
93	0xbd73fa11	-0.059564654
94	0x3c1f7fdc	0.009735074
95	0xbc5e169b	-0.013555194
96	0xbd1a0ca5	-0.037609715
97	0x3aef6194	0.0018263333
98	0x3c365016	0.011127492
99	0xbd22a3c7	-0.03970697
100	0xbd7f927b	-0.062395554
101	0x3e90c35d	0.2827405
102	0x3cd0105b	0.025398424
103	0xbcb3e951	-0.02196184
104	0x3cad2647	0.021136416
105	0x3d7fbd1e	0.062436216
106	0xbd2f49f3	-0.042795133
107	0x3d0b7ed8	0.034056515
108	0x3c0f0ad1	0.008730606
109	0x3d6527fd	0.05594634
110	0x3ced0459	0.028932737
111	0x3d03302e	0.03202837
112	0xbbe3e5fe	-0.0069549074
113	0xbc900711	-0.017581495
114	0x3d2a80ac	0.041626617
115	0xbba242a9	-0.004951794
116	0xbd16623e	-0.036714785
117	0x3ccbf8e5	0.024898956
118	0x39eae974	0.00044805894
119	0x3c2d6f2b	0.010585587
120	0x3c0f8289	0.008759149
121	0xbd04e2ed	-0.032442976
122	0x3d110d10	0.035412848
123	0xbc863b2e	-0.016385641
124	0xbd293f8c	-0.04132037
125	0xbd475291	-0.048662726
126	0x3d49a104	0.049225822
127	0xbd098a59	-0.033579204
128	0xbd2e27d7	-0.042518463
129	0xbcf515a0	-0.029917538
130	0xbd14765c	-0.03624569
131	0xbb47579c	-0.003041721
132	0xbcc0b869	-0.023525434
133	0x3d759239	0.059953902
134	0x3b28e01e	0.002576835
135	0x3cfca3d9	0.030839847
136	0x3d049877	0.032371964
137	0x3d07b40b	0.033130687
138	0xba8aa617	-0.0010578063
139	0xbcb30338	-0.02185212
140	0x3d960d8b	0.07326802
141	0xbd2a0de7	-0.041517165
142	0x3b5a21cb	0.0033284302
143	0x3e217cfa	0.15770331
144	0xbaa5b7ce	-0.0012643279
145	0xbc90129c	-0.017586999
146	0xba93ecc7	-0.0011285775
147	0x3d212d4d	0.039349843
148	0x3cbad76d	0.022807801
149	0x3b820ea0	0.0039690286
150	0xbbfc287a	-0.007695255
151	0xbcf4e0a3	-0.029892271
152	0xbcf6682e	-0.030078974
153	0x3c98d9aa	0.018658478
154	0xbca7d03e	-0.02048504
155	0xbc9fc1c1	-0.019501569
156	0xbd142358	-0.03616652
157	0xbd3e015e	-0.046388023
158	0xbcc73be0	-0.024320543
159	0xbc8354b6	-0.016031604
160	0x3db1942c	0.0867084
161	0x3c27d575	0.010243763
162	0x3c9bf37e	0.019037005
163	0xbc24e96a	-0.010065416
164	0x3a8b4310	0.0010624845
165	0xbd295d71	-0.04134888
166	0xbd3b5bfc	-0.04574202
167	0xbcf5b626	-0.029994082
168	0x3aa4b4f0	0.0012566131
169	0x3d7fccbe	0.062451117
170	0x3ce73dc8	0.028227702
171	0xbd1a333f	-0.03764653
172	0x3d671ec4	0.056425825
173	0x3ce358c4	0.027752288
174	0xbd0db3a3	-0.034595143
175	0x3d8799b4	0.066211134
176	0xbbaefdec	-0.0053403284
177	0x3cd627ee	0.026142087
178	0x3d3ce267	0.04611435
179	0x3d91a30f	0.07111179
180	0x3ccf54fa	0.025309075
181	0x3d4761b4	0.04867716
182	0x3d45dcc2	0.048306234
183	0x3d8a67f5	0.067581095
184	0xbd11d49b	-0.035603147
185	0x3b86cd5a	0.0041138353
186	0x3d53c1e4	0.05169858
187	0xbb07dfea	-0.0020732828
188	0x3d7b75a1	0.061391477
189	0xbd067dac	-0.032834694
190	0xbc32b8b6	-0.010908296
191	0xbcdf2f08	-0.027244106
192	0xbd435dc2	-0.047696836
193	0xbc928449	-0.017885344
194	0x3c71a445	0.014748638
195	0xbd263659	-0.040579174
196	0xbc032f53	-0.008006888
197	0xbb2288f2	-0.0024800864
198	0x3d6e7d88	0.058225185
199	0xbac5aa13	-0.0015080593

regressor.6.weight f4 [200, 200]
0	0x3d25170f	0.040305194
1	0x3bef65ec	0.007305851
2	0xbd0511ac	-0.032487556
3	0x3d687e46	0.05676105
4	0xbba7a360	-0.0051159114
5	0xbd0f4c6e	-0.034985
6	0x3d6b84fc	0.05749987
7	0x3a9017af	0.0010993386
8	0x3b92ab0c	0.004475957
9	0x3cc8d153	0.024513876
10	0x3c9d4e94	0.019202508
11	0xbcf4e9cd	-0.029896641
12	0x3c52fe03	0.012877944
13	0xbcf0a033	-0.029373264
14	0xbc1c64d5	-0.009545525
15	0xbd65b23a	-0.056078173
16	0xbc819541	-0.01581824
17	0x3b2af6c5	0.0026087028
18	0x3b81ddca	0.003963207
19	0x3bbf99a3	0.0058471723
20	0xbd3d6212	-0.046236105
21	0xbd09fe04	-0.033689514
22	0x3cbc06f9	0.022952544
23	0xbc3ef3de	-0.011654822
24	0xbd27c400	-0.040958405
25	0x3d438893	0.04773767
26	0x3ce209cc	0.027592562
27	0x3b9835d4	0.0046450887
28	0xbd13c5ca	-0.0360773
29	0x3c92cb9d	0.017919356
30	0x3ccbea13	0.024891889
31	0x3ca334af	0.019922582
32	0xbb769c57	-0.0037629807
33	0xbd3cc2a0	-0.046084046
34	0xbd35b873	-0.044365358
35	0xbd4e2e45	-0.050337095
36	0x3d09a12f	0.033600982
37	0x3c53c05b	0.012924279
38	0xbc993909	-0.018703954
39	0x3d1f0712	0.038825102
40	0x3cb99deb	0.022658309
41	0x3cccb879	0.024990307
42	0x3b0ae7df	0.0021195335
43	0x3d31e2aa	0.043429054
44	0x3d665c6f	0.056240495
45	0xbcb9caad	-0.022679651
46	0x3c7b39c8	0.0153336
47	0x3d404c02	0.046947487
48	0xbb7f147a	-0.0038922117
49	0xbce7d964	-0.028301902
50	0xbd44ce1d	-0.048048127
51	0x3d43797d	0.047723282
52	0xbd566d7a	-0.0523505
53	0xbbcc465b	-0.006233973
54	0x3c5c4617	0.013444445
55	0xbc77c904	-0.015123609
56	0x3d2fb30a	0.042895354
57	0xbce4392f	-0.027859299
58	0x3d6986f1	0.057013456
59	0x3b3bea2e	0.0028673518
60	0x3c4a9eb0	0.012366936
61	0x3c85aaf0	0.01631686
62	0x3ccbc699	0.024874972
63	0x3b85c0e0	0.0040818304
64	0x3d343eb6	0.04400512
65	0xbc479ba4	-0.012183104
66	0xbd6ab852	-0.057304688
67	0x3c82c8bb	0.015964856
68	0x3b99b72e	0.004691026
69	0xbcf8558a	-0.030314226
70	0x3c75bb62	0.014998289
71	0xbcbb6852	-0.022876892
72	0x3bd81e7c	0.006595431
73	0xbd0f9d44	-0.03506209
74	0xbc5fe15c	-0.01366457
75	0xbd2f99da	-0.042871334
76	0xbd1e7ca9	-0.038693104
77	0xbc52955e	-0.012852995
78	0x3cebc072	0.028778289
79	0xbd4c8bdb	-0.049938064
80	0x3d2eb482	0.042652614
81	0xbbf78aa3	-0.0075543686
82	0x3b909b44	0.0044130404
83	0xbd5b992d	-0.053612877
84	0xbd237385	-0.03990509
85	0xbc8384cb	-0.016054532
86	0xbc785401	-0.015156747
87	0xbd325bcf	-0.043544587
88	0x3d56b6be	0.05242037
89	0x3d44ac78	0.04801604
90	0xbc2e452f	-0.010636612
91	0x3c7c447c	0.015397187
92	0x3ca60fa9	0.02027114
93	0xbcead916	-0.028667968
94	0xbcaf48c4	-0.021397002
95	0xbd3a1199	-0.04542694
96	0xbd176fae	-0.03697174
97	0x3d33f61c	0.04393588
98	0xbd2a301d	-0.04154979
99	0x3c07f2ef	0.008297666
100	0x3ce861fc	0.028367035
101	0xba8b526b	-0.0010629421
102	0xbd2cab9a	-0.04215584
103	0x3ca389de	0.019963201
104	0xbcfb5124	-0.03067834
105	0x3ced56a0	0.02897197
106	0x3c5082ad	0.012726468
107	0x3ce41295	0.027840892
108	0xbd070214	-0.032960966
109	0x3cdf9f9c	0.027297787
110	0xbb0026b0	-0.001955431
111	0x3d05d717	0.03267583
112	0xbcb5cba7	-0.022191836
113	0xbd2949d8	-0.04133019
114	0x3cfd705a	0.030937362
115	0xbd508073	-0.05090375
116	0x3d52e58f	0.051488455
117	0xbc591d37	-0.013251594
118	0x3d3fc6fc	0.046820626
119	0x3c8e3239	0.017357932
120	0x3bfd64a1	0.007732943
121	0x3c97bc35	0.018522361
122	0xbd27fbca	-0.04101161
123	0xbd06a8fd	-0.032876004
124	0xbd3207a7	-0.04346433
125	0x3c8d25ec	0.017229997
126	0x3c59ce67	0.013293839
127	0xbd02c331	-0.03192443
128	0xbd4fe061	-0.050751094
129	0x3cec84b1	0.028871866
130	0xbd252239	-0.04031584
131	0xbc94e013	-0.018173253
132	0xbd386bd3	-0.045024704
133	0x3cf01dce	0.029311087
134	0xbba9d06a	-0.0051823156
135	0xbd082546	-0.03323867
136	0x3c16ae32	0.009196805
137	0xbce0ade8	-0.027426675
138	0x3d5985b2	0.053106017
139	0xbbddacb8	-0.0067649744
140	0xbd035313	-0.032061648
141	0xbc63a8aa	-0.013895193
142	0x3b957f24	0.0045622755
143	0xbcd7bf26	-0.026336264
144	0x3b4db662	0.0031389226
145	0x3c7ae59b	0.015313531
146	0xbd011c85	-0.03152134
147	0xbcfdb3ad	-0.030969465
148	0x3d575cce	0.05257874
149	0x3d1100df	0.03540122
150	0xbcc9d452	-0.024637375
151	0x3cbdd1b0	0.023171276
152	0xbc950b5b	-0.018193891
153	0xbc076f18	-0.008266233
154	0xbd06ddbe	-0.032926314
155	0xbd24069e	-0.040045373
156	0xbc6d8275	-0.014496435
157	0x3ced514d	0.028969431
158	0x3d475ec2	0.048674352
159	0x3c2877f2	0.010282503
160	0xbc150b50	-0.009096935
161	0xbc6bfad9	-0.014403068
162	0x3d671ffe	0.056426995
163	0x3cdf8dbd	0.027289266
164	0x3b32c614	0.0027278708
165	0x3d024e07	0.031812694
166	0x3ce30ff6	0.027717572
167	0xbd0de674	-0.034643605
168	0xbd535565	-0.05159511
169	0x3d641e65	0.05569305
170	0x3d3ce974	0.046121076
171	0x3c9767e8	0.018482164
172	0x3d1480f1	0.03625578
173	0xbd14d97a	-0.036340214
174	0x3cd33cc6	0.025785815
175	0xbbf945ce	-0.0076071983
176	0xbca54a06	-0.020176899
177	0xbd52f4cd	-0.05150299
178	0xbd341289	-0.04396299
179	0x3c8bdb8d	0.017072463
180	0xbd1d95cb	-0.03847293
181	0xbafaf2d7	-0.0019145858
182	0xbb83bb1f	-0.0040201093
183	0x3a68aa08	0.0008875434
184	0x3c8a0322	0.016847197
185	0xbd39dde8	-0.045377642
186	0x3d1f6e7e	0.038923733
187	0x3ccde80a	0.025135059
188	0xbd01354d	-0.031544972
189	0xbd541a1d	-0.051782716
190	0xbd08585c	-0.03328739
191	0xbbf5c374	-0.0075001065
192	0xbbeddf88	-0.007259313
193	0x3d63c4c4	0.055607572
194	0x3cd91d39	0.026503192
195	0xbcfef7b4	-0.031123973
196	0xbc8daf84	-0.017295606
197	0xbd26fee6	-0.040770434
198	0xbd322acd	-0.04349785
199	0x3bf1b843	0.007376702
200	0xbc5abd03	-0.013350728
201	0xbcadd0a2	-0.021217648
202	0x3cb29d29	0.021803455
203	0x3c91bc21	0.017789902
204	0x3c86ca10	0.016453773
205	0xbad4b754	-0.0016228952
206	0xbc18d934	-0.009329129
207	0xbc82e890	-0.015980035
208	0xbd56cb7b	-0.052440148
209	0xbd1aeefe	-0.037825577
210	0xbb8ff557	-0.0043932605
211	0xbcd93bef	-0.026517836
212	0x3b2e4a82	0.0026594703
213	0xbb33e855	-0.0027451713
214	0x3cdc3a71	0.026883336
215	0x3d4b9f37	0.049712386
216	0xbd7d6ac0	-0.061869383
217	0x3d487e13	0.04894836
218	0xbd0ba281	-0.034090523
219	0xbaab7588	-0.0013081292
220	0xbd3983ce	-0.045291714
221	0xbcf0adb1	-0.029379698
222	0xbd1b837a	-0.037967183
223	0xbc74758f	-0.014920606
224	0x3b2138b4	0.0024600448
225	0xbca401da	-0.020020414
226	0xbd66853f	-0.056279417
227	0x3c6ff152	0.014644938
228	0x3c54dde2	0.012992354
229	0xbcd10992	-0.025517259
230	0x3c155b0c	0.009115946
231	0xbd2c061b	-0.04199801
232	0xbc1dc4c4	-0.009629432
233	0x3bc45740	0.0059918463
234	0x3c86c263	0.016450113
235	0xbd1c1f96	-0.03811606
236	0xbc29ed22	-0.010371478
237	0xbc672b26	-0.0141094085
238	0xbd0fa101	-0.035065655
239	0xbd4c0025	-0.049804825
240	0xbcc50516	-0.024050277
241	0x3d3cbe16	0.046079718
242	0xbc88d581	-0.01670337
243	0xbd40a749	-0.047034536
244	0x3d00ff12	0.031493254
245	0xbc3d5a75	-0.011557211
246	0x3d56e709	0.052466426
247	0xbd0f5ea7	-0.035002377
248	0x3d494721	0.0491401
249	0x3ba47e86	0.0050199656
250	0xbce68f89	-0.028144615
251	0xbcd64fe1	-0.026161136
252	0x3d111457	0.03541979
253	0x3d5773fc	0.052600846
254	0x3d3a0d1b	0.045422655
255	0x3cb27b2d	0.02178725

regressor.6.bias f4 [200]
0	0x3d05177b	0.032493096
1	0x3d7a8dfb	0.06117056
2	0x3d0c2c71	0.03422207
3	0xbaf9238c	-0.0019007786
4	0xbd1e2f95	-0.038619597
5	0xbc6dd9d5	-0.014517267
6	0xbc0af6ba	-0.008481676
7	0xbbd7ed55	-0.0065895715
8	0xbc8e1292	-0.01734284
9	0xbcad7946	-0.021175992
10	0xbcf5aec8	-0.029990569
11	0xbd819ca3	-0.06328704
12	0x3d51dd5b	0.05123649
13	0xbc7f6b93	-0.015589613
14	0x3d36d206	0.044633888
15	0x3be92568	0.007115055
16	0xbd0cbb04	-0.03435804
17	0xbcdcc19e	-0.026947793
18	0xbcdfd2a4	-0.027322121
19	0xbc4fa21e	-0.012672929
20	0x3d719d68	0.058988005
21	0x3c0d5b31	0.008627699
22	0xbced18e3	-0.028942531
23	0x3c9eefad	0.019401396
24	0xbd065686	-0.03279736
25	0xbcf10f74	-0.029426314
26	0xbc201d7d	-0.009772656
27	0x3d92a429	0.07160217
28	0x3c449009	0.011997231
29	0xbb0d983f	-0.0021605638
30	0x3cdaa452	0.026689682
31	0x3d331322	0.04371942
32	0x3d0720fa	0.032990433
33	0x3d24b163	0.04020823
34	0x3e9269f0	0.2859645
35	0x3cd3c611	0.025851281
36	0xbd19b292	-0.037523814
37	0xbbd71661	-0.006563947
38	0x3d7ad194	0.061235026
39	0x3cef9c58	0.029249355
40	0xbd5d6ef6	-0.0540609
41	0x3d14a235	0.036287505
42	0xbbf8fb69	-0.00759833
43	0x3bcea3bf	0.006306141
44	0x3d3f895f	0.046761867
45	0xbd01089f	-0.031502362
46	0x3cd51ba4	0.026014157
47	0xbcb942ea	-0.022614915
48	0xbc9e0c74	-0.019293047
49	0xbcaead6c	-0.021322928
50	0xbd3fcb60	-0.046824813
51	0x3d17a10d	0.037018824
52	0x3c39cb17	0.011339924
53	0x3d0f7efd	0.035033215
54	0x3d560a50	0.05225593
55	0x3d4a53f7	0.04939648
56	0x3c41ba5c	0.011824217
57	0x3d8b55d3	0.06803479
58	0xbd126db2	-0.035749145
59	0xbd02e928	-0.031960636
60	0xbd046eef	-0.032332357
61	0x3d3319a6	0.043725632
62	0xbc3c3f9f	-0.011489778
63	0xbc777e0c	-0.0151057355
64	0xbd043194	-0.032273844
65	0x3c83340a	0.016016025
66	0x3d42817f	0.04748678
67	0x3d07d036	0.03315755
68	0x3b730566	0.0037082075
69	0x3d141615	0.03615387
70	0x3d618c86	0.055065654
71	0xbcb09ba5	-0.021558592
72	0x3ced85ab	0.028994402
73	0x3cfb1fa5	0.030654738
74	0x3cf1cf6f	0.029517857
75	0x3be83b18	0.0070871226
76	0x3bf1729d	0.0073683993
77	0x3d84dc99	0.06487388
78	0x3d67924c	0.056536004
79	0xbcb0c5b6	-0.02157865
80	0xbd243952	-0.040093727
81	0xbc4c015e	-0.012451498
82	0xbb98d699	-0.004664254
83	0xbd61fc90	-0.055172503
84	0x3da17e99	0.07885475
85	0xbc270b94	-0.0101956315
86	0x3c6a9317	0.0143172955
87	0x3d2e29ab	0.042520206
88	0x3d239172	0.03993363
89	0xbcaa82b7	-0.020814283
90	0x3c40c1a7	0.01176492
91	0x3d27e28a	0.04098753
92	0x3cad6248	0.021165028
93	0x3d65b040	0.05607629
94	0xbcac010c	-0.020996593
95	0x3c464d31	0.012103365
96	0x3cff8f4e	0.031196263
97	0x3c8c0d75	0.01709626
98	0x3d94ee94	0.07272068
99	0xbc854d1d	-0.016272122
100	0xbc33bcaa	-0.010970274
101	0x3c0ac83c	0.008470591
102	0x3e2e0172	0.16992739
103	0x3c67c2af	0.014145537
104	0x3b9c00cd	0.0047608376
105	0x3a28373b	0.00064169214
106	0x3c14faca	0.009092996
107	0xbd264a1c	-0.04059802
108	0xbcd956ce	-0.02653065
109	0x3c168b3b	0.009188469
110	0x3d972127	0.0737937
111	0xbc9a885d	-0.018863851
112	0xbcfe8c4c	-0.031072758
113	0x3b202fdf	0.0024442596
114	0xbac8ffed	-0.0015335061
115	0xbcab966a	-0.020945746
116	0x3c6f0820	0.0145893395
117	0x3d3c35b5	0.045949657
118	0xbc9db759	-0.019252466
119	0x3caaa260	0.02082938
120	0x3bef23ae	0.0072979545
121	0xbc8a4908	-0.016880527
122	0xbc307bce	-0.010771705
123	0xbd5aac86	-0.053387187
124	0xbc80eda5	-0.015738318
125	0xbbd0d0ec	-0.0063725617
126	0xbc3a5da9	-0.011374869
127	0xb955c05b	-0.00020384921
128	0x3d4a9680	0.049459934
129	0x3b70bf8b	0.0036735262
130	0x3cb611c0	0.02222526
131	0x3da0e1d0	0.0785557
132	0xbafe24e6	-0.0019389659
133	0x3d7134df	0.058888312
134	0xbcd2e510	-0.025743991
135	0xbd1eb44d	-0.038746167
136	0x3c8b78c1	0.017025353
137	0xbd148b95	-0.03626593
138	0xbba46567	-0.005016971
139	0xbbf494cf	-0.0074640284
140	0xbd62ce4b	-0.055372518
141	0x3d378eb8	0.04481384
142	0x3d31e09f	0.043427106
143	0x3d35a63b	0.044347983
144	0xbc0e7406	-0.008694654
145	0xbb0fb8cd	-0.0021930218
146	0xbca7d484	-0.020487078
147	0xbd16c5d8	-0.036809772
148	0xbd5f5449	-0.05452374
149	0x3caa828d	0.020814205
150	0x3d1dc868	0.0385212
151	0x3d2d649b	0.042332273
152	0xbb997192	-0.004682728
153	0x3cc7859e	0.024355706
154	0x3d3023be	0.043002836
155	0xbb9835f2	-0.0046451027
156	0x3c81e9ca	0.01585855
157	0x3d19bf33	0.037535857
158	0x3c213687	0.0098396605
159	0x3cb3ad6f	0.021933286
160	0x3c7cd80a	0.015432367
161	0xbd1fca3d	-0.03901123
162	0x3cdad3ad	0.026712263
163	0x3cc38ef0	0.023871869
164	0xbc1f6ae5	-0.0097300755
165	0x3d7f4752	0.062323876
166	0xbbe28e60	-0.006913945
167	0xbb9c9cbd	-0.004779427
168	0xbd087c04	-0.033321396
169	0xbc8cb8ab	-0.0171779
170	0x3cdedecd	0.027205849
171	0x3ca740a2	0.020416562
172	0xbb548e64	-0.0032433504
173	0xbd295c4c	-0.041347787
174	0xbc9143b4	-0.017732479
175	0xbb9f660f	-0.0048644613
176	0xbd1c7d2d	-0.038205314
177	0x3b82b110	0.0039883927
178	0x3d538266	0.05163803
179	0x3c8b87ef	0.017032592
180	0x3c037cb8	0.008025341
181	0x3d85b190	0.06528008
182	0xbc82e619	-0.01597886
183	0x3bb0760a	0.005385165
184	0xbb9fd5a3	-0.0048777624
185	0x3c76898a	0.01504744
186	0x3cc01096	0.023445409
187	0xbcfc5e69	-0.030806737
188	0xbcd47d41	-0.025938632
189	0xbd06def7	-0.03292748
190	0xbd4b586c	-0.049644873
191	0xbcfc5099	-0.03080015
192	0xbb094237	-0.0020944008
193	0x3d757336	0.059924327
194	0xbac91039	-0.0015339918
195	0x3b457074	0.0030126842
196	0x3d0140a6	0.031555794
197	0xbc8c895d	-0.017155344
198	0x3d047363	0.032336604
199	0xbc984257	-0.01858632
