saved-networks/TwoLayerNet_V2.pth (torch_old, 1936 bytes, 3 tensors)

regressor.0.weight f4 [20, 11]
00000000: 8a51 b43e 8230 9c3d f35e 733d 9509 e53c
00000010: 669c 83ba b7ae 003e 52f1 09be 5e16 17be
00000020: 887f 61bf 6020 993d 76b0 77be f2e9 303d
00000030: e12e 4f3b b6b0 073d 78fc 663c 0855 223c
00000040: 0980 333d 5eaf 10be bfe6 82be 83d0 a3be
00000050: 2482 f3bb ffc5 afbd ce87 2dbd 2040 65bd
00000060: d9bb e23c 509b 6a3d 4e3a 01bd 4c99 863d
00000070: f0bb 6dbe 56f0 b7be 87b4 38bf 744a 5c3e
00000080: 982c 2bbe 5b8f 35be 1dcf e1bb dd76 ed3d
00000090: 80d6 343e dda6 38bc 781b 263e 9861 c83c
000000a0: cb74 68bc e435 f23d b2f1 853d 0718 1a3e
000000b0: 07ed 6d3d e4b2 c83d 2689 07bc ef78 0b3d
000000c0: 8ba3 893d 8124 b43b 8370 853e 7d00 0f3e
000000d0: ab40 ba3e 7758 71bd 1a50 863d 2d50 a9bc
000000e0: 9dc4 19bc acf0 98be de6d 2e3c c886 0e3e
000000f0: e476 27bd d558 b53c a178 eabd cc66 fa3d
00000100: 8748 b53d 6de6 96bd de1d 9dbd ac7e 65be
00000110: f6c0 03bc 0d94 93bc 8aec 98bc da18 e73c
00000120: 3abb 22bd 8ab7 833e 44e7 01ba ec86 27bd
00000130: fbbc 51bc a45f 91bd 29fb 10be 3f29 f1bd
00000140: bb86 f53d c4ed bdbd ec29 a3bb c107 f83c
00000150: e7b6 29bd dbd0 803d f82a 49bc 212a 303d
00000160: efd9 ddbe 1599 ac3d 2f25 2bbd af25 20bd
00000170: 5975 003c 767c 7b3d 7e3f 52be 1220 9c3d
00000180: b42d e33d ef87 d8bd 53d9 2abe 82a8 f1be
00000190: cabb aa3c ab76 f6bd 358c d43c fece 24bc
000001a0: 2571 1cbd 0fda 1abe 2db8 abbd af34 27be
000001b0: f0c3 b03d d227 eabd 8b00 5fbe 4ab7 0abe
000001c0: acac bc3c ac45 81bd b125 aabb f4e1 903d
000001d0: 184c 14bd 381c a43e 5878 c63d 3b1a 1e3e
000001e0: 97d0 77bd 6d1d a23e 9cd3 a73e 76d3 d3bd
000001f0: cc44 4f3d 61f5 133c a9f3 fabc b95d 643e
00000200: 8659 9dbe 112b 4bbe 57d3 3bbe 8552 6abb
00000210: 60ad f3be 1dbe 4abe bfcb 9d3b 1ba9 58bc
00000220: bbb6 343c fdfc e6bd e701 0cbd f897 0a3e
00000230: bcb1 d33e eabf 443c fb90 73be ba2d ca3e
00000240: 5dbc ac3d 4c42 d8bb c50c cb3c 19bf c03b
00000250: 5840 863d 2674 d33d f6a5 adbe 6df0 34be
00000260: 46e9 54be 0b0d c73d d571 ca3d b128 9d3d
00000270: 33ad d53c d178 d03c f7f4 1c3d a61f ed3d
00000280: 809c 87be ad66 403c fe33 3dbf 43e6 613c
00000290: 2bee 37be 4229 f43d 564f cabe 97ca 27bd
000002a0: f135 f03a 0270 87ba 6abc 9c3d bf0e 973d
000002b0: da71 b6bc a1fe 84bd d676 fabd b47b 2bbe
000002c0: a3d3 6ebe 666e 663e 6512 3e3e 9fbe b8bb
000002d0: d0be d53b 2b05 863c f016 4d3e 0a50 743e
000002e0: 73ff 9b3e be36 8fbe 4609 323e efce f73e
000002f0: 35fe 65bc 2293 ac3c 666e dd3b 58d2 7cbc
00000300: c21b c03d 8d3f 0d3e daf0 413e 47a9 933e
00000310: 9cee 1c3d 7c0d 583e 837b e1be 7186 0dbe
00000320: 3129 b53c 1e6c 8cbd a31d d4b9 b88c 1bbe
00000330: b427 1d3e d3d1 a83e 7bb3 da3e 4093 74be
00000340: 45d0 7e3e 91e9 e03d 7500 b63e 7e93 803d
00000350: b28d 92bd 3f9a e43d 7e80 30be 1b4a 8b3d
00000360: 9444 883e f37d 873e 79cf 2fbd d107 693e
0.3521846 0.0762644 0.059416723 0.02795867 -0.0010041117 0.12566648 -0.13470963 -0.14754626
-0.8808522 0.07476878 -0.24188408 0.043191858 0.0031613635 0.03312751 0.014098279 0.009907968
0.043823276 -0.14129397 -0.2556667 -0.3199502 -0.0074312855 -0.08582687 -0.04236584 -0.055969357
0.027677463 0.057277024 -0.031549744 0.06572208 -0.23216224 -0.3592555 -0.7215046 0.21512777
-0.1671623 -0.17730467 -0.006891145 0.11594937 0.1765995 -0.011270252 0.16221416 0.024460599
-0.014188002 0.11826685 0.0654024 0.15048228 0.058087375 0.09799746 -0.008272445 0.034050878
0.067206465 0.0054975157 0.26062402 0.1396503 0.36377463 -0.058922257 0.06558247 -0.020668114
-0.009385255 -0.29871118 0.010646312 0.13918602 -0.040884867 0.022137085 -0.114487894 0.12226638
0.08851724 -0.07368169 -0.07671712 -0.22411603 -0.008041611 -0.018014932 -0.018667478 0.028210092
-0.039729334 0.25725967 -0.0004955421 -0.040900156 -0.012801404 -0.0709832 -0.1415831 -0.11775445
0.119885884 -0.09273866 -0.0049793627 0.030277135 -0.041434195 0.06289836 -0.012278311 0.043008927
-0.43330333 0.084276356 -0.041783508 -0.039098438 0.007840478 0.061397992 -0.20532033 0.076233044
0.110927016 -0.10572802 -0.16684465 -0.47198874 0.020841498 -0.12034353 0.025945762 -0.010059116
-0.03819384 -0.15122245 -0.08384738 -0.16328691 0.08631122 -0.11433376 -0.21777551 -0.13546482
0.023031555 -0.06312117 -0.0051924814 0.07074347 -0.03620538 0.3205278 0.096909225 0.15439694
-0.06050166 0.31663075 0.32778633 -0.10343067 0.05060272 0.009030671 -0.030633764 0.22301377
-0.30732363 -0.19840647 -0.18342339 -0.0035754752 -0.47593212 -0.19799085 0.004815548 -0.013223912
0.011029894 -0.112787224 -0.0341815 0.13534534 0.41346538 0.0120086465 -0.23785774 0.39488012
0.08434365 -0.0065997 0.024786362 0.0058821556 0.06555241 0.10324888 -0.3391568 -0.1766984
-0.20792112 0.097192846 0.09884993 0.07673777 0.026083564 0.025448235 0.038319554 0.11578302
-0.26486588 0.01174323 -0.7390746 0.013787809 -0.17961948 0.11921932 -0.39513654 -0.04096469
0.0018326623 -0.0010333064 0.07653125 0.073758595 -0.022271086 -0.06493879 -0.122296974 -0.16746408
-0.2332292 0.22503051 0.18561704 -0.005637958 0.0065229908 0.016359886 0.20028281 0.23858657
0.3046833 -0.27971452 0.1738635 0.48400065 -0.014037658 0.021066252 0.0067575453 -0.015431009
0.093802944 0.13793774 0.18939534 0.28840086 0.038313493 0.21098894 -0.44039544 -0.13820817
0.022114368 -0.06856559 -0.00040457872 -0.15190399 0.15347177 0.32972583 0.42715058 -0.23884296
0.24884136 0.10982049 0.35547224 0.06278132 -0.071559325 0.111622326 -0.17236516 0.06801244
0.2661482 0.2646328 -0.04292247 0.22756888

regressor.0.bias f4 [20]
00000000: 4597 e13e 79d6 663d 39aa cf3e 7714 1f3e
00000010: 51b9 133e 90e9 ef3d 3fd2 b53b 89ae 4c3e
00000020: 6a3b aebc 0b93 683e 3506 3abe 8fe2 f13e
00000030: 6cf6 e5be 4a62 f43e ddb8 bf3e c561 6b3e
00000040: e22c 01bf 8e34 2b3e 5484 dcbe 0f3b 02be
0.44060722 0.05635688 0.40559557 0.1553515 0.14426161 0.117144704 0.005548745 0.19988455
-0.021268565 0.22712342 -0.1816643 0.47243163 -0.44914567 0.4773124 0.37445727 0.22986515
-0.5045911 0.16719267 -0.43069708 -0.12717842

regressor.2.weight f4 [1, 20]
00000000: 57ee 4b3f 4a95 883e 9f8c f5be 2f6d 9e3d
00000010: 185b 4d3e 6e17 123e 8b1d 073e eb30 383e
00000020: a478 4c3e d9ab 893e d4f9 943e 4eaa 1fbf
00000030: d7a8 263f 8406 133f a147 14bf 99e9 bebe
00000040: 5756 0ebf a012 adbe d2a7 023f e29e 58be
0.7966055 0.266764 -0.47958848 0.07735669 0.20054281 0.1426675 0.13194863 0.1798741
0.19967896 0.26888922 0.29096854 -0.6236924 0.6510138 0.5743182 -0.579218 -0.37287596
-0.55600494 -0.33803272 0.51037323 -0.21154359
